BFSF/model/u=0.02-decrease/grad/2024-11-20-0.0050_model-d.pth (torch, 342128 bytes, 14 tensors)

weight f4 [128, 2]
000000 35 52 5c 3e ff 30 6c 3e 08 ca 98 3b 26 de b9 3e
       0.21515734 0.23065566 0.004662756 0.36302298
000010 71 5b 83 3d d1 73 0a 3e f6 7b 0e be 63 31 70 3e
       0.064139254 0.13520743 -0.13914475 0.2345634
000020 9a b1 46 bd 48 c2 7f 3e ab 65 12 3e e2 9c 4a be
       -0.048509218 0.24976456 0.14296596 -0.19786409
000030 87 43 70 3e 6d 55 a8 3d 2a f1 81 3d b8 8a 57 3e
       0.2346326 0.08219419 0.063448265 0.21049011
000040 71 c9 69 3d 6d a4 41 3e 34 d2 2d bc 53 30 a0 3e
       0.057076875 0.1891038 -0.010609198 0.31286868
000050 36 91 53 3d 66 fb 82 3e ff fe 0d be d8 28 7a 3e
       0.051652156 0.25582427 -0.13866805 0.24429643
000060 b2 06 79 3e 16 1d 86 be 8c d7 0f bd 43 a8 43 3e
       0.2431896 -0.26194066 -0.03511767 0.19107156
000070 c5 bc 15 3d 44 1d 7c bd d5 aa 6c bd ed 04 e7 bd
       0.036556978 -0.061551347 -0.057780106 -0.112802364
000080 32 16 b3 3e d2 3f 02 3e 60 8a 25 3d 76 c5 46 be
       0.3497787 0.12719658 0.040415168 -0.19411263
000090 a7 7a 45 bd a2 e8 fe bd 9e a7 89 3e 31 a1 dc 3d
       -0.048212674 -0.12446715 0.26885694 0.10772932
0000a0 41 31 28 bd 4e 0e 90 be 29 5c 79 bd b1 52 11 3c
       -0.041062597 -0.28135914 -0.060878906 0.008869813
0000b0 78 31 87 bd ea 5c 31 be 51 84 1d bd 47 2c 72 be
       -0.06601232 -0.173206 -0.038456265 -0.23649703
0000c0 25 58 83 3d 3a 16 16 be a2 39 31 3e 33 de 86 3d
       0.064132966 -0.14656916 0.17307141 0.0658535
0000d0 cd 8f 38 be 75 57 01 be 4a da a6 ba 5f db fd 3d
       -0.18023606 -0.12631018 -0.001272985 0.12395357
0000e0 cb 93 56 3e 70 c6 ca bd 76 95 34 3e 84 dc 6d 3e
       0.20954816 -0.0990113 0.1763514 0.23228651
0000f0 4e e2 94 3e e5 35 9f be 93 04 85 bd 78 72 b1 bc
       0.29078907 -0.31095806 -0.06495013 -0.021661028
000100 13 86 93 3d b5 8f 32 3e e2 32 89 3d a6 7c 09 3d
       0.07203307 0.17437632 0.06699158 0.03356614
000110 ba 83 8a bd 6c 43 d2 3d 28 f3 63 bd ab 40 e8 bd
       -0.06763406 0.10266766 -0.055651814 -0.113404594
000120 7b 5d 84 3d 79 ac 5f 3e f6 b2 a4 be 65 d1 18 be
       0.064631425 0.21843137 -0.32167786 -0.14923628
000130 e3 96 39 bd 08 d4 24 3b 44 15 00 3e 49 04 d7 bd
       -0.045309912 0.0025150795 0.12508112 -0.10498864
000140 d2 33 45 3d b5 03 ad 3c cd 6a 4d bd 62 97 3d bc
       0.048145123 0.021119932 -0.05015068 -0.011571737
000150 a2 9f 97 3e df 5c 71 be c1 a0 8c 3c b4 0f ca 3d
       0.29613978 -0.23570584 0.017166497 0.098662764
000160 91 5e ba bc 6d d6 87 3e 91 65 84 bd 3f 91 11 3e
       -0.02275017 0.2653078 -0.06464685 0.14215563
000170 d8 73 34 3d 94 4e 15 3d e9 f5 7d 3d b2 dc 3f 3e
       0.04405579 0.03645189 0.062002096 0.18736532
000180 bf 94 12 3d e9 63 8d be a5 10 88 3d 5b 61 d9 bc
       0.035786387 -0.27615288 0.066438 -0.02653568
000190 39 d7 2f bd bc 5d ba bd c5 7d b0 bc a3 66 38 3e
       -0.04292986 -0.0909991 -0.021544347 0.18007903
0001a0 7b 37 15 3d 77 dd 1f 3e d7 7f 04 3e 94 15 89 3e
       0.036429863 0.15611826 0.12939392 0.26774275
0001b0 61 d0 7b 3d aa 2a 5d 3e 30 8a 21 3d 26 20 9d 3c
       0.061478022 0.21598306 0.039438426 0.019180369
0001c0 03 a3 91 be 29 f7 00 be 48 96 42 3d c7 4d 92 be
       -0.2844468 -0.12594284 0.0475066 -0.28574964
0001d0 99 2c cd 3c ed 4c 94 3e ca 80 94 be a7 b8 28 3d
       0.02504568 0.2896494 -0.29004508 0.041191723
0001e0 30 f2 61 3d 1c 91 02 be 19 08 80 bd 2f fd 7e 3d
       0.05516261 -0.12750667 -0.062515445 0.062253173
0001f0 41 9b a0 b9 13 f0 a3 3e aa ac 69 3d f8 0b 24 3e
       -0.0003063325 0.320191 0.05704943 0.1602019
000200 d3 dc 26 bc 49 b7 9d be ef c6 33 bc a3 8b c4 3e
       -0.0101844845 -0.30803898 -0.010972722 0.38387784
000210 4a 87 1d 3d 39 31 37 3e dd 96 e4 bc 0a f2 21 3e
       0.0384591 0.1788987 -0.027903968 0.15814987
000220 1e 39 59 bd 57 57 51 be bf 0b 3f 3d f0 06 a8 3d
       -0.053032987 -0.20443474 0.04664206 0.08204448
000230 65 c6 89 3d df f6 ce 3d de 0e 6b 3d 27 e1 a1 3d
       0.06727294 0.10105681 0.057387225 0.079042725
000240 3a e5 ab bd e6 63 9c be a3 17 3d 3d d4 db f5 bd
       -0.08393331 -0.30544966 0.04616512 -0.120048195
000250 25 23 13 3e 40 be 8e be 4b 77 85 bd 8b 5f 75 3e
       0.14368875 -0.27879524 -0.06516894 0.23962228
000260 74 c9 c3 bb a7 8f be 3e c8 f0 29 bd 38 c7 57 bd
       -0.005974943 0.37218973 -0.041489393 -0.052680224
000270 15 9c 72 3d 52 72 45 3d 72 6f 3e bd 3c e6 84 3e
       0.059230883 0.048204727 -0.046493 0.25956905
000280 b3 11 55 3d 61 bf 4a be f4 33 7d 3d e4 28 c3 3e
       0.052018832 -0.19799568 0.061817124 0.38117135
000290 2a f1 8a bd 7e 24 a4 3d 5f d2 80 bd 19 4c 22 be
       -0.0678428 0.08014773 -0.06290125 -0.15849341
0002a0 7c 20 90 bd 54 84 bb be e0 2f 56 3d f0 1a 66 3e
       -0.07037446 -0.36624396 0.05229175 0.22471213
0002b0 26 6e 4b be 9f ea b0 3d 3c 7b 1e 3e 73 8f 96 3d
       -0.19866237 0.086385004 0.15476698 0.073515795
0002c0 35 a1 8d be 0d 4c 0b 3e e7 fb dc 3a db cf e7 be
       -0.27662054 0.1360323 0.0016859741 -0.4527577
0002d0 f8 fa 0c 3d a1 6e 27 be 6c 22 2d 3d a7 6a fc bd
       0.03441903 -0.16350795 0.042269155 -0.1232503
0002e0 b8 57 8a bd e4 d8 65 be 34 59 8b 3e 82 7e 45 3e
       -0.06755012 -0.22446018 0.27216494 0.1928654
0002f0 a4 67 4a 3b d7 d8 ba be e6 e4 63 be 47 c1 f9 bd
       0.0030884529 -0.3649356 -0.22255287 -0.12195068
000300 fd ac f3 bd 28 7a 47 be 3a 91 5c 3d 12 07 41 3e
       -0.11898229 -0.19480193 0.053849436 0.18850353
000310 df 9d 4e 3d a3 4e 58 3e 51 6c 4f 3d 20 00 85 3e
       0.050443526 0.21123748 0.050640408 0.25976658
000320 a9 a2 85 bd 53 1d 08 be fc 6a 8a bc a8 5d 94 3e
       -0.065251656 -0.13292436 -0.016896717 0.28977704
000330 0a 46 12 bd bb 44 8b 3e d8 12 89 3e 25 3a b9 be
       -0.035711326 0.27200875 0.2677219 -0.36177173
000340 11 b9 98 3d 94 bb a5 3e 06 ef 08 be df 26 f0 bc
       0.074571736 0.32369673 -0.1337243 -0.02931541
000350 ef 07 2d 3c 53 53 ad be 01 93 9f 3e 35 b3 b7 be
       0.010560974 -0.33852634 0.31166843 -0.35878912
000360 c6 b9 a3 3e eb bf 08 be 41 6b 83 3e 6f b8 ad be
       0.3197767 -0.13354461 0.25667766 -0.33929774
000370 da 40 96 3d 1b d2 9a bd 49 2c 13 3e 4e 48 49 bd
       0.07336588 -0.07559606 0.14372362 -0.04914122
000380 83 cb a6 3c 3c 43 7f be df 02 5d bd 7a bd 8c be
       0.020360714 -0.24927992 -0.053957816 -0.2748831
000390 64 df 90 bd 6d 71 87 be dc 2b 60 3d 48 00 89 be
       -0.070738584 -0.26453725 0.054729328 -0.26758027
0003a0 ce 04 c3 be 90 b8 53 be 53 7b 99 bd b5 bb 9a bd
       -0.38089603 -0.20675874 -0.07494225 -0.075553335
0003b0 f5 5c 78 be f2 9b 92 bd 4b 3e e3 3d 6d 63 89 be
       -0.2425421 -0.071586505 0.11095866 -0.26833668
0003c0 7f 2f 67 3d 0e 4d 5e be 8b a8 14 bd d7 a6 14 3d
       0.05644178 -0.21709082 -0.036293548 0.036291923
0003d0 dd 37 de 3d a9 d2 9d bd 7c ad 8e bd f4 9f 7c be
       0.10850499 -0.07706196 -0.06966683 -0.24670392
0003e0 ab af a1 bc b6 1a 8f 3e 33 7a 8c bd c9 9c 48 3e
       -0.019737085 0.27950066 -0.06859245 0.19591059
0003f0 66 bd 70 3a 78 69 b6 3e 94 92 84 3e 70 b3 69 be
       0.0009183496 0.3562734 0.2589308 -0.22822356

bias f4 [128]
000000 f3 14 2a be e2 4d 7c 3d 3d 3b a9 3c eb b6 9a 3e
       -0.16609554 0.061597712 0.02065813 0.3021768
000010 45 1d 5f be 6e 51 29 be 8b 9a 4b be f4 bb 86 3d
       -0.21788509 -0.16534969 -0.19883172 0.06578818
000020 7c a8 1f 3e a7 bc 08 be f1 a8 8e 3d 39 a7 82 be
       0.15591615 -0.13353215 0.06965817 -0.25518206
000030 58 40 42 bd 94 b9 cc bd 4f c3 a1 3d ed a5 aa bc
       -0.047424644 -0.09996334 0.0789858 -0.020831073
000040 f2 a4 02 be c3 e4 26 3e 44 44 60 bd 72 de 24 be
       -0.12758234 0.16298203 -0.054752603 -0.16100481
000050 01 43 d8 bd ce a2 02 be 1c 81 41 be 5b 93 8d 3c
       -0.10559655 -0.12757418 -0.18896908 0.017282179
000060 94 dd 69 3e b6 06 60 be a0 55 e7 3d 3f ca 47 bb
       0.22838432 -0.2187756 0.112956285 -0.0030485538
000070 d6 e6 72 3e 6b 91 e0 bd 2a de 6d be c9 ea 80 be
       0.2372087 -0.10965236 -0.2322928 -0.25179127
000080 77 d4 55 3e 0c 63 5c 3e a3 9b 5a be 0e cf b4 bd
       0.2088183 0.21522158 -0.21348433 -0.08828555
000090 ac 1c f1 3d 58 e1 d5 bb b7 8f 17 be d3 2b 2d 3e
       0.11773047 -0.006527107 -0.14800917 0.16911249
0000a0 4f 88 ed 3d 0d 8c 39 be 90 61 1f 3d c4 34 76 bb
       0.115982644 -0.18119831 0.038911402 -0.0037568072
0000b0 0d a3 02 be 5f 93 84 be fd 23 06 3e 60 7b 90 3e
       -0.12757511 -0.25893685 0.13099666 0.28219128
0000c0 45 6d 58 3d 51 94 65 3e 4e b7 0a 3e f1 30 fe 3a
       0.052838583 0.2241986 0.13546488 0.0019393248
0000d0 5d 8b 22 3e 92 4b 9a bd da e8 40 3e e4 38 9a bd
       0.15873475 -0.07533945 0.18838826 -0.07530382
0000e0 44 84 4c be 52 47 37 3e a5 d6 ca 3c 71 d6 5e 3d
       -0.1997233 0.178983 0.024760554 0.054403726
0000f0 08 db f4 3d d0 4d 38 be 9a f5 0e bc 63 c3 00 be
       0.119558394 -0.17998433 -0.008725548 -0.12574534
000100 f5 96 44 3c 9c b5 e0 bd 03 e1 6a bd 73 bd 22 bd
       0.011998882 -0.10972139 -0.057343494 -0.039731454
000110 89 91 09 be 3f 14 27 3d ca b9 6e 3e 0e 34 1c 3e
       -0.13434424 0.040790793 0.2331306 0.15254232
000120 35 c6 ca 3c 8b cc ed 3d 46 71 ca be 01 55 54 be
       0.024752716 0.11611279 -0.39539546 -0.20735551
000130 34 45 81 bd 5b b7 cb 3d 2d 8f 61 3e 23 75 1d be
       -0.063120276 0.09947082 0.22027273 -0.15376715
000140 2e 19 3b 3e 25 37 1c 3e ef 89 79 be 13 5b 66 be
       0.18271324 0.15255411 -0.24369024 -0.2249568
000150 6d 37 12 be f1 91 28 3e 3d fc 43 3d 71 02 fd be
       -0.14278956 0.16461922 0.047847975 -0.49415925
000160 38 7b 6a 3e 85 c8 c0 3c 3f e1 06 3e 94 a2 e0 bb
       0.22898567 0.023533115 0.13171862 -0.0068553183
000170 59 9c 6f be f2 cb eb bd 4b 64 b2 3d a6 01 b4 be
       -0.23399486 -0.11513509 0.087105356 -0.35157508
000180 d7 f6 27 3e 58 01 f0 3d a1 7e 57 3d 60 84 72 3d
       0.16402756 0.11719006 0.052610997 0.059208274
000190 8c 8b 0d 3c bf 3e d3 bc 38 9a c3 bd b4 aa a1 3b
       0.008639228 -0.025786756 -0.09550899 0.0049336795
0001a0 a8 cd 9d 3e c6 ee 6e 3e 36 0a 4c 3b 55 3c d5 bd
       0.30820966 0.23333272 0.0031134016 -0.10411898
0001b0 e9 28 f5 3c df c1 83 be b4 86 81 3e b1 26 95 be
       0.029926734 -0.2573385 0.25298083 -0.29131082
0001c0 1d 7c 14 3d ae cd 4d bd d3 50 8b be a8 29 41 be
       0.036251176 -0.05024498 -0.272101 -0.18863547
0001d0 65 c0 86 bd 80 d9 ca be 18 0b 55 be 16 36 a3 be
       -0.06579665 -0.39619064 -0.20805013 -0.31877202
0001e0 6c 01 30 3e 58 7e ec bc cb ea 72 be 66 fc 40 be
       0.17188042 -0.02886884 -0.23722379 -0.18846282
0001f0 39 c3 a4 bd da 2f 80 be 3b 3c 10 be 84 18 46 3d
       -0.08045048 -0.25036508 -0.14085476 0.048363224

weight f4 [128, 128]
000000 df 9b 2f 3d 13 29 67 bc 19 3c 37 bd b3 45 c7 3d
       0.04287326 -0.014108914 -0.044735048 0.09730091
000010 14 2a 1b 3e a2 01 51 3d e1 9b df 3d ae 3d 00 bc
       0.1515277 0.051026948 0.109184034 -0.007827206
000020 00 4f 12 be cf 72 94 3b 01 fc a7 bd 69 49 51 bd
       -0.14287949 0.004530288 -0.08202363 -0.0510954
000030 98 bf bb bd cd 73 f2 3d 07 41 b6 3b 5e 8c a0 bd
       -0.09167403 0.118384935 0.005561951 -0.07839273
000040 5c 5a 14 3e 8a 1c d8 bd 32 84 9c 3c fd 9b ba 3b
       0.14487594 -0.105523184 0.019106004 0.005694865
000050 c8 5e 9e bc cf 2e b0 3d db 3c 57 3d de 28 4f 3d
       -0.019332305 0.08602678 0.05254827 0.050576083
000060 f1 a1 15 bd 66 ec 65 bd 3f 49 16 3b f2 02 cc 3d
       -0.036531392 -0.05613365 0.0022931842 0.09961499
000070 4f c8 1f 3d 84 6f ab 3d b0 d1 1a 3d cb 3e 36 3d
       0.03900939 0.08370879 0.03779763 0.044493478
000080 47 53 b1 bd 25 c6 15 be 5a 82 0e 3e aa ec f1 3d
       -0.08658462 -0.14626367 0.13916913 0.11812718
000090 6a ef e9 bc e5 e6 a4 bd ec c3 b1 bd d9 ae 8a bd
       -0.028556544 -0.08051852 -0.08679947 -0.06771631
0000a0 08 35 f3 bd 0f 9a 89 bd b6 1d 92 3c e9 b5 30 3b
       -0.11875349 -0.067188375 0.017836433 0.0026963896
0000b0 73 78 32 3e 7f f2 d8 3d 6d 15 b8 3d 2e bc 0f 3b
       0.1742876 0.105931275 0.08988462 0.0021932232
0000c0 7b 42 38 bd bd 59 bd bd fd cf 10 3d d6 08 04 3e
       -0.044985276 -0.09245632 0.035354603 0.12893996
0000d0 95 a7 23 3d 83 5f fd 3d ed 21 24 3d 94 32 3d 3c
       0.03995474 0.12371733 0.040071417 0.011547703
0000e0 e8 28 83 3d d5 00 82 bc ee 73 18 3d 98 dd 6e ba
       0.064042866 -0.015869537 0.037219934 -0.00091119995
0000f0 2f 2f 38 3d 97 3a fd 3c c9 a4 06 3c e8 32 ba 3c
       0.044966873 0.030911727 0.008217999 0.022729352
000100 fc 18 40 3d 55 a8 c0 3d 02 39 80 bd d8 98 fb 3c
       0.046898827 0.09407107 -0.062608734 0.03071253
000110 cb 04 f5 3d e6 7c eb bd e8 7a 0d be cc 57 9c bd
       0.11963805 -0.11498432 -0.13816416 -0.076339334
000120 cb 51 a6 3d ef d6 12 be c0 31 c5 3c fb 0a a9 bd
       0.081210695 -0.14339803 0.024071574 -0.082540475
000130 8d 74 9a 3d df 74 aa bd 87 3a 5a bd fe 41 0e 3e
       0.075417615 -0.08323073 -0.053278472 0.13892362
000140 a6 89 56 3d 16 6e 0e 3d fd 58 5e bd 93 6a ca 3d
       0.052377366 0.034772955 -0.054284085 0.09883609
000150 ab 21 b8 3d 9d 15 f8 bd 3b a3 82 bd d2 e3 f7 3c
       0.08990797 -0.121134974 -0.0637879 0.03026
000160 1b 4c 52 bd 0f 06 b4 bd be 2d ac bd c2 71 87 3d
       -0.05134211 -0.08790218 -0.08407162 0.066134945
000170 a8 2e dd 3d 04 c9 58 3d b8 28 92 bd e3 47 ab bd
       0.107999146 0.05292608 -0.07136673 -0.08363321
000180 04 11 d5 3c 75 18 aa bd b0 fa 5d 3d 06 0f 35 3b
       0.02600909 -0.08305446 0.054194152 0.0027627363
000190 10 68 d3 bd 9c c9 22 3d 7c 3d 5b 3c 73 32 50 bd
       -0.10322583 0.03974305 0.013381358 -0.050829362
0001a0 a1 94 d6 3c 78 af f7 bd e9 e3 f0 bc 3a ff d1 3c
       0.026193919 -0.12094015 -0.029405551 0.025634397
0001b0 bb c5 1e 3e cf b9 bc 3d 0d ac d1 3c 9c 97 9b bc
       0.15505116 0.09215128 0.025594736 -0.018993191
0001c0 48 85 27 be 67 7c 80 bd 71 9e ac 3c cc ab b8 bd
       -0.16359437 -0.06273728 0.021071644 -0.09017143
0001d0 83 b1 d8 3a 33 5d b2 bc 6a 78 8f bd 1e 35 35 bb
       0.0016532395 -0.021772956 -0.07005389 -0.0027650069
0001e0 1d 43 8a bd 7f 27 bc bc d8 82 94 3d cb cb 84 bd
       -0.06751082 -0.022968052 0.07251519 -0.06484183
0001f0 3c fa f8 3d 69 c0 ba 3d 0a ae f7 bc a9 d3 aa bc
       0.121571034 0.091187306 -0.030234355 -0.02085288
000200 b8 f2 93 3c f7 26 0d bd a8 b3 d6 3d 71 fd 9f 3d
       0.018060073 -0.034460988 0.104834855 0.07812012
000210 53 9b 80 3d db ce 14 3e d5 27 0c 3d e5 bc 65 3c
       0.06279626 0.14532034 0.034217674 0.014022087
000220 ca a5 05 be 81 df 26 3e 1c db 09 be ac 01 81 3d
       -0.13051525 0.16296197 -0.1346249 0.06299147
000230 a4 c9 0a 3e c9 4a c6 3d 3b c8 c6 3d 42 02 d3 bd
       0.13553482 0.09682233 0.0970616 -0.10303165
000240 34 67 3e 3d 29 2d c3 3c 38 68 05 3e cf 14 27 bd
       0.04648514 0.023825245 0.13028038 -0.04079133
000250 a7 32 1c 3e 8d aa 30 3d 7d bb 92 3d 0a 1a 6e bd
       0.15253697 0.0431314 0.07164667 -0.0581303
000260 f5 e5 0b be a2 6b 0c 3e a6 20 f8 3b e0 5f 84 3b
       -0.1366194 0.13712934 0.0075722514 0.0040397495
000270 6f 25 84 3d 99 d4 0b 3d 31 46 87 3d 9b a2 be 3d
       0.064524524 0.034138296 0.06605185 0.09308358
000280 7b 7f 18 be ea b5 da 3c e1 4f 22 3d ec ad 71 3b
       -0.1489238 0.026698072 0.03962696 0.0036877347
000290 fb 61 87 bd 69 85 84 bd 1b cd 4d 3d 48 ff d0 3d
       -0.06610485 -0.064707585 0.050244432 0.10204941
0002a0 3c 26 07 be 07 f7 4c bd bd 53 9d bd de 3a bf 3d
       -0.13198179 -0.05004027 -0.076819874 0.093374
0002b0 db d1 40 3c ce 23 20 3d a4 a8 e0 bb dc 60 e6 bd
       0.011768783 0.039096646 -0.006856041 -0.11248943
0002c0 20 d1 91 3d 35 bd 1f be ec 32 b6 bd be 5b 73 bd
       0.071199656 -0.1559952 -0.08896431 -0.059413664
0002d0 66 48 1a 3c 80 a5 97 bd 8a c9 79 3d 3a 82 b3 bb
       0.009416675 -0.074046135 0.06098322 -0.0054781707
0002e0 86 6f fe bd c0 c8 e0 bd 6e c8 6e 3d fb b9 bd 3d
       -0.12423615 -0.1097579 0.058296613 0.092639886
0002f0 51 40 fa bd 9d fd 8d 3c ed 37 98 bd 11 24 3a 3d
       -0.12219299 0.017332846 -0.07432542 0.04544455
000300 97 32 c6 3c c8 26 4d bd 59 46 8e bd 76 15 18 3d
       0.024194045 -0.050085813 -0.069470115 0.03712984
000310 be 61 be 3d ae d2 88 3b 90 5c b5 bd f3 c6 6f bd
       0.092959866 0.0041755056 -0.088555455 -0.058539342
000320 9a a9 ac 3c 7f 37 06 be 53 72 1b 3e 62 9e a6 3d
       0.021076966 -0.13107108 0.1518033 0.08135678
000330 b6 4b 4c bc 8a 09 10 bc ff 4a 8c bd 18 91 91 3c
       -0.012469223 -0.008791337 -0.06850242 0.017769381
000340 df d9 b5 3d 88 13 12 be e9 95 e6 3b a6 44 ef bc
       0.08879446 -0.14265263 0.0070369137 -0.029207539
000350 f1 6d 9a bd 96 32 5c bd 6c 6b cf 3d 7f 69 a2 3d
       -0.07540501 -0.05375918 0.10127911 0.07930278
000360 d8 00 9c 3d b5 77 b0 3d 71 89 94 3d a7 6a cb bc
       0.076173484 0.08616582 0.07252777 -0.02483113
000370 2f 9c fc 3d 29 93 7b 3d 92 19 8e bb 3c 06 ae bb
       0.12334477 0.06141964 -0.0043365443 -0.005310802
000380 8a eb b9 3c de bd d7 bd 09 e1 65 3d 4b cc de bc
       0.022695322 -0.10534261 0.056122813 -0.027197024
000390 70 bf c1 bd e8 b8 0c 3d 05 d5 33 bd 67 39 ca 3d
       -0.09460342 0.034356028 -0.043904323 0.0987423
0003a0 b9 2a 02 be 98 a9 19 3c f0 a4 c2 3c 01 2e b8 3d
       -0.1271161 0.009378813 0.023760289 0.089931495
0003b0 3f 18 0d bd b9 e8 72 bc ce 04 2d 3c 25 aa 82 bd
       -0.03444695 -0.014825993 0.010560228 -0.06380109
0003c0 81 92 ef 3d 6e 38 cd bd 8c c4 14 3d 27 f6 95 3b
       0.11697865 -0.10020529 0.036320254 0.004576463
0003d0 31 01 f5 bb b2 74 52 bd bc 7b b4 3d 99 cf 95 bd
       -0.0074769487 -0.05138082 0.08812663 -0.07314987
0003e0 12 c0 c1 bd 5e 25 2f bd 96 a4 95 3d ae 49 be 3b
       -0.09460463 -0.042760246 0.07306783 0.005807123
0003f0 e3 ba 3c bd 52 90 c8 3d 13 1f 91 3d 32 37 08 3e
       -0.046076667 0.09793152 0.07086005 0.13302305

bias f4 [128]
000000 0a 6a c2 bb cd 0b e1 bd 68 84 fe bd 11 5d 31 bc
       -0.005933051 -0.10988579 -0.12427598 -0.010825411
000010 20 ea 91 3c 5f 84 db 3d f3 8e 10 bc 85 ed d1 bd
       0.017811835 0.10718607 -0.008823144 -0.102503814
000020 80 f2 84 bb e6 00 97 3a 50 16 93 3d f1 4d 5d 3d
       -0.0040572286 0.0011520653 0.0718199 0.05402941
000030 28 34 53 bc 59 4b b1 3a 56 86 1d bd ac 86 48 3e
       -0.012890853 0.0013526484 -0.03845819 0.19582623
000040 e1 c6 41 bd 33 ac 50 bc 9c b3 1b bd 46 b6 31 be
       -0.047308806 -0.012736368 -0.038013086 -0.17354688
000050 5f a9 b9 bc 10 82 a1 3c ce b3 fc 3c e7 93 dc 3d
       -0.02266377 0.019715339 0.030847456 0.10770398
000060 6a 88 30 bd 2b d9 42 3d 64 1c 6e 3d f5 23 9f 3d
       -0.043098845 0.04757039 0.058132544 0.0777053
000070 dc 39 42 3d 5b e6 12 3e 41 7d 7d 3c b0 d7 31 3c
       0.04741846 0.14345686 0.015471757 0.010854647
000080 f0 25 f2 3d 4b cb a3 bd f6 6b dc bd 14 9c 10 bd
       0.11823642 -0.079977594 -0.107627794 -0.035305098
000090 99 db 10 3d cc 8b b5 bd 0a ac ad bc cb 75 a8 3d
       0.035365675 -0.08864555 -0.021200199 0.08225592
0000a0 4f c4 e9 bd 4b e2 7f 3d 1c 81 4c bd 1c 05 82 3d
       -0.11414396 0.06247167 -0.049927816 0.06348631
0000b0 f0 ed 77 3d bf c4 92 bd 2d 7e b3 3d 3c e7 f7 3d
       0.06052965 -0.071664326 0.087643005 0.12104651
0000c0 99 29 31 3e cb 65 44 bd 98 12 4f 3d 4c ae c2 bc
       0.17301024 -0.04794864 0.05055484 -0.023764752
0000d0 d9 56 86 bd 0f d8 6c bc 32 d9 9f bd c8 d9 98 3d
       -0.065595336 -0.014455809 -0.078050986 0.074634135
0000e0 3d 7b 31 bc 02 59 7e 3d 12 9d e9 bc c2 8c 06 be
       -0.010832605 0.062096603 -0.02851728 -0.13139632
0000f0 fd 10 82 bb a6 cb 14 3d 11 dc 50 bb 3c c3 57 3e
       -0.0039693103 0.036327027 -0.003186945 0.2107057
000100 50 f0 d0 3c b9 6a ab bd 98 e1 98 3d 08 cb d7 3d
       0.025505215 -0.08369965 0.074649036 0.10536772
000110 4d 9d 0f 3b 2d 59 4a bd 00 37 54 bd a5 4f 24 bd
       0.0021913827 -0.04940145 -0.051810265 -0.040115017
000120 ee 4b bb 3b ce 06 82 3d fe 1f d3 bd d1 b3 c3 bb
       0.0057158386 0.06348954 -0.103088364 -0.0059723635
000130 df ff 2f bd cd b7 8b 3a ae ea b0 bd 57 f2 16 3d
       -0.042968627 0.0010659635 -0.086385116 0.036852207
000140 dc 3c 03 3d 7a 29 b6 bd 64 a3 11 3d d4 93 25 bc
       0.032040462 -0.0889463 0.035556212 -0.010106046
000150 42 39 ee 3d ea f2 b7 bd 74 26 d9 3d 85 a7 fb 3c
       0.11632015 -0.08981879 0.106030375 0.030719528
000160 42 0a 38 bd 49 b6 a9 bd 85 68 74 3b 8a 30 1b bd
       -0.044931658 -0.08286721 0.0037293744 -0.037888087
000170 25 66 55 3d 96 e8 9f bd 58 cf a9 3c e2 0c 77 bd
       0.052099366 -0.07808034 0.020728752 -0.06031502
000180 f2 55 0f bd 09 ac 01 be e7 8d 1f 3c 3a 09 eb bc
       -0.034994073 -0.12663282 0.009738422 -0.028690923
000190 5c 64 33 3c 1d d5 fa 3c e1 3f 82 3d 7b 1d 36 3d
       0.0109492205 0.030619198 0.0635984 0.04446171
0001a0 60 c9 85 3b af 7f a2 bd 1c 66 55 bb 28 ce aa bd
       0.0040828437 -0.0793451 -0.0032562083 -0.083401024
0001b0 77 4e 39 bd 7e 2b aa bc cc 0e 80 3c bb bf fd 3c
       -0.045240846 -0.020772692 0.015632056 0.030975213
0001c0 09 76 45 3d 35 34 16 bd ef 75 06 3e d8 f1 a9 bd
       0.04820827 -0.036670882 0.13130926 -0.08298081
0001d0 c0 57 7b bd 87 ff 81 bd 9a ea d1 3d b7 ba 08 3e
       -0.06136298 -0.06347566 0.10249825 0.13352476
0001e0 c2 2d 20 3e 59 4d 17 3d 4b 77 a1 bd df 8d 13 bd
       0.15642455 0.036939 -0.078840815 -0.03602397
0001f0 c6 f9 dd 3c 9b c2 16 3c 71 ce 89 bc 11 56 a4 bd
       0.02709664 0.009201671 -0.016822072 -0.08024228

weight f4 [128, 128]
000000 12 3d 49 3e be 5d c2 bd d9 b1 64 bb 71 35 01 3e
       0.19652203 -0.09490536 -0.0034896045 0.12618043
000010 db a6 e2 3d dd 80 d0 3d 3f 7e af bc c2 56 f7 3d
       0.110669814 0.10180829 -0.021422504 0.120770946
000020 87 ac ba bd b0 b9 ff 3a a0 b8 22 be 0b 41 b5 3e
       -0.09114938 0.0019510295 -0.15890741 0.35401186
000030 5a 13 5e 3c 04 65 c4 3d ed b2 06 3d cd dc 63 be
       0.013554418 0.0958958 0.03288548 -0.22252198
000040 ed 57 af 3d 49 e9 a3 3d 47 1b 85 3d 1a 9a bf bd
       0.085616924 0.0800348 0.06499343 -0.093555644
000050 b6 0b f9 3c 52 b5 9e bd 6c 45 14 3d fa 89 8b 3d
       0.030401092 -0.07749428 0.03619902 0.06813426
000060 23 06 13 3e 81 60 79 be 1f f6 86 3b 51 aa 78 be
       0.1435781 -0.2435322 0.0041186954 -0.2428372
000070 8d 80 40 3d 0f ce a9 3d cb 27 8e be 35 3f d6 bc
       0.046997596 0.08291256 -0.27764735 -0.026153186
000080 30 51 07 3d 5e bc 23 be 4e 3c 11 3e a0 78 3b 3f
       0.03303641 -0.15989825 0.1418316 0.73230934
000090 b3 f5 c0 bd 05 ab 85 bd d2 6f 08 3e 59 e4 a4 3d
       -0.094218634 -0.0652676 0.13323906 0.08051366
0000a0 e9 2b 03 be c6 5b 04 be 9e e5 af 3d 16 1c de bd
       -0.12809719 -0.12925634 0.08588718 -0.10845201
0000b0 53 b1 f4 bd ac 7e c0 3d 58 be 99 be 89 d2 99 bd
       -0.119478844 0.09399161 -0.30028033 -0.075108595
0000c0 55 7e cc be ba cc 1c 3c 25 06 9d bd 05 58 66 bb
       -0.39940134 0.009570295 -0.076671876 -0.0035147679
0000d0 04 45 49 3d 12 ef bd 3e 32 99 97 bd 71 0f eb 3d
       0.049138084 0.3709646 -0.074022666 0.114775546
0000e0 00 84 d7 bd 05 08 56 3d cd 2f 68 3b 3f 7a 08 3e
       -0.10523224 0.05225374 0.0035428882 0.13327883
0000f0 4f f6 2c be 75 50 93 bd 03 09 fd bc 8b 59 9a bd
       -0.16890834 -0.0719308 -0.030888086 -0.0753661
000100 4f e0 1d 3d 7f 1b 8d bd 69 45 c3 bd 4f 81 cd 3c
       0.038543995 -0.0689001 -0.09534723 0.025086073
000110 fd a9 7f 3e 05 f8 08 3d db 10 0c 3e cf 9b 01 3e
       0.24967189 0.033439655 0.13678305 0.12657093
000120 dd 65 6e be b1 b7 cb 3d 22 1e 82 bd fc 24 92 3e
       -0.23281045 0.09947146 -0.06353404 0.28543842
000130 15 81 ba 3d 06 61 fe bd 83 5c e3 3d d7 fe 9f 3d
       0.09106652 -0.124208495 0.111016296 0.07812279
000140 96 4e cc 3c ac a2 6a 3e 21 15 d9 bd 14 e0 23 bd
       0.024939816 0.22913617 -0.10599733 -0.04000862
000150 66 28 dc 3d b3 a4 2f 3e a2 30 38 bd af f7 dd be
       0.10749893 0.17152672 -0.044968255 -0.4335303
000160 c5 19 a7 3d f4 26 2c bd 78 6b 83 3e c3 38 81 3d
       0.08159212 -0.042029336 0.2566793 0.063096546
000170 90 ac 04 be d1 a1 bd 3d 73 f8 32 3e 23 ec 0d bc
       -0.12956452 0.0925938 0.17477588 -0.008662256
000180 28 b7 17 bd 00 39 e3 3d 25 cf 07 3e ef 9c 8c 3d
       -0.037039906 0.11094856 0.13262613 0.0686587
000190 9a 8e f7 3c 0d 9c 7f bd 76 86 21 bd dd e5 d4 3d
       0.030219365 -0.06240468 -0.039434873 0.103954054
0001a0 12 0f b3 39 e6 f0 04 3e a2 1b 3d bc 03 93 e9 3d
       0.0003415277 0.1298252 -0.011542233 0.114049934
0001b0 99 7b 0a 3e 8b f4 0d bf 71 eb 0d 3d 9e 16 95 bd
       0.13523711 -0.5545127 0.034648363 -0.072797045
0001c0 bd 7d c6 3d 06 c7 84 bc 29 c7 30 3b 26 0c 04 ba
       0.096919514 -0.016208183 0.0026974177 -0.00050372106
0001d0 5c 8a a9 bd a8 d1 7d 3b 08 1b 93 bd da 8a c2 bd
       -0.08278343 0.0038729701 -0.0718289 -0.0949914
0001e0 11 1a 26 bd 71 1d 64 bd 64 e5 22 3e 8a 03 0f 3d
       -0.040552203 -0.05569214 0.15907818 0.034915484
0001f0 12 c5 0d be 26 a6 d7 3d b2 de e1 3d 20 4d cd 3e
       -0.13844708 0.10529737 0.11028804 0.40097904
000200 cb b9 b0 bd 37 29 a7 3d 57 0f 25 3e 2c 74 30 3e
       -0.08629187 0.08162158 0.16119133 0.17231816
000210 63 9c eb 3d 7f cd c0 3d 84 9b a0 3b d3 bd 1c 3e
       0.11504438 0.09414195 0.0049013514 0.15306787
000220 d5 8a be 3d 97 4c 03 bd 38 60 79 3d 13 ad c7 3c
       0.09303824 -0.032055464 0.060882777 0.02437452
000230 9c 14 e7 3c aa 3f 1f 3d 09 d4 cc 3d 66 49 00 be
       0.02820807 0.038879074 0.1000138 -0.12528
000240 9e 8e a5 bc d1 fc 1c 3d eb c6 83 3d 0a 6f 4a bd
       -0.020209607 0.038327042 0.06434425 -0.0494223
000250 79 03 d3 3d e2 ca fe bd 49 77 37 bc d0 02 7f 3d
       0.10303397 -0.124410406 -0.011197873 0.06225854
000260 90 4c 8a 3c 1f f3 90 bd 2f dc f3 bd c4 47 cd bd
       0.016882211 -0.07077622 -0.11907231 -0.10023454
000270 7a 6d c7 bd 19 61 e3 3c 60 d2 e5 3b 50 15 63 bd
       -0.09737678 0.02775626 0.007013604 -0.055440247
000280 c6 d0 d4 bd 16 0d cc 3d 4c 64 c2 3d 1e f8 99 bd
       -0.10391383 0.099634334 0.09491786 -0.07518028
000290 55 83 c5 bd 62 19 01 3e ab 34 e1 bd 94 9e 9b 3d
       -0.0964419 0.12607339 -0.10996374 0.07598606
0002a0 85 77 3e bd 38 ac a2 3d af 52 af 3d cb 84 a2 bd
       -0.0465007 0.07943004 0.085606925 -0.079354845
0002b0 3b 1b fa bd 8d e9 a8 3d f8 ce fa 3c 64 62 26 bd
       -0.12212225 0.08247671 0.030616269 -0.040621176
0002c0 b2 dd 13 be ee cf 89 3d 14 50 f7 bd 58 65 1b 3d
       -0.14440039 0.067291126 -0.120758206 0.037938446
0002d0 01 ef a9 bb 3c 07 12 bd 38 0c 05 3e bf 7e 96 3d
       -0.005185962 -0.03565143 0.12992942 0.07348394
0002e0 44 f9 d3 3c 39 d0 ae 3c be e3 df 3d 43 49 b7 3d
       0.025875695 0.021339523 0.1093211 0.089495204
0002f0 55 33 5f 3d 03 2b dd bc 01 15 a8 3c fe 43 7f bd
       0.054492313 -0.026998049 0.020517828 -0.0623207
000300 62 6b b1 3b 9e 5d 24 3c 51 46 19 3c f4 d5 4a bd
       0.0054144124 0.010032086 0.009355144 -0.049520448
000310 f3 23 42 bd c1 69 04 bd d2 15 98 3d 9f 73 a9 bd
       -0.047397565 -0.032327417 0.07426037 -0.08274006
000320 5e c6 1b be ef 1d 1b bd b1 67 f3 bb ef 4c d0 3d
       -0.1521239 -0.037870344 -0.0074281325 0.10170924
000330 a6 f0 7c 3c 96 54 8b 3d 28 14 68 3d dd ba 0c be
       0.015438234 0.06803243 0.056659847 -0.13743158
000340 d9 82 79 3d 64 bd a8 3d 5e 11 cd 3d 52 5b 97 bd
       0.0609158 0.082392484 0.10013078 -0.07390465
000350 ef c4 f5 3c 61 35 be 3b a9 56 40 bd 39 d4 0f bd
       0.030001132 0.005804703 -0.046957646 -0.0351145
000360 32 4c 0b 3e 37 66 a7 bd 9a 5b 22 bd bb 55 d8 bd
       0.13603285 -0.08173793 -0.03963814 -0.10563227
000370 a6 35 89 3c 63 f1 df bd f8 65 74 3d 00 73 73 3d
       0.016749214 -0.10934713 0.059667557 0.059435844
000380 62 cd 2c 3d 40 d7 df 3d 0f d4 70 3d 0d 87 37 bd
       0.042188056 0.109297276 0.058795985 -0.04480653
000390 c3 69 cd bc 5a 12 32 3d bc 6c d7 bd 8e 41 af bd
       -0.025074845 0.043474533 -0.10518786 -0.085574254
0003a0 69 a4 82 3d fe bd fb bd 2a cd 77 3c e6 15 38 3c
       0.06379015 -0.122920975 0.0151245985 0.01123569
0003b0 f3 b6 98 bc e7 2f f9 bc 8e e7 b7 bc 64 2a c4 3c
       -0.018641924 -0.03041835 -0.022449281 0.023945995
0003c0 a2 89 e7 3d 24 5d 87 bd e6 3c 9c bd b2 60 a8 3d
       0.11305548 -0.06609562 -0.07628803 0.08221568
0003d0 b9 58 ed 3d 3d bd 94 bc 6e 03 5b 3c fe 4d 33 3d
       0.11589188 -0.018156642 0.013367517 0.04377555
0003e0 f4 03 22 3d f9 b6 10 bd ff 33 8e bd 3d 6e db bb
       0.03955455 -0.035330746 -0.06943511 -0.006696491
0003f0 3e 6f e9 3d 9c 8b a3 3d b1 8e f0 bc 8e 6e aa 3d
       0.11398171 0.07985613 -0.029364916 0.08321868

bias f4 [128]
000000 c0 1a 70 bb 4f ea bf bc 0c a5 2d 3d e7 d4 ca bc
       -0.0036637038 -0.023427157 0.04239373 -0.024759723
000010 b1 e3 72 bd 45 bb 09 bd ce 81 fc 3c ae 8c c8 bd
       -0.059299175 -0.03362586 0.030823614 -0.097924575
000020 a8 25 71 bc c7 88 2f bd 1b 81 e0 3b f8 19 1a bd
       -0.014718451 -0.04285505 0.006851328 -0.037622422
000030 e0 f7 a7 bc ac e1 b7 bc de 91 09 bd 0d de c2 bc
       -0.020503938 -0.022446476 -0.033586375 -0.023787523
000040 1e 52 b5 bd 05 1b 6b bd e5 cd 5f 3d 93 fe 44 3d
       -0.08853553 -0.057398815 0.054639716 0.048094343
000050 50 f5 76 bd 47 1a 86 bd cb 5d 38 3c 50 c0 3a 3c
       -0.060292542 -0.06547981 0.011252831 0.01139839
000060 a3 1e 04 3c e2 96 a1 3c f7 2e 5d bd a6 a9 e6 bc
       0.008063945 0.019725267 -0.053999867 -0.028157067
000070 06 a4 32 3c c8 ea 0d bd fe ef 6f 3c 32 c1 ff bc
       0.010903364 -0.034647733 0.014644621 -0.031220052
000080 60 93 b1 bc 35 64 4a bd d7 8f 4d bc 58 a5 96 bd
       -0.02167672 -0.04941197 -0.012546501 -0.073557556
000090 24 1a ed 3d 9a 55 3c bd e7 26 30 3d f2 a8 1a 3d
       0.115772516 -0.045980074 0.04300585 0.037758775
0000a0 fc f3 c2 3d 58 84 99 3c 80 42 6b 3d 16 58 6b bd
       0.095191926 0.018739864 0.057436466 -0.057457052
0000b0 84 4f bd bd 10 40 94 3d cc c3 03 bd b3 02 d2 bd
       -0.09243682 0.072387815 -0.03216915 -0.10254421
0000c0 00 7e d6 3a ea d5 b2 3d d4 8a c7 3d dd 7d 82 bd
       0.0016364455 0.08732207 0.09743276 -0.06371663
0000d0 cb 9a 2c 3e 68 c6 9a 3d fc 73 c4 bc a3 cc 12 bd
       0.16855924 0.07557374 -0.023981087 -0.035839688
0000e0 78 c7 5a 3d 01 d6 f9 3a 0c a7 1a 3d a0 78 ad bc
       0.053412884 0.001906097 0.037756965 -0.021175683
0000f0 c3 8a 48 3d 03 88 06 3e 99 b3 a3 bd 7c 56 76 3d
       0.04896046 0.13137822 -0.0799324 0.06014107
000100 91 c8 ed bc b5 a2 d7 3c 4a a2 22 3d 7a 14 89 bc
       -0.029026302 0.026322702 0.039705552 -0.016733397
000110 55 8e da 3c 17 62 80 bc f1 a0 16 3d f6 17 b8 3d
       0.026679197 -0.015671773 0.03677458 0.08988945
000120 63 43 aa 3c 40 0d a6 bd e8 21 f9 3d 39 0d d1 bd
       0.020784086 -0.08107996 0.1216467 -0.102076
000130 18 7c 89 bb c5 dc 36 3d bd 99 5d bd 3f 49 e2 bd
       -0.0041957013 0.044644136 -0.054101694 -0.11049127
000140 e2 9a b3 bd ee 36 f2 bc cd 7f 8a bd d1 b6 1d bc
       -0.08769776 -0.029567208 -0.06762657 -0.009626106
000150 94 a4 14 3d e5 76 90 3d da 9f a0 3d b9 8e 84 3b
       0.036289766 0.07053927 0.07842989 0.004045334
000160 ad f7 98 bd 7e f7 84 bd 5d ae df 3c 17 cb de 3c
       -0.074691154 -0.06492518 0.027304823 0.02719645
000170 d0 f7 6d 3d d8 69 97 3b 6c 88 1a 3d 49 84 e0 3d
       0.05809766 0.004620772 0.03772776 0.109627314
000180 d0 44 55 3d a2 fc b0 bc 16 5e c1 3d ee 41 0c be
       0.052067578 -0.02160484 0.094417736 -0.13697025
000190 e1 5e e1 3c 3f 33 95 bd ec 54 ac 3c 12 00 ca 3b
       0.027511062 -0.07285165 0.021036588 0.006164559
0001a0 18 d0 6c 3c b7 93 fc 3b 74 69 ca bc 1a 22 c7 3c
       0.01445391 0.0077080387 -0.024708487 0.024308253
0001b0 ae 44 d0 bd 8c 81 da bc 3a 1e d4 3d c2 1b e7 bc
       -0.101693496 -0.0266731 0.10357328 -0.028211478
0001c0 d4 85 b2 3c 6a 5d f6 bd 4f da 8a bd c2 d5 18 bc
       0.02179233 -0.12029536 -0.0677992 -0.009328308
0001d0 b5 f6 8e 3c 72 fb b0 3b d8 35 18 bd fd 52 91 bd
       0.017451623 0.0054010684 -0.037160724 -0.07095907
0001e0 3d 08 c7 3d 15 0f 8f 3d 9c 8a 2f bc 1b 3d 0d 3d
       0.09718368 0.069852985 -0.010714199 0.034482103
0001f0 69 a6 3f bc 42 2d c9 bc 5c 4a 3b bd bb f7 27 bd
       -0.01169739 -0.024557713 -0.04572521 -0.04100774

weight f4 [128, 128]
000000 c6 7c 4e 3d bc 1c 49 3d e3 36 4e bd 63 d9 1b bc
       0.050411962 0.04909967 -0.050345313 -0.009512278
000010 4b 48 0c 3e 9e 0e e0 3d 16 65 22 bd 67 15 b8 bd
       0.13699453 0.10940288 -0.039647184 -0.08988457
000020 61 a5 f9 bd 2f d4 68 3d c7 27 98 bd ed bd 79 3d
       -0.12189747 0.05684298 -0.07429462 0.060972143
000030 22 ab d6 3d d4 f0 1a bd 72 5d 04 be 40 32 62 bd
       0.1048186 -0.037827328 -0.12926272 -0.055223703
000040 3d fe 19 3e ca 9c 6d 3d 4a cc 6d 3d 1d 92 cf 3d
       0.1503839 0.058010854 0.058056153 0.10135291
000050 f3 7d 13 3d 8a 24 6d 3d eb 64 28 3d 7d 26 17 bd
       0.036008786 0.057896174 0.041111868 -0.03690194
000060 4b 80 b1 3d 32 af 55 bd cc a1 f3 3c 28 fd bc bd
       0.08667048 -0.052169032 0.029740237 -0.09227973
000070 13 b3 23 bc b4 9f e8 3d 96 60 cc 3b bf ef e2 bd
       -0.009991425 0.11358586 0.0062371 -0.11080884
000080 03 f8 08 3d a3 f3 99 3d a7 cf 03 bd 1f 25 e8 3d
       0.033439647 0.07517173 -0.032180455 0.11335205
000090 43 a4 27 3d ea ff 25 3d 8c 2a f9 bd 5d 4e b4 bd
       0.040928137 0.04052726 -0.12166318 -0.08804009
0000a0 83 27 18 bc 2c 2d 94 bd c1 53 b9 bd 07 75 fb 3c
       -0.009286764 -0.07235178 -0.09049178 0.030695451
0000b0 2b dd 32 3d 40 35 6b bd 15 37 21 3c ec af 1e 3e
       0.043667953 -0.05742383 0.009839793 0.15496796
0000c0 5b cd 9a 3d 7a b6 c5 3c c6 8b da bd 5f 9b e8 bd
       0.075587 0.024134863 -0.10671191 -0.1135776
0000d0 a1 dc f8 bd 38 f2 96 bd 30 16 6e bd 99 be 69 3e
       -0.121514566 -0.07370418 -0.05812663 0.22826613
0000e0 1f 3b bb bd 28 fe a2 bd ac 6f d4 bd ed 64 16 3d
       -0.09142136 -0.07958633 -0.10372862 0.036717344
0000f0 59 43 90 3d 5f f0 cc bd d7 6b 14 3d 09 88 6f 3c
       0.070440955 -0.10006785 0.036235657 0.014619836
000100 ef 5d 03 3e 4c 18 cb 3d 54 d1 0d 3c e3 0b 0d 3e
       0.12828802 0.09916744 0.008655865 0.13774066
000110 88 8f b5 bc 0f 62 b2 3d b6 b2 55 3d 87 ca 07 bd
       -0.022163168 0.087101094 0.052172385 -0.03315213
000120 15 77 11 bd 24 24 c1 3d 61 5b 07 be 3e 6a 62 3e
       -0.035513956 0.094307214 -0.13218452 0.2211084
000130 1b 30 ec 3d 4a 41 0b be ef 2b b5 3d 6c ad 74 3d
       0.11532613 -0.13599125 0.0884627 0.0597357
000140 5c 33 bf bc a2 6e 1e 3d b7 47 86 3d da 6a 91 bd
       -0.02333992 0.038679726 0.06556647 -0.071004584
000150 1a f9 7a bd cc 18 af bd eb a5 d1 bd cb 64 27 3c
       -0.061272718 -0.085496515 -0.102367245 0.010216902
000160 2e 24 b2 3d cf 0a ed bb 08 14 ec bc 63 a3 25 3c
       0.08698307 -0.0072339545 -0.028818145 0.010109755
000170 37 bd 78 bd eb 32 67 bd 95 2c 85 ba 31 8d 9e 3d
       -0.060727324 -0.056445044 -0.0010160381 0.07741774
000180 65 56 d8 3c d7 ef 2d bd b3 67 06 3d 14 e7 96 bd
       0.026408384 -0.042465057 0.03281374 -0.073682934
000190 7a 4e e8 3d 0a e9 d7 bd ac 11 e0 3d 63 47 1e 3c
       0.11343093 -0.105424955 0.10940871 0.009660575
0001a0 36 27 b8 bc 3f f3 6e bd 68 f2 d2 bd 0a d9 4f 3d
       -0.022479635 -0.058337446 -0.103001416 0.050744094
0001b0 cc 44 fb 3d f4 50 91 3d a4 2e 9b 3d 2c f1 21 3e
       0.12268981 0.07095519 0.07577255 0.15814656
0001c0 d7 76 ca 3d 91 5c dc bd 01 af a6 3d 6d f5 55 bd
       0.09885948 -0.10759843 0.08138848 -0.05223601
0001d0 65 f7 de bd b1 b8 6f bd ef fe b4 3d 78 fe 36 3e
       -0.108870305 -0.058525745 0.08837687 0.1787051
0001e0 9c 80 9f bd 80 08 b3 3d 8d 6b 80 bd 14 18 90 bc
       -0.07788202 0.087418556 -0.06270514 -0.017589606
0001f0 3d 12 3c be 42 d4 94 bc 7a e3 ff bd 04 12 07 bc
       -0.18366332 -0.018167619 -0.124945596 -0.008244041
000200 dc 2b 29 3c d8 46 0f be 89 e6 c0 bd 39 8e fe 3d
       0.010325398 -0.13991868 -0.09418971 0.124294706
000210 ac 0c 34 3c f9 4d f9 3d 27 ae 04 3e 03 36 b1 3d
       0.010989349 0.12173075 0.12957059 0.0865288
000220 b0 a6 43 3d c2 45 30 3d f6 12 1a 3d 5a b5 82 3d
       0.047766387 0.043035276 0.03761574 0.06382246
000230 59 80 83 bc e9 01 2e 3e 97 b1 94 bd 51 46 a7 3a
       -0.016052412 0.16992916 -0.07260435 0.0012762045
000240 e5 5a 89 bd 16 cd a7 3d 7e 07 1e 3e 3d a7 b4 3d
       -0.0670679 0.08193414 0.15432546 0.08820961
000250 f4 93 14 3e ce 74 66 3d d9 2b d2 3d ae b9 c1 bd
       0.14509565 0.056263737 0.102622695 -0.09459244
000260 a2 3a 28 bc 2c da 54 bc bc e7 24 3e c3 7d f4 bd
       -0.010267885 -0.012991469 0.16104025 -0.1193805
000270 f0 8a 11 be 1e 63 0d 3e 52 c4 3e 3d bf 0b 9e bd
       -0.14213157 0.13807341 0.046573944 -0.07717084
000280 4f ea 15 be 71 cf 34 3e e8 af 8b 3d 08 ca 09 3e
       -0.14640163 0.17657258 0.06820661 0.13455975
000290 f4 f1 f0 3d ae 50 c1 3d cd ce 90 bc f4 bc 59 bd
       0.11764899 0.094392166 -0.017676735 -0.053158715
0002a0 89 90 a3 bd ba 72 10 be cf 50 a1 3c de d4 80 bb
       -0.07986552 -0.14106265 0.019691853 -0.0039316257
0002b0 c7 a2 1b 3d 88 13 ce bd 0a a7 58 bc 77 70 4d 3d
       0.037997033 -0.10062319 -0.013223419 0.050156083
0002c0 8a 7a 28 be fe 4f 9b bd 26 be c7 ba 21 d2 a2 3d
       -0.16452995 -0.07583617 -0.0015239164 0.07950235
0002d0 5c 36 0f be cc 5d 88 3c 18 ea 11 3c 3d 20 ff 3d
       -0.1398558 0.016646288 0.00890591 0.12457321
0002e0 91 ad a9 3d 92 a5 f9 3d 7c d4 2b bd 7b 25 83 bd
       0.08285058 0.12189783 -0.041950688 -0.06403633
0002f0 ea 46 cd 3d 10 3a ea 3d 5d a1 aa 3d 77 12 6b 3c
       0.100232914 0.11436856 0.08331559 0.014347664
000300 7d 5c d7 bc 64 8b d0 3c 94 5d f8 bd 6c 69 49 3e
       -0.026289219 0.025457092 -0.121272236 0.19669122
000310 c3 f8 7f 3d db 8c ab 3d 67 bf 2d be 4e 46 78 bd
       0.062493097 0.083764754 -0.16967545 -0.060613923
000320 f1 41 fd 3d 98 5d d0 3d 03 cc b3 bd 68 33 c3 3c
       0.12366093 0.101741016 -0.087791465 0.023828223
000330 41 17 b8 3c f2 5b a5 bd 06 cf dc 3d 0c 52 a1 bd
       0.022472026 -0.08074178 0.10781674 -0.07876977
000340 7c 09 1b bc 26 62 9c 3d fb 09 2d bc cf b9 cc 3d
       -0.0094627105 0.07635908 -0.010561462 0.09996378
000350 f6 cc b5 3c fa ef 59 3d 96 f9 62 3d 06 93 8e 3d
       0.02219246 0.053207375 0.055413805 0.06961636
000360 09 3d 22 3d 5d be 0c bd 08 e6 01 be 71 b8 8a bd
       0.03960899 -0.034361232 -0.12685406 -0.06773461
000370 48 2c 3b bd 46 da b5 bd 3b b2 80 3d 2c e8 ed 3d
       -0.045696527 -0.08879523 0.06283995 0.11616549
000380 11 a3 e1 bd 97 b4 37 be ad 71 aa 3d 64 15 09 3e
       -0.110174306 -0.17939983 0.08322463 0.13387066
000390 37 cf a1 3d 7f a8 a2 3d e2 cc 7e bd 6a 95 dd 3d
       0.07900851 0.07942294 -0.06220711 0.10819514
0003a0 18 b3 aa 3c 9d d2 82 bc 39 c4 15 3e ec cb ac bd
       0.020837352 -0.015969569 0.14625634 -0.084373325
0003b0 01 bc 01 be 75 51 df 3c fa 4b 9b bd 49 6b 1e 3d
       -0.12669374 0.027260521 -0.07582851 0.038676534
0003c0 02 9e 9a bd ae e6 ea 3d 9b ba 04 bd c1 f8 9b 3c
       -0.07549669 0.1146978 -0.032404523 0.019039514
0003d0 41 87 11 bd 1a 54 3a 3e 54 5b 1f bd 17 fe fc bc
       -0.03552938 0.18196145 -0.038905457 -0.030882878
0003e0 aa c9 59 bd c2 9a 6e 3d 01 b6 34 3d b0 7d 8b 3d
       -0.053170837 0.058253057 0.044118885 0.06811082
0003f0 3f 38 da 3d 71 e1 cf 3d 4b bc bb bd e8 b6 09 bc
       0.10655259 0.101504214 -0.091667734 -0.008405425

bias f4 [128]
000000 77 23 36 bd 0e 1b bf bc 5f e0 91 3d 36 04 e5 3c
       -0.044467416 -0.02332833 0.071228735 0.02795611
000010 3a 0a d2 3c ea f3 03 bd c7 09 77 bd ef 97 dd bc
       0.025639642 -0.032215036 -0.06031206 -0.027049987
000020 ce 59 1b bd 75 25 9c bc a5 d0 8e 3c 48 e9 20 3d
       -0.03792744 -0.01906083 0.017433474 0.039284974
000030 e3 a2 5e bd 31 cd c2 bc 46 26 6c 3c b3 87 8f 3c
       -0.05435456 -0.023779484 0.014413422 0.017520761
000040 aa 0a 57 bb df 8f cd 3b ec c1 a2 bd 2b bc 1f 3d
       -0.0032812753 0.0062732543 -0.07947144 0.03899781
000050 52 a6 d2 bc f3 e1 1e 3d a0 37 0e 3d cd 32 20 bd
       -0.025714073 0.0387897 0.034721017 -0.039110947
000060 4c 1a ad 3c c3 b1 17 bd f7 e5 32 bd 67 1d a9 3c
       0.021130703 -0.03703476 -0.043676343 0.020643903
000070 79 7d ba bd 73 74 40 bd 12 62 d3 bb e1 6f f7 3b
       -0.09105963 -0.046986055 -0.0064509 0.007551179
000080 ce 12 04 3d b9 e1 96 3b e8 10 29 bd 93 c5 b0 3b
       0.032244496 0.004604545 -0.04127589 0.0053946464
000090 b6 be b7 bb 2d e7 16 3a 56 8b c0 3c 08 cf 1a 3c
       -0.0056074513 0.0005756494 0.02350394 0.009448774
0000a0 4c 64 bf bb 08 e3 dc bb 9d 34 a5 bd 04 a0 c4 bc
       -0.0058408137 -0.0067409314 -0.08066676 -0.024002083
0000b0 cd 93 cc 3c 64 55 1a 3d dc c4 08 bd aa 92 90 bd
       0.02497282 0.03767909 -0.033390865 -0.07059224
0000c0 da 25 62 3c 45 24 a7 bb e1 a7 dc 3c f6 68 1b 3d
       0.01380297 -0.005100759 0.02693552 0.037941895
0000d0 40 7a 8b 3c 30 6e bc 39 2a 41 b2 bc 4d eb 09 be
       0.017026067 0.0003594025 -0.021759588 -0.13468666
0000e0 62 39 5d 3c 66 2b d8 bd 9d 38 56 bb b5 ac 14 bd
       0.013502451 -0.105551526 -0.0032687553 -0.03629752
0000f0 de c6 47 bd ba 59 8a 3d e9 37 83 3c 65 4d 8a bd
       -0.04877364 0.06755395 0.016017871 -0.06753043
000100 7c dc 65 3c ac 0e 08 bc f1 70 a0 3c a8 b8 57 3d
       0.014029618 -0.008304279 0.019585105 0.052666336
000110 65 41 bb bc e5 ac d9 bc 01 e2 1c 3d f2 57 aa 3d
       -0.022858331 -0.0265717 0.03830147 0.083175555
000120 52 5e b9 ba 4a 21 a4 3c 91 f7 61 bc c2 aa cf 3d
       -0.001414249 0.020035405 -0.013791935 0.10139991
000130 ce a4 92 bd 03 f6 82 3d 74 5b e2 b9 a1 ce b3 bd
       -0.0716034 0.06394579 -0.00043174217 -0.08779646
000140 c8 c7 00 bc 97 63 9c 3c 4f c1 34 3d 1d 27 d0 bc
       -0.007860132 0.019090457 0.044129666 -0.025409276
000150 5a 79 0e 3d 3f df b9 bc 88 ae 39 bd f8 78 ae 3c
       0.0347837 -0.02268946 -0.04533246 0.021297917
000160 ef de 52 bd 14 8d ab 3d d6 39 61 bd 9a 50 28 3d
       -0.051482137 0.08376518 -0.054986797 0.041092493
000170 4e 37 47 bc 47 d2 a3 3c 9b db a4 bc 1e 57 b4 3d
       -0.012159182 0.019997729 -0.020124247 0.08805679
000180 50 95 0d bd 84 d4 38 3c 1e 33 ab 3c cd 8a d2 bc
       -0.034566224 0.011281136 0.020898398 -0.025700951
000190 2b d2 13 bd 2a 63 70 3c dd af 05 3d c4 ed 4c 3d
       -0.036089104 0.01467208 0.03263842 0.05003144
0001a0 27 6b 5a 3d b9 5e 5c 3c 92 c6 28 3d f3 e9 21 3d
       0.053324845 0.013450318 0.041204996 0.039529752
0001b0 c9 f8 85 3c 59 85 0a 3d a2 d9 21 3d eb 81 36 bd
       0.016353982 0.033818576 0.03951419 -0.044557493
0001c0 8d d4 43 bd 7f b9 8a 3b bd d4 45 bb a2 47 da 3b
       -0.047810126 0.0042335386 -0.0030186616 0.0066613713
0001d0 c8 dd a0 3c 3d cc 10 bd dc 39 77 bd 59 e1 b1 bd
       0.019637004 -0.035351027 -0.060357913 -0.0868556
0001e0 5b e1 72 3c 4d 9a 54 3d 38 cb 51 bd fa 58 09 be
       0.014824237 0.051904965 -0.051219195 -0.13412848
0001f0 3a 1f 87 3c 5b b6 28 3d 81 62 ea 3a 1b 69 f6 bc
       0.016494382 0.041189533 0.001788214 -0.030079415

weight f4 [128, 128]
000000 08 71 e4 3c 6d c0 97 3c 01 f3 93 3d 05 62 33 bd
       0.027885929 0.018524373 0.07224084 -0.04379465
000010 96 48 4b 3c a5 a0 06 3c a8 b9 41 3c d6 e9 b6 bd
       0.012407443 0.008217012 0.011824049 -0.089313194
000020 1c c2 b1 3d 89 fe 62 bd 96 b5 d0 3d d2 c4 59 3d
       0.086796016 -0.055418525 0.10190885 0.053166218
000030 79 af d4 bd 99 b5 03 bd 1c 33 ec bd 95 3a 4e 3d
       -0.10385031 -0.032155607 -0.11533186 0.050348837
000040 0c 4a dd bb 1f 4e fd 3c ba 90 b1 bd f7 69 f6 bd
       -0.006753212 0.03092104 -0.086701825 -0.1203193
000050 3f 85 76 3d 9e bf ec bc 86 32 87 bd 66 51 da bd
       0.060185667 -0.028899964 -0.066014335 -0.10660057
000060 ff fb e3 3d 20 31 fa bd 14 27 ad 3d cb 53 f4 bd
       0.11132049 -0.12216401 0.08454719 -0.11930045
000070 87 08 86 3b 86 6d 91 3d 62 12 b0 3d 5b 5d 2c 3d
       0.004090372 0.07100968 0.08597256 0.04208122
000080 98 66 50 bd 4c 91 8f bd 5c b9 cc bd 9b 49 d3 3d
       -0.05087909 -0.07010135 -0.09996292 0.103167735
000090 30 66 f4 3d de 1f 0b 3e 3c 86 95 bd b5 cd 24 bc
       0.11933553 0.13586375 -0.07300994 -0.01005881
0000a0 42 8c 5f bd 53 22 0d 3e ea 1e 7a 3d 2c bc a6 3c
       -0.05457712 0.13782625 0.06106464 0.0203534
0000b0 f4 08 bd 3d 95 04 8f bd 94 84 92 3d 8c c5 c1 bd
       0.09230223 -0.06983296 0.071541935 -0.09461507
0000c0 24 35 23 bd 70 d7 e1 3c ad a4 8d 3d e1 58 9e bc
       -0.0398456 0.027568549 0.06916175 -0.01932949
0000d0 f4 5f 4e bd 9a 7e d4 bc d2 7f 23 3a bc 4a 93 bc
       -0.050384477 -0.025939275 0.0006237003 -0.017979972
0000e0 ba e8 06 be 2d 7a 76 bd 47 bb b0 bd 72 e6 f2 3d
       -0.13174716 -0.06017511 -0.0862947 0.1186036
0000f0 d5 c0 ce bd 06 d1 72 3d cb 93 c2 bd e1 67 16 bd
       -0.100953735 0.05928137 -0.095008455 -0.03672016
000100 a5 09 a5 bc 03 8d 0c be e1 7f 81 bd 7d 1c 11 bd
       -0.0201462 -0.13725667 -0.06323219 -0.03542756
000110 89 ac 81 bd 88 e7 bb bd 2a c2 e8 3d 7a 00 d8 3d
       -0.063317366 -0.091750205 0.11365159 0.10546966
000120 40 b2 b4 bd 8a 3c d6 bc 10 a3 46 3d 0e 3d 02 3e
       -0.08823061 -0.026151914 0.048495352 0.12718603
000130 0f ee 50 bd 30 d9 8a 3c 45 26 09 3e 02 c1 19 bd
       -0.05100828 0.016949266 0.13393505 -0.037537582
000140 6a 4f bb 3d 76 ec 49 3d 60 3f e9 3d 8b 07 13 bd
       0.091460064 0.049297772 0.11389041 -0.035895865
000150 2f 61 1d 3d 05 38 f9 bc 0c 38 b8 ba 13 60 96 bd
       0.03842276 -0.03042222 -0.0014054789 -0.073425435
000160 ad ab ca bd b0 94 d4 bd 47 95 a8 3c 6c 09 ec 3d
       -0.09896026 -0.103799224 0.020578993 0.115252346
000170 f9 fc f4 bc 11 c5 07 3d 64 02 bc bc 4e 0e fd 3d
       -0.029905783 0.03314692 -0.022950359 0.12356244
000180 68 a8 ca bd 9a fc 4f bd 00 31 16 3d 20 3b 1e be
       -0.09895402 -0.05077801 0.036667824 -0.15452242
000190 f0 78 8d 3b 45 e4 ec bd 2c 45 81 bd a4 33 8f 3d
       0.0043173954 -0.115669765 -0.063120216 0.069922715
0001a0 d4 55 a3 3d 44 c5 5f bc ce 7c e6 3d 4c fe ad 3d
       0.07975355 -0.013657872 0.11254273 0.08495769
0001b0 bd 1f 8e bd e6 c6 f8 bc 03 44 0a be d0 b8 9c bd
       -0.06939647 -0.03036828 -0.13502507 -0.07652438
0001c0 0c 3f 02 3e 2c 3a 32 bd 90 93 b0 3d 0e 9e 00 bc
       0.12719363 -0.04351251 0.08621895 -0.007850183
0001d0 bc e8 cc 3d 95 71 0c be 81 c2 a8 bc a2 12 a8 bd
       0.10005328 -0.13715203 -0.02060056 -0.08206679
0001e0 30 e3 26 bd e7 c1 d6 3d 0a 4c de 3a 77 33 8e bd
       -0.040744007 0.10486203 0.0016959917 -0.0694341
0001f0 41 d8 bf bc 64 80 26 3d 5a a9 d6 3d 61 00 46 be
       -0.023418548 0.040649787 0.1048152 -0.19336082
000200 de 2e cc bd 58 d4 f9 bd c9 79 6d 3d 4c 85 a2 3d
       -0.09969877 -0.121987045 0.05797747 0.079355806
000210 4c 63 bf 3d c7 11 c0 bc 32 69 de bb 14 6c 02 3e
       0.09345111 -0.023445977 -0.0067874426 0.12736541
000220 25 db ab bd 09 71 90 bd b9 21 03 3d 5e 65 14 3e
       -0.08391408 -0.0705281 0.032014582 0.14491794
000230 b5 59 43 bc 19 dc 02 bd ad 08 c6 3d 43 63 8d 3d
       -0.011923243 -0.031948183 0.096696235 0.06903698
000240 93 b5 09 3d b1 10 00 3d 7c 74 9d 3c a0 d9 9c 3d
       0.03362043 0.03126592 0.019220583 0.07658696
000250 ef ad 05 3d 19 0c 8e bd 4b ae 89 bd 4b 60 58 3c
       0.03263658 -0.06935901 -0.06722697 0.013206552
000260 e0 20 fd 3b a3 17 96 3d aa 60 ab 3d d0 26 de 3d
       0.0077248663 0.07328727 0.083680466 0.10847247
000270 67 0a cb 3d 1e be b0 3c 91 60 10 bd 54 79 18 bd
       0.099140935 0.02157503 -0.035248343 -0.037225083
000280 79 91 09 3d bf 6b 4c 3d d7 c5 53 bd fc a5 fa 3d
       0.033586 0.049907442 -0.051702347 0.1223869
000290 d5 c6 c0 3c 43 b4 51 bd cf 7f 07 3d 54 54 be 3d
       0.02353231 -0.0511973 0.033080872 0.09293428
0002a0 96 e9 64 bd 76 53 d2 3d 84 c8 b0 bd 1a 05 76 3d
       -0.055886827 0.10269825 -0.08631995 0.06006346
0002b0 a3 5f 04 3d c5 ab 9a bc 90 74 65 3d e9 ff d5 3d
       0.03231777 -0.018880734 0.056019366 0.104492016
0002c0 cc 21 b7 bd 0b 08 83 3d a6 8d c0 3d 44 b6 8a bd
       -0.08941993 0.063980184 0.09402017 -0.06773046
0002d0 8d d7 18 3d 3f 02 01 3b 8d 1c e5 3d d3 77 0e 3e
       0.03731494 0.0019685177 0.11187086 0.13912897
0002e0 d1 74 f7 3d c1 50 4b 3c ea f2 9f bd be f0 f2 bd
       0.12082828 0.01240939 -0.07810004 -0.11862324
0002f0 f3 8c b5 bd 0a ac 05 3d 30 d6 1d 3e fe ac a0 3d
       -0.088647746 0.032634772 0.15413737 0.07845496
000300 22 fc 25 bd 32 c6 43 3c 2b 01 e6 bc 76 c3 92 3d
       -0.040523656 0.011949109 -0.028076729 0.071661875
000310 c7 ee 84 bd a8 45 03 be 36 8b 98 3d 60 28 09 3d
       -0.06490856 -0.1281954 0.074484274 0.03348577
000320 02 23 9e 3d ec 05 03 be c7 c7 c7 3d 65 b3 cf bd
       0.07721521 -0.12795228 0.097549014 -0.10141639
000330 02 16 56 3d 53 17 a2 bd 08 b3 f3 bd 3f 82 2e be
       0.052267082 -0.07914605 -0.11899382 -0.17041872
000340 41 f7 f5 bc 9d db 80 bd 42 88 a8 3d 9f 9b fc bd
       -0.030025126 -0.06291888 0.08229114 -0.1233437
000350 e3 b0 e9 bd 06 cc 21 be 45 15 20 bc 2b 4e 84 bd
       -0.114106916 -0.15800485 -0.009770696 -0.06460222
000360 59 94 92 3d ec 56 da 3d d3 5a e4 3d cc 91 b5 bd
       0.07157201 0.1066111 0.11150136 -0.08865699
000370 3b 1a 32 3d e3 e7 2d 3c aa 7a 5c 3d 54 23 38 3d
       0.043482047 0.010614368 0.05382792 0.044955567
000380 9b e6 8a 3b c2 40 9d 3d 4c 13 05 3e e0 51 3c 3e
       0.004238916 0.07678367 0.12995642 0.18390608
000390 42 29 b8 3d db 77 db 3d 7b 90 f8 bd 74 61 42 bd
       0.08992244 0.1071622 -0.121369325 -0.04745622
0003a0 9b a8 63 3b 72 74 58 bd 06 d2 83 bd 44 93 a0 bb
       0.0034737948 -0.052845426 -0.06436543 -0.004900368
0003b0 ca c1 fa 3d e2 53 3c 3d 60 fa d9 3d 27 81 90 bc
       0.122439936 0.045978434 0.10643458 -0.01763971
0003c0 7f 0b 66 3d 2f 4b e7 bc 31 32 b4 3c 6e 12 c8 3d
       0.056163307 -0.028234093 0.02199659 0.0976914
0003d0 76 71 00 be 9d 5c b8 bc 9e 5f 93 3b 82 5c c8 3d
       -0.12543282 -0.022505099 0.0044974824 0.097832695
0003e0 bc 41 56 3d 6c 3c 25 bd 9d 8c cb bc bd a5 45 bd
       0.052308783 -0.040340826 -0.024847323 -0.048253763
0003f0 49 f2 8b 3d b3 8b 0f 3d 55 3b c9 3c 83 6a 06 3d
       0.068333216 0.035045337 0.024564425 0.03281642
