BFSF/model/u=0.02-decrease/grad/2025-02-22-0.0085_model.pth (torch, 342092 bytes, 14 tensors)

weight f4 [128, 2]
000000 ec 6d 53 3e 44 b5 37 3e b3 f8 bc b9 dd c3 49 3d
       0.206474 0.17940241 -0.0003604345 0.049259055
000010 f4 07 16 3e 3b 92 d5 3d fa 69 c3 bd c1 db 3d 3e
       0.14651471 0.10428282 -0.09541698 0.1854086
000020 41 ca f5 bd 6b 4c c2 3d 9c ac 1c 3e 3f 60 31 be
       -0.120014675 0.09487232 0.1530022 -0.17321871
000030 80 79 41 3e 3b e1 ca 3d 4c bf f0 3d 83 01 1f 3d
       0.18894005 0.099062406 0.11755237 0.0388198
000040 e4 42 dc 3d bc aa fc 3d f0 84 0e bb cd 46 e3 3d
       0.10754946 0.123372525 -0.0021746717 0.110974886
000050 8d d8 41 3d 57 2e db 3d 25 07 30 be 70 c2 54 3e
       0.04732566 0.10702198 -0.17190225 0.20777297
000060 5e f1 00 3e f0 18 18 3c e9 18 98 bc 38 10 fa 3d
       0.12592074 0.009283289 -0.018566566 0.12210125
000070 c2 97 af 3d 50 94 83 3c f4 38 06 be 65 78 99 bd
       0.085738674 0.016061932 -0.13107663 -0.074936666
000080 04 2c 42 3e a7 20 3c 3d c1 cb bb 3c dd 7a 06 be
       0.18962103 0.045929577 0.022924306 -0.13132806
000090 16 b0 4c bd d9 d2 a9 bd 08 45 23 3e 4d 12 2a 3e
       -0.049972616 -0.08292169 0.15944302 0.16608544
0000a0 4a ef 61 bd 7f 14 4c be 92 96 de bd 6f a2 8f bb
       -0.055159844 -0.19929694 -0.10868563 -0.0043833773
0000b0 de a0 c2 bd c9 e4 e1 bd 41 17 7f bd da 9f ef bd
       -0.09503339 -0.110299654 -0.062278036 -0.11700411
0000c0 50 f2 16 3e 35 25 04 bd e9 9a 05 3e 95 d5 a4 3d
       0.14740872 -0.032262046 0.13047375 0.0804855
0000d0 2b ba 4c be 5f f7 db bc f5 a0 7d bc aa 72 a0 3c
       -0.19992892 -0.026851354 -0.01548027 0.019585926
0000e0 60 3c 2c 3e ff 90 74 bd 82 22 55 3e 44 74 38 3e
       0.16819906 -0.05970859 0.20813945 0.18013102
0000f0 32 d0 43 3e 8e fe 48 be 08 85 0b be ba c8 9a 3c
       0.19122389 -0.19628355 -0.13624966 0.018894542
000100 cd 2c fb 3d aa 5c 3b 3e 7d 41 f0 3d 9a e6 0a bd
       0.122644044 0.18297067 0.11731241 -0.033911325
000110 e7 22 23 be 58 be 31 3e ad 06 9b bd 73 e5 4b bc
       -0.15931283 0.17357767 -0.07569633 -0.012444842
000120 36 c6 28 3e e7 43 08 3e 60 43 12 be f3 b2 57 be
       0.16481861 0.13307153 -0.14283514 -0.21064357
000130 87 89 0c be 9d 63 42 bc b9 73 4a 3e bf b7 24 bd
       -0.13724338 -0.01186457 0.19770707 -0.040214296
000140 50 20 56 3d 16 62 4c bc 9d ff 70 bd 2b 5a 45 bc
       0.05227691 -0.012474557 -0.05883752 -0.0120454235
000150 28 cf 13 3e 35 51 42 bd da a1 3a 3d 31 2e 46 3d
       0.14434493 -0.047440726 0.04556451 0.048383895
000160 b8 d3 ff bb cd c3 b3 3d a0 a9 2b be 41 83 06 3e
       -0.0078072213 0.087775804 -0.16763926 0.13136007
000170 82 93 a8 3c 09 18 4b 3d 5a f4 29 3e 16 cf 0c bd
       0.02057815 0.04958347 0.16597119 -0.03437718
000180 e6 60 cc 3c 03 31 0d be 26 f7 1c 3e d1 b1 0f 3d
       0.024948549 -0.13788228 0.15328655 0.03508169
000190 7d 97 64 bd 7f 1f 09 bc 82 12 69 bc bd c1 1a bd
       -0.055808533 -0.008369326 -0.014225604 -0.03778242
0001a0 b9 0f 16 3d 7a d2 07 3e a4 8f 25 3e 31 d9 f7 3d
       0.036636088 0.13263884 0.16168076 0.12101973
0001b0 3e 64 05 3e f8 9e b6 3d cf f6 8a 3d 41 05 68 bc
       0.1302652 0.0891704 0.06785356 -0.014161409
0001c0 fb 54 42 be 4d 77 ce bd 45 49 fa 3d fa ef 49 be
       -0.1897773 -0.100813486 0.12221006 -0.1972045
0001d0 c0 01 c9 3c c6 07 85 3d 16 fa 43 be 50 22 72 bd
       0.024536967 0.06495623 -0.19138369 -0.059114754
0001e0 e0 63 df 3d 8d 60 27 be 28 b1 f8 bd 93 27 b6 3d
       0.109077215 -0.16345425 -0.12143165 0.08894267
0001f0 92 31 16 3d ca 25 4a 3e 6f 23 a0 3d c5 b6 8a 3d
       0.036668368 0.19740978 0.078192584 0.06773142
000200 91 9c 04 bc 82 dd 96 bd e8 da 5d bd 4f 05 52 3e
       -0.008093969 -0.07366468 -0.054163843 0.20509838
000210 c7 ef ca 3d b2 a0 61 3d 62 b2 fd bc 6e 1c f4 3c
       0.09909015 0.05508489 -0.030968849 0.029798713
000220 5d 97 b4 bc ab 8b 48 bd 08 0e 08 3d d3 64 b5 3d
       -0.022044832 -0.048961323 0.033216506 0.08857121
000230 48 6d d0 3d c6 cf 0b 3e 99 19 27 3e c7 ec 33 3c
       0.10177094 0.13653478 0.16318358 0.010981745
000240 97 ea 22 be 2d 7b 3d be 3a fd 0a 3d f4 31 d9 bc
       -0.15909801 -0.18504019 0.033932902 -0.026513077
000250 0e f4 c8 3d 9b 78 38 be 8c d6 10 be 90 4d 30 3e
       0.09812175 -0.18014757 -0.14144343 0.17217088
000260 e4 dd 4f 3b 11 36 3d 3e 87 d7 ec bd 00 41 d4 3b
       0.003171795 0.18477656 -0.11564546 0.006477475
000270 5a 78 ab 3d 24 1f 96 3d 9d 57 8e bd f9 b9 49 3e
       0.083725646 0.07330158 -0.06950305 0.19699849
000280 69 3a a5 3d 2d 5e 43 be 67 cf 3c 3e 15 cc 3a 3e
       0.080677815 -0.19078894 0.18438493 0.18241914
000290 cc 28 16 be f7 2d 27 3c 98 50 01 be f2 36 0f be
       -0.14664 0.01020383 -0.126284 -0.13985804
0002a0 ea 01 71 bd 81 b8 10 be 82 11 3d 3e 94 9d ee 3d
       -0.058839716 -0.14132883 0.1846371 0.116511494
0002b0 0e 61 4e be c7 13 31 bd ee 2c 1b 3e bd 9f 1f 3e
       -0.20154211 -0.04323175 0.15153858 0.15588279
0002c0 33 18 37 be 57 59 a4 3d 8f d9 2d bb e7 1f 12 be
       -0.17880325 0.08024853 -0.002652738 -0.14269982
0002d0 9e 0f 95 3c 67 18 57 bc d6 7f 5b 3d ec b3 59 3c
       0.018195923 -0.013128377 0.05358871 0.013287526
0002e0 c0 51 03 be 8f e3 21 be d8 c1 5a 3e c5 d2 92 3d
       -0.12824154 -0.15809463 0.21363008 0.07169107
0002f0 4f cb 80 39 62 d9 07 be ea f0 39 be 90 51 9d bd
       0.0002456554 -0.13266519 -0.18158308 -0.076815724
000300 bf 9b 31 be 87 69 9b bd 6d 8c 1f 3e 44 0e f6 bc
       -0.17344569 -0.07588487 0.15580912 -0.0300361
000310 ad 25 f2 3d 37 66 13 3e bd 55 4a 3d 5a 5c 49 3e
       0.11823592 0.1439446 0.049398173 0.19664136
000320 9c f2 0a be 5d 71 cd bd 5a 36 aa bb 64 2c 2f 3e
       -0.1356911 -0.10031388 -0.0051944675 0.17106777
000330 18 6a 97 bd 39 25 11 3e b7 c1 58 3e 1a 05 0b be
       -0.07393283 0.14174356 0.21167646 -0.13576165
000340 e9 e0 ad 3d 83 4d 11 3e d4 3a 01 be ff 50 69 bd
       0.08490164 0.14189725 -0.12620097 -0.05696201
000350 51 79 59 3c df 44 52 be f8 7e 2d 3e ba ca 4b be
       0.013273553 -0.20534085 0.16942966 -0.19901553
000360 b9 eb 57 3e 45 86 74 bd d0 3c f1 3d 7c e4 05 be
       0.21086015 -0.059698362 0.11779177 -0.13075441
000370 cd b1 2d 3e c6 ff 69 3d 9a 9f e5 3d dd ae 43 bc
       0.16962357 0.05712869 0.11212082 -0.011943546
000380 00 d3 9e 3c 31 88 27 be af 4a d6 bd 18 3c 0b be
       0.019387722 -0.16360547 -0.104634635 -0.13597143
000390 d8 aa 27 be 5c 52 a6 bd 45 73 ac 3d 17 e2 40 be
       -0.16373765 -0.081211776 0.084204234 -0.18836246
0003a0 d9 1d 3f be 26 ce 1a be 94 8a fb bd e5 fd 25 3d
       -0.1866373 -0.15117702 -0.12282291 0.040525336
0003b0 6a cd 3c be 62 46 4a bd 7d c3 3a 3e 65 a5 47 be
       -0.18437734 -0.04938353 0.18238635 -0.19496687
0003c0 14 90 14 3e 81 6d 2a be 85 05 70 bd ae e0 09 3c
       0.14508086 -0.16643335 -0.058599014 0.008415384
0003d0 ba 2d c3 3d 35 f1 a8 bd d0 32 20 be da 2b 2c be
       0.09530206 -0.082491316 -0.15644383 -0.16813603
0003e0 8a 12 f5 bc 4a c3 03 3e 4d 9b 1f be 12 79 4b 3d
       -0.029916067 0.12867466 -0.15586586 0.04967601
0003f0 cd 8c 28 bb 39 64 2a 3e 48 35 2c 3e 06 49 2f be
       -0.002571869 0.16639794 0.168172 -0.171177

bias f4 [128]
000000 2f a4 65 bc 88 72 48 3c b8 84 ce bc f4 c6 96 3c
       -0.014016195 0.012234338 -0.02520977 0.018405415
000010 79 68 af 3b 65 ea 87 bc ee bd 25 bc e6 b9 be 3c
       0.0053530303 -0.01659126 -0.010116084 0.023282003
000020 f8 d8 cb 3c e7 51 a8 bb dd 03 91 3a 30 89 3b bc
       0.024883732 -0.0051367166 0.0011063773 -0.011446282
000030 9f 93 cc bc 5b ef ad bb b5 61 c3 3c 2e f8 ff bb
       -0.024972735 -0.0053080744 0.023850301 -0.0078115677
000040 7f e7 d6 bc 02 18 a8 3c 48 12 98 bb 9b 73 0d 3b
       -0.026233433 0.02051926 -0.004640851 0.0021583799
000050 85 b6 18 3b 99 e5 90 3c 9e 89 f2 bc c3 c5 ec 3a
       0.002330215 0.017687606 -0.029606637 0.0018064309
000060 d1 73 ea 3c 51 c9 96 bc 98 56 9e 3b 10 13 f9 bb
       0.028619679 -0.018406542 0.0048321 -0.0076011494
000070 ef 26 9e 3c 10 72 52 3b 47 88 0f bd c2 df 15 bd
       0.019305674 0.0032111444 -0.035042074 -0.036590345
000080 de 2d f4 3c d6 d6 e5 3c 6d f7 dc bc f6 33 a9 ba
       0.029807027 0.028056543 -0.02697345 -0.0012909162
000090 ce f1 da bc a0 ad f7 3c bd 32 cd 3b 6f 5c 01 3d
       -0.02672663 0.030234158 0.006262152 0.031582292
0000a0 51 db d9 3b a0 d0 8e ba f0 1e 7b 3c 03 a1 59 3b
       0.006648459 -0.0010895915 0.0153272 0.0033207543
0000b0 07 3c 7b bc 0b 9a 18 bd 39 5d b0 3b 83 a7 14 3c
       -0.015334136 -0.03725628 0.0053822068 0.009073141
0000c0 3d a6 21 bc 91 07 0c 3d fa 69 ce 3c 91 7e f2 3a
       -0.009866294 0.034186903 0.025197018 0.0018500854
0000d0 ed e2 bc 3c 54 e3 01 bd 15 f6 3c 3c 58 01 6b bb
       0.023057425 -0.031710938 0.01153328 -0.0035858955
0000e0 23 b6 42 bc 58 16 ca 3c 95 18 db 3c c4 07 bf 3c
       -0.011884245 0.024668857 0.02674512 0.023319133
0000f0 07 67 8b bc 62 eb 0e bd 8a ff 24 bc 26 07 4c 3a
       -0.0170169 -0.034892447 -0.010070691 0.00077830476
000100 3c f5 aa bc 5a c2 6f bc 3d 0d 09 3b e7 6b 4c 3b
       -0.02086889 -0.014633739 0.0020912432 0.0031192244
000110 e6 14 b4 bb 1a cd cf bb b9 2d 76 3c c0 4f 7c bc
       -0.0054956554 -0.0063415887 0.01502555 -0.015399873
000120 de cb de bc f9 a8 65 3c a4 58 86 bc 43 92 c0 bc
       -0.02719682 0.014017337 -0.016399689 -0.023507243
000130 e6 e4 59 bb ac 99 d6 3c fe b9 8f ba 99 d2 53 bc
       -0.0033248006 0.026196323 -0.0010965464 -0.012928628
000140 fc 7b e2 ba 05 69 d1 3c 5a af 28 bd 4e c6 c6 bc
       -0.0017279382 0.025562773 -0.041182853 -0.02426448
000150 f3 2b 86 bb 5f 32 07 3d 53 08 ce 3c fa 03 a3 bc
       -0.0040945946 0.033007022 0.025150454 -0.019899357
000160 16 c2 ee 3c d7 c5 c6 bb ab 97 96 3b 2b e4 4c bc
       0.029145282 -0.006066065 0.004595717 -0.012505571
000170 f9 48 5b bc 35 f1 e4 bc 8d de 0e 3c 6b 69 d7 bc
       -0.013384097 -0.027947048 0.008720052 -0.026295384
000180 49 0d e2 bc bb 6d cb bc 32 86 00 3c e9 4d 8f bc
       -0.027594225 -0.024832597 0.007844495 -0.017493205
000190 7f d4 d8 3c 4f 13 89 3a 10 ba 8a 3b 1f 88 85 3b
       0.026468514 0.0010458025 0.004233606 0.004075065
0001a0 57 5c e9 bb 04 04 ce 3c 7e 55 75 bc 9e 05 90 bc
       -0.0071216035 0.0251484 -0.014973996 -0.017580803
0001b0 1f 0f c7 bc a1 84 ed 3c b9 f3 07 3d aa 55 c6 bc
       -0.024299202 0.028993906 0.033191416 -0.02421077
0001c0 2a bc 1d 3b 83 af d7 3c 63 0f 81 bb 71 c6 65 bc
       0.0024068453 0.026328808 -0.003938602 -0.014024363
0001d0 ef 5b 93 bc 25 46 b6 bc fd 8f e0 bc 7d bf 5a bc
       -0.017988173 -0.022250244 -0.027412409 -0.013351318
0001e0 e2 ed ef 3c 23 d7 07 3b 35 f5 98 bc 5d 78 a4 bc
       0.029288236 0.0020727597 -0.018671611 -0.020076925
0001f0 c8 b2 62 bb 9f 5d fb bb ec 05 eb bb b2 d2 21 bc
       -0.0034591425 -0.0076710726 -0.007172337 -0.009876894

weight f4 [128, 128]
000000 ae f0 96 3c 04 c2 df bd b1 aa 54 bd 73 23 0d 3e
       0.018425312 -0.109256774 -0.051920597 0.13783054
000010 0a 02 11 3e 5e f1 28 3d 13 70 c4 3d d7 44 84 3b
       0.14160934 0.04124581 0.09591689 0.0040365267
000020 64 57 1b be da dc d4 bd 52 04 98 bd 77 e3 51 bd
       -0.15170056 -0.103936866 -0.07422699 -0.051242318
000030 bb 2e 13 be 13 59 bd 3d 32 0a 14 3d 7b 68 d7 bd
       -0.14373295 0.09245505 0.036142536 -0.10517975
000040 4f c9 0b 3e c0 56 90 bd 67 93 81 bb 27 c7 01 bd
       0.13651012 -0.07047796 -0.0039543393 -0.031684067
000050 9f 16 2e bd 5c e3 b6 3d 01 50 1d 3d 67 f9 1e 3d
       -0.042502042 0.08930084 0.038406376 0.038812067
000060 df 51 57 bc ad 1d c6 bd c4 c6 06 3d 4f 36 9d 3d
       -0.013142078 -0.09673629 0.0329044 0.07676374
000070 33 10 e6 3c c8 88 8c 3d fb d3 de 3b 73 44 9d 3c
       0.028083896 0.068620265 0.0068001724 0.019197678
000080 13 9c a9 bd 6f ec 16 be b0 3c 13 3e f1 a7 f5 3d
       -0.08281722 -0.1473863 0.14378619 0.11994923
000090 74 9e e8 bc b5 a8 73 bd dd 14 fc bd ba 05 d0 bd
       -0.028395869 -0.059487063 -0.12308667 -0.10157342
0000a0 63 b0 e3 bd f7 99 f7 bd 8b ec 54 bc 2b 58 d4 3c
       -0.111176275 -0.12089913 -0.012995849 0.025920948
0000b0 60 52 06 3e 68 a2 bf 3d d5 a9 19 3e 55 bb f7 3c
       0.13117361 0.093571484 0.15006192 0.030240694
0000c0 08 81 0b bc 51 00 ae bd ad 68 ab 3c 06 2d de 3d
       -0.00851465 -0.08496154 0.020923937 0.10848431
0000d0 e0 ce 9a 3d 8b eb 06 3e 4c e1 84 3d 4a 5b 08 3d
       0.075589895 0.1317579 0.064882845 0.033290185
0000e0 97 ee e7 3d ed 97 a5 3c 58 16 5e 3d a8 c5 19 3d
       0.11324804 0.020214045 0.054220527 0.037542015
0000f0 d1 ab 9d 3d 36 a0 c6 3b ba ef 15 bd 4a 15 29 3d
       0.07698787 0.006061579 -0.036605574 0.04128007
000100 4c 92 b7 3d 7d 0b 2c 3d 39 59 83 bd c7 ab be bb
       0.08963451 0.042003144 -0.06413502 -0.0058188173
000110 f7 16 e5 3d 64 df e1 bd dc da 0b be 67 8e a5 bd
       0.11186021 -0.110289365 -0.13657707 -0.08083802
000120 41 44 cf 3d 1a 6c 06 be 6b 28 b8 3b 8a 5f 01 be
       0.1012044 -0.13127175 0.0056200526 -0.12634102
000130 47 cf a4 bc f1 b4 d4 bd 47 78 00 bd 60 81 fe 3d
       -0.020118369 -0.10386074 -0.031364705 0.1242702
000140 e6 e1 d5 3d 9d e2 5d 3d 52 92 cf bd d6 c3 c3 3d
       0.10443477 0.054171193 -0.1013533 0.09558837
000150 60 cc af 3d ba 10 0d be 23 19 46 bd b7 c7 a2 b9
       0.08583903 -0.13775912 -0.048363816 -0.00031047847
000160 a0 46 c0 bc 2a 1d 06 3c 5f c5 35 bd 42 d5 e2 3d
       -0.023471177 0.008185664 -0.04437768 0.11075832
000170 9e 44 d7 3d 91 6f e4 3c f7 55 c9 3c c4 03 9e bd
       0.105111346 0.02788523 0.024577124 -0.07715562
000180 cf 2a 50 3d 80 1d aa bd 00 06 a3 3d c7 f4 c0 3c
       0.050822075 -0.08306408 0.07960129 0.023554219
000190 68 a7 01 be ac 69 8e bc 1f 4d c5 bc 4a bc c6 bd
       -0.12661517 -0.017384373 -0.024084626 -0.09703882
0001a0 1b d6 8a 3d 3a 20 01 be 2d b6 cf 3c 2f 35 c5 bb
       0.067791186 -0.1260995 0.025355423 -0.006018303
0001b0 d3 ff 1a 3e a4 e3 9c 3d 40 38 4d 3d 24 6b 3d bd
       0.15136652 0.076606065 0.050102472 -0.046244755
0001c0 f7 34 16 be d1 3f b9 bd 43 fb f9 3b e1 0b c9 bd
       -0.14668642 -0.09045375 0.0076288297 -0.09816719
0001d0 a6 b2 2c 3d b9 09 b1 bd e6 b3 64 bd 41 a4 e4 bc
       0.04216256 -0.086444326 -0.055835627 -0.027910354
0001e0 04 b2 52 bd e9 02 65 bd 68 6d 9d 3d 68 83 af bd
       -0.0514393 -0.05591098 0.07686883 -0.08569986
0001f0 51 e4 b8 3d 74 6c a7 3d 0b 74 c7 bd c3 c5 6a bd
       0.09027923 0.08174983 -0.0973893 -0.057317507
000200 11 03 37 bc 8e 31 73 3d 28 e3 f7 3d 59 06 18 3e
       -0.011170165 0.05937343 0.121038735 0.14846171
000210 a9 3c ef 3c 7f 7b 0d 3e 6f 82 19 3c 7b 4e cc 3c
       0.02920373 0.13816641 0.009369477 0.024939766
000220 7f 78 ff bd 2f 57 0d 3e d6 94 0b be 40 df b3 3d
       -0.12474155 0.13802789 -0.13630995 0.08782816
000230 b4 42 0d 3e 03 02 bd 3d f2 d9 0c 3e 39 7c ff bd
       0.13794976 0.09228899 0.13755015 -0.124748655
000240 a0 c3 08 3d c1 d5 ab 3d dc e9 0f 3e 32 48 a3 bd
       0.033389688 0.0839038 0.14054054 -0.079727545
000250 bf 5b 13 3e 80 4a 24 3d 02 17 40 3d 3a a3 99 bd
       0.14390467 0.04011011 0.046896942 -0.07501836
000260 6a 6e 02 be e8 ca 03 3e 03 16 2a 3d 79 8f 48 3c
       -0.12737432 0.12870371 0.0415249 0.012241238
000270 44 ee 82 3d 28 18 3a 3c 58 49 3f 3d 38 e1 79 3d
       0.06393102 0.011358298 0.046700805 0.0610058
000280 35 81 0f be ae 8c 9c 3d 4c df 83 3c 13 7c 80 bc
       -0.14014132 0.0764402 0.016097687 -0.015684163
000290 94 e9 8b bd c2 99 65 bd b7 69 0c 3d 97 57 d9 3d
       -0.06831661 -0.056054838 0.034280505 0.106124096
0002a0 cd 12 04 be 6b 8e f0 bd 0f db e5 bd 81 fc eb 3d
       -0.12897797 -0.11745914 -0.11223423 0.11522771
0002b0 b7 a2 23 bd 20 21 4d 3a 73 63 5f 3d ed c9 a1 bd
       -0.0399501 0.00078250654 0.0545382 -0.078998424
0002c0 b9 c3 a0 3d a4 23 17 be c6 fb a0 bd 19 10 6e bd
       0.07849831 -0.1475969 -0.07860522 -0.05812082
0002d0 15 33 a4 3d a7 06 f4 bd 4e 48 db 3d 1e 3a 0a bd
       0.080175556 -0.11915331 0.107071504 -0.03374683
0002e0 ff 7f 09 be 05 59 da bd 6d 38 dc 3d 42 16 06 3e
       -0.13427733 -0.106615104 0.1075295 0.13094428
0002f0 98 d7 0f be 9b f0 31 bc 17 a0 77 bd 46 a8 05 3d
       -0.14047086 -0.0108605875 -0.060455408 0.03263118
000300 a9 9e 8a bc 48 29 9e bd b9 a6 cf bd 82 f6 29 3d
       -0.016921358 -0.077227175 -0.10139222 0.041494854
000310 01 21 51 3d 8f 9a af 3c 57 3d 5a bd e2 0c 4a bd
       0.051056866 0.021436004 -0.053281154 -0.049328692
000320 53 71 20 3d 88 f9 ff bd 46 5b ff 3d 48 da a5 3d
       0.039170574 -0.12498766 0.12468581 0.080982745
000330 1a 87 36 3c 5b 10 94 3c ec 53 de bc 5b 52 98 bb
       0.011140609 0.018074205 -0.027139626 -0.0046484894
000340 4c 72 13 3e 7b 89 12 be ee be 1d bd 40 44 ab bd
       0.1439907 -0.14310257 -0.038512163 -0.08362627
000350 68 b6 0a be 65 59 14 bd 0d c3 17 3e 07 a1 17 3d
       -0.13546145 -0.036218066 0.148205 0.037018802
000360 a1 b3 fc 3d c1 bf 37 3d 9e 1d 16 3e f0 98 20 bd
       0.12338949 0.044860605 0.14659736 -0.039208353
000370 a1 a7 cd 3d 5f b6 4c 3d d3 88 0a bc 65 c7 14 3c
       0.10041738 0.04997861 -0.008455473 0.0090807425
000380 8f 96 83 3d cd 7f d8 bd fd e1 a0 3d dc 0c ab bb
       0.06425201 -0.10571251 0.07855604 -0.005220039
000390 dd 12 d1 bd b4 cd 8d 3d 5e 83 81 bd ce 33 c6 3d
       -0.10208676 0.069240004 -0.063238844 0.0967785
0003a0 12 8f a7 bd b6 6c 50 3d 15 fb 2c ba 6d 81 b0 3d
       -0.08181585 0.050884925 -0.00065986934 0.08618436
0003b0 5c 82 6e bd ff a2 58 bd 4a af 34 3d b6 56 fe bd
       -0.05822979 -0.05288982 0.04411248 -0.124188825
0003c0 01 c5 06 3e 84 2f 0d be e1 4d 99 ba 09 6a 25 bd
       0.13161089 -0.13787657 -0.0011696183 -0.040384326
0003d0 ef 04 57 3b 69 58 19 be 30 0a 02 3e a0 30 13 be
       0.0032809337 -0.14975132 0.12699199 -0.14374018
0003e0 d1 d3 bd bd 80 a3 58 bd 8b 57 36 3d 12 fa 71 bc
       -0.092689164 -0.0528903 0.04451708 -0.014769094
0003f0 29 83 88 bd 3b b0 a9 3d 1a da 1a 3d ef 75 0c 3e
       -0.06665642 0.082855664 0.037805654 0.13716863

bias f4 [128]
000000 00 72 2c bc 15 4c 60 bc 07 ff 06 bd 73 4e 2b bb
       -0.010525227 -0.013690014 -0.032958057 -0.0026139289
000010 89 00 47 bc 55 43 ea 39 a7 37 29 3c f8 43 0f bc
       -0.012146124 0.00044682124 0.01032821 -0.008744232
000020 bd 89 fd 3b c4 11 ac 3b 5d 43 b0 3c ed f5 2e 3c
       0.007737367 0.0052511413 0.021516496 0.01067875
000030 65 1c a6 3c 40 52 30 3b b0 fd 69 3c d7 51 1c 3c
       0.020277211 0.0026904494 0.014281675 0.0095409965
000040 c9 99 18 bc 6e 5f e2 bc 82 84 b0 37 42 ff 15 bb
       -0.009314009 -0.027633395 2.1042539e-05 -0.0022887741
000050 d7 77 60 bc 1a 12 aa 3c 20 48 a0 ba 7b fc b3 bb
       -0.013700447 0.020760585 -0.0012228526 -0.0054927445
000060 61 bf b1 bc a4 4f 1d 3c 09 ed bc ba 57 e4 48 bb
       -0.021697702 0.009601507 -0.0014413904 -0.003065368
000070 ff 30 40 3c d9 50 e7 b8 82 c6 96 3a 4f 86 53 3b
       0.011730432 -0.000110299974 0.0011503252 0.00322761
000080 47 b7 8b bc e0 b4 91 bb 34 2d 68 3c 6c 46 1c ba
       -0.017055167 -0.004446611 0.0141709335 -0.00059614214
000090 05 e4 0f 3c d6 3e 07 bc 21 02 5d 3b 00 2e 6a 3c
       0.008782391 -0.008254727 0.0033723193 0.014293194
0000a0 18 59 07 3c 5f 03 e4 3b b1 88 25 3c 9d 5b ef 3c
       0.008260988 0.0069584097 0.010103391 0.02921849
0000b0 04 ed ce 3c c9 3c 4f bc 1e 0c 1c 3b 91 87 8a bb
       0.025259502 -0.01264877 0.0023810933 -0.0042275866
0000c0 fa 49 85 3c 17 7b 36 bc 61 8e 7b bb bc e7 cb 3c
       0.016270626 -0.011137745 -0.0038384425 0.024890773
0000d0 a9 eb 95 3a 7c 2e 01 3b 58 b3 03 3c 3c 8d 50 3a
       0.001143803 0.0019711545 0.008038364 0.0007955616
0000e0 f5 2c 8f 3b e2 cd 47 bc 4c c8 71 3c 43 3a b7 bc
       0.004369373 -0.012195082 0.014757227 -0.022366649
0000f0 77 6e 3f 3c a4 a6 22 bc c8 4e 50 39 1d b3 34 3c
       0.011684052 -0.0099274255 0.00019865774 0.011029032
000100 36 37 8e bc e5 c6 9e ba 68 1f 5b 3c a8 68 f3 b9
       -0.017360311 -0.0012113719 0.013374187 -0.00046426547
000110 52 b6 46 bc 21 0a f6 bb e5 a0 9c bb 0a 5e f9 bc
       -0.0121284295 -0.0075085317 -0.0047799223 -0.03044035
000120 3b 34 e7 ba 05 5b 46 3c 5e 56 26 bc 81 b5 75 3b
       -0.0017639467 0.012106662 -0.0101524275 0.0037492218
000130 b2 e9 ab bb cb 50 d3 3b 69 7c b0 3b 50 cf 8b 3b
       -0.0052463645 0.0064488403 0.0053859246 0.004266657
000140 3c bd 57 3c 08 93 57 bc 8c 7a fc bb 1f f3 86 ba
       0.013167676 -0.013157614 -0.0077050384 -0.0010295844
000150 97 cd bb 3a c5 a3 d4 bc eb 0f 49 bb f7 29 e0 b8
       0.0014328238 -0.025956998 -0.0030679654 -0.00010688969
000160 de de 89 bb e9 04 bc ba 23 b0 8a 3b 0e 28 9f 3b
       -0.004207476 -0.0014344725 0.004232423 0.00485707
000170 1f 56 ec bb ed f6 ba 3b b6 8a eb 3c ec 55 8e bc
       -0.007212415 0.0057057054 0.028752666 -0.017374955
000180 de 50 d9 3a f2 f0 3b bc 8e a9 2a 3c 5c da b1 bc
       0.0016579886 -0.01147102 0.010416402 -0.021710567
000190 fe 86 04 bb 05 81 9c b9 fa 75 5a 3c 93 5b f6 3a
       -0.0020222063 -0.00029850766 0.013333792 0.0018795602
0001a0 cf 7d c1 3c 48 25 3e 3c 86 94 55 bb 0d d2 40 3c
       0.02361956 0.011605568 -0.0032589748 0.01176883
0001b0 9b 54 b2 bb d5 47 7a bc c0 0c 6b 3a 5c c2 f6 ba
       -0.0054422147 -0.015275915 0.00089664385 -0.0018826234
0001c0 10 a3 65 bc 70 d4 85 3c 5b 04 6e 3a e4 d3 a7 bc
       -0.014015928 0.01633665 0.00090796285 -0.02048678
0001d0 a3 ab 00 bc c1 78 94 bb 5b 01 9d bc 52 4b c5 3c
       -0.007853421 -0.0045309965 -0.019165685 0.024083767
0001e0 c1 7d 8b bc b8 f0 28 bc 99 b4 36 bc f8 66 05 3c
       -0.017027738 -0.010311298 -0.011151456 0.008142225
0001f0 1a fc cb ba 26 6a 29 3c fe 6e 15 3c 44 60 02 bb
       -0.0015562803 0.010340249 0.009120701 -0.0019893805

weight f4 [128, 128]
000000 4d c4 e6 3d bd d1 0a be 5d 9b c5 bd 61 c1 8e 3d
       0.1126791 -0.13556571 -0.09648774 0.06970478
000010 53 dc 1a 3e ea 18 08 3e 09 0f 04 3d 8b 10 de 3d
       0.1512311 0.13290754 0.0322409 0.10842999
000020 28 22 08 be d2 fa 82 3c 4e ea 18 be 46 3b 1f 3d
       -0.1329428 0.015988741 -0.1493313 0.038874887
000030 88 ab 1e bc 59 52 15 3e a8 77 5c 3d 9d 69 0d bd
       -0.009684451 0.14582194 0.05382505 -0.03452455
000040 c6 24 c2 3c 52 b2 aa 3d 5d ee 96 3d f7 67 0e be
       0.023699176 0.08334793 0.07369683 -0.13906847
000050 87 6a 30 3d a5 bf a2 bd e6 fe 96 3d 26 5c c7 3d
       0.043070342 -0.079467095 0.07372837 0.09734373
000060 c7 ee 14 3e 39 32 a2 3b 7c 48 07 3b d9 3d 07 be
       0.14544211 0.0049498347 0.002064257 -0.13207187
000070 db 52 a8 3d 74 0e e3 3d 41 2e 00 be c7 1c ff 3c
       0.082189284 0.11086741 -0.12517644 0.031141652
000080 d1 5e 19 3e 63 72 37 bd b5 30 19 3e 06 09 14 3e
       0.14977576 -0.044786822 0.14959987 0.14456567
000090 c7 70 cd bd ec 02 5c bd 52 dc 1a 3e 2b 61 96 3d
       -0.10031276 -0.053713724 0.15123108 0.07342752
0000a0 25 6c 07 be 6e f4 08 3e 86 d2 94 bc 41 68 04 be
       -0.13224848 0.13374493 -0.018166792 -0.12930395
0000b0 72 bf fc bd 04 0c 4a bd ef 68 52 bc 86 18 54 bd
       -0.12341203 -0.049327865 -0.012842401 -0.0517812
0000c0 e8 89 b1 bd 03 f2 c3 3c 6d ef f7 bd 44 de 0a ba
       -0.08668882 0.023919111 -0.12106214 -0.00052974024
0000d0 1e 48 9a 3d d4 5d 14 3d 92 71 a4 bd c9 91 f3 3d
       0.075332865 0.036222294 -0.08029474 0.11893041
0000e0 da b7 83 bd b0 95 8f 3d b5 6b 04 bc 67 09 09 3e
       -0.06431551 0.070109725 -0.00808232 0.13382493
0000f0 04 66 ba bd 5c d2 67 bd de 26 58 bd fb cd df bc
       -0.09101489 -0.0565971 -0.05277144 -0.027319899
000100 3e 29 9b 3b 34 f5 4d bd 64 90 98 bd 36 8d b1 3c
       0.004735141 -0.050282672 -0.07449415 0.02167378
000110 93 34 fd 3d f8 16 ad bd 02 3e 29 3d ee ef f3 3d
       0.12363543 -0.084516466 0.0413189 0.11910997
000120 44 f8 17 be fe 14 0c 3e e6 4e b7 bd cc 8e 14 3e
       -0.148408 0.13679883 -0.089505956 0.14507598
000130 fa 6c 9c 3d 24 a8 18 be 8b 78 03 3e d4 3e 98 3d
       0.07637973 -0.1490789 0.12838952 0.074338585
000140 18 ed f1 3d da ba b1 b9 6f d6 95 bd 24 ce 19 be
       0.118128 -0.00033899286 -0.073162906 -0.15020043
000150 01 be 0e 3e 4d c2 b2 bc e2 b6 c6 bd 52 22 22 bd
       0.13939668 -0.021821165 -0.09702851 -0.03958351
000160 e3 be d6 bd c6 08 0e be 84 ab ef 3d 43 d3 c8 3d
       -0.104856275 -0.13870534 0.11702636 0.0980592
000170 0d 50 8e bc 6d e2 1a 3e 60 8c 0c 3e 5f c1 53 bd
       -0.017372156 0.15125437 0.13725424 -0.051698085
000180 a3 c3 d5 bd 03 29 14 3e de 4b bc 3d 0d d7 c8 3d
       -0.10437705 0.1446877 0.09194158 0.09806643
000190 17 ff 2d 3d e5 66 d6 bd f8 e4 0d be ed 7c 11 3e
       0.0424796 -0.10468844 -0.13856876 0.14207812
0001a0 74 50 b4 bd c6 3a ed 3d b2 e0 9b bc 91 7c e3 3d
       -0.08804408 0.11583476 -0.019028042 0.111077435
0001b0 15 15 85 bd bd 8f 52 3d d4 82 19 bd d8 8f fd bc
       -0.06498162 0.05140661 -0.037478283 -0.03095238
0001c0 fe f1 02 3e 16 bc 69 bc 4a 95 d2 3d 1c 6e 75 bc
       0.12787625 -0.014266035 0.10282381 -0.014979865
0001d0 83 38 04 be 6c bb 02 3e 75 a1 d3 bd dc 2c 18 bd
       -0.12912183 0.12766808 -0.1033353 -0.037152156
0001e0 c2 f4 98 3b b7 c2 c1 3d 51 66 08 bb 0c d9 77 3c
       0.0046678493 0.09460967 -0.0020812938 0.015127432
0001f0 d4 7f 05 be 05 dd 45 3d 5d de e0 3d 73 fc 12 be
       -0.13037044 0.048306484 0.109799124 -0.14354114
000200 c6 78 d9 bd e8 41 b5 3d 73 7e b1 3d e3 77 e9 3d
       -0.10618739 0.08850461 0.086666964 0.1139982
000210 57 a5 02 3e 82 5c 04 3e cc e6 95 3c c0 36 c4 3d
       0.12758385 0.12925914 0.01829853 0.09580755
000220 99 6b c4 3d 68 18 2b bd b9 df a5 3d 95 3c c1 3c
       0.09590835 -0.041771322 0.08099312 0.023588458
000230 63 81 ec 3c a3 5a 34 3d 02 73 da 3d dd 7a 0c be
       0.02887029 0.04403175 0.10666467 -0.13718744
000240 b8 f9 b6 bc 54 23 6d 3d 1d 31 86 3d 27 a8 0c bb
       -0.022335872 0.05789502 0.06552336 -0.0021462531
000250 60 a2 e3 3d 22 a8 0d be ea c0 76 bc 2c 12 44 3d
       0.11114955 -0.13833669 -0.015060643 0.047868893
000260 5e 5c 12 3d b8 20 9b bd 82 8b 08 be 89 70 b7 bd
       0.03573262 -0.075746 -0.13334468 -0.08957011
000270 3b 64 c0 bd 6a c2 22 3d 19 7b a6 3c 50 00 d6 bd
       -0.093941174 0.03973619 0.02032237 -0.10449278
000280 03 b1 f3 bd 24 94 fd 3d c6 f0 ab 3d f7 1b 03 be
       -0.11898997 0.12381771 0.08395533 -0.12803636
000290 47 26 be bd b9 88 02 3e 90 30 14 be 3c 96 be 3d
       -0.092846446 0.12747468 -0.1447165 0.09305999
0002a0 e6 4f 87 bd eb 25 f1 3d 25 57 cc 3d b1 76 c1 bd
       -0.06607036 0.117748104 0.09977559 -0.09446467
0002b0 f8 e1 0a be 94 4a ad 3d 4e 69 63 3d db 85 3e bd
       -0.13562763 0.0846149 0.05552035 -0.046514373
0002c0 27 2c 0b be c5 bd 2a 3d 41 c6 14 be 4e 2d 61 3d
       -0.13591062 0.041684885 -0.14528753 0.054974847
0002d0 8f c0 4e bd a2 e6 82 bd ff b1 01 3e db 27 8c 3d
       -0.050476607 -0.06391646 0.12665556 0.06843539
0002e0 bc 02 1f 3d 0f f5 e1 3c cf 7b 09 3e e2 50 16 3d
       0.038820967 0.027582673 0.13426135 0.03669823
0002f0 80 66 83 3d 2b 79 16 bd 75 c8 fb 3c ef 58 61 bd
       0.06416035 -0.03673665 0.030735234 -0.055016454
000300 a3 9e 06 bc 7a 55 3a 3d 2a 1c ab 3d d9 30 85 bd
       -0.008216533 0.045491673 0.08354981 -0.065034576
000310 d3 67 44 bd 2c ba 48 bd 2b f4 a5 3d 1c bb b8 bd
       -0.047950577 -0.049005672 0.08103212 -0.09020063
000320 15 c7 16 be 12 2a 5b bd b0 6d 40 bb 0e 4a fe 3d
       -0.14724381 -0.05350692 -0.0029362254 0.124164686
000330 81 ae 91 3c 0f 9e 91 3d b3 37 5f 3d c7 d1 1a be
       0.017783405 0.071102254 0.05449648 -0.15119086
000340 d1 a2 a2 3d 70 25 68 3d f0 53 cf 3d 73 48 a6 bd
       0.07941211 0.05667633 0.10123432 -0.08119287
000350 ad 37 84 3d 51 e5 51 bc 7a 62 b7 3c 11 26 05 bd
       0.06455932 -0.012811021 0.022385824 -0.032507006
000360 f5 53 18 3e 90 3e cd bd 33 3f 79 bd 6b b7 d2 bd
       0.14875777 -0.100216985 -0.060851287 -0.102888905
000370 2a 82 dd 3c 74 5b 13 be 7c a4 a2 3d 57 52 af 3d
       0.027039606 -0.14390355 0.07941529 0.08560627
000380 be 3e 46 3d ae 67 08 3e ca 37 cc 3d ad 20 4c bd
       0.04839968 0.133208 0.099715784 -0.04983585
000390 96 66 53 bc 57 bb ea 3c b0 26 0d be 51 60 ac bd
       -0.012902876 0.028653784 -0.1378429 -0.084168084
0003a0 9b ce 88 3d a3 6b 1b be 1c 06 f3 bb d2 21 8f 3c
       0.06680032 -0.15177779 -0.0074165 0.017472181
0003b0 ec 8f 2b bd 08 4d 2e 3b c4 86 70 bd 4d b6 4e 3c
       -0.0418853 0.0026596207 -0.058722273 0.012616706
0003c0 ce 09 18 3e fa 98 e2 bd 58 b4 44 bc 50 c6 b8 3d
       0.1484749 -0.11064334 -0.012005888 0.090222
0003d0 ab cc b8 3d e1 c6 9c bd 0c 3c 62 3c 56 23 84 3d
       0.09023412 -0.07655121 0.013808262 0.06452052
0003e0 f3 9e 47 3d 93 84 51 bd fa ec e8 bd 3f 68 81 3b
       0.04873557 -0.051151823 -0.11373325 0.0039491947
0003f0 93 74 04 3e 6e de bd 3d b0 56 47 bd 08 d3 94 3d
       0.12935095 0.09270941 -0.048666656 0.072668135

bias f4 [128]
000000 10 e6 96 3c f7 30 be 3b 3c 85 ba bb 3f 32 6f b8
       0.01842025 0.005804177 -0.0056921523 -5.7028836e-05
000010 25 48 f4 3b f3 1f 21 3b de 6f 3b 3c 34 08 93 bc
       0.0074548894 0.0024585694 0.011440245 -0.017948247
000020 50 06 8f ba da 0e dc 3b a5 62 34 3b 24 75 8e bb
       -0.0010911915 0.0067156376 0.0027524617 -0.0043474603
000030 71 7b f9 bb 68 32 20 3b 04 9f 92 bc b8 52 f1 b9
       -0.0076135923 0.0024444107 -0.01789809 -0.00046028732
000040 91 3a 84 bc f7 e2 92 bb c3 54 2c 3c 20 64 0c bb
       -0.016141208 -0.0044826227 0.010518256 -0.0021421984
000050 0a c2 76 3a f1 cd 10 bc 86 27 d4 3b 8b 47 7b 3b
       0.00094130693 -0.008838163 0.006474438 0.0038342203
000060 f5 c1 28 bb f0 4f d2 bb 16 9b 84 bb d0 60 80 bb
       -0.0025750373 -0.0064182207 -0.004046808 -0.003917791
000070 6d 85 29 3a 5c 08 fb ba 22 b6 13 bb d6 73 ca bb
       0.00064667204 -0.0019152272 -0.002253898 -0.0061783595
000080 a2 ae c4 bc d6 50 96 3b 5e 19 10 39 b9 97 83 3a
       -0.024009053 0.004587273 0.0001374236 0.0010039724
000090 7a 54 bc 3a 61 e2 38 bc fb 3d aa 3b 7c d3 94 bb
       0.0014368438 -0.011284442 0.005195377 -0.0045418125
0000a0 0d 29 ee 3b de 64 82 3a e1 7f d3 3b 54 80 4b bc
       0.007268077 0.0009948274 0.0064544533 -0.0124207325
0000b0 75 3c b6 bc 8c 01 e0 3a 49 d0 82 bb fc 19 41 bc
       -0.022245625 0.0017090305 -0.0039921147 -0.01178598
0000c0 2e 86 5a 3b 8f 1b a1 3b b7 63 ef bb 24 20 86 bc
       0.0033344137 0.0049166153 -0.007305588 -0.016372748
0000d0 d0 a0 17 3b e2 72 d9 bb d4 6a 0e bb 35 7e 39 3c
       0.0023136623 -0.0066360096 -0.0021731155 0.011321594
0000e0 bc 96 01 bb e7 ff 0f bb bd 37 d6 3b 98 c4 bd bc
       -0.0019773683 -0.0021972598 0.0065374062 -0.023165032
0000f0 ca 0c f4 3b 91 a2 a5 3b f1 5a c2 bb 90 d7 3e 3b
       0.0074478136 0.00505478 -0.005931251 0.0029120184
000100 ff 0b 87 3b 0f d6 63 3c 04 bb cf bb 73 47 b7 3b
       0.004121303 0.013906016 -0.0063394327 0.005593234
000110 56 ad b6 3b 33 f7 3d bc 66 ba de 3b 7c eb 04 3c
       0.0055748625 -0.011594581 0.006797123 0.0081127845
000120 f8 42 b2 3b 0b f2 ab bb d6 c6 d8 39 6e 1d 4a bc
       0.005440112 -0.0052473596 0.00041346875 -0.012336118
000130 a6 32 66 3b a2 01 d3 3b 48 d0 f7 3b c7 f5 c8 3b
       0.0035125404 0.0064394036 0.007562671 0.0061328146
000140 e3 70 ef bb 3c 38 42 3c 07 7e 0f bc 03 2e 4a bb
       -0.0073071583 0.011854228 -0.008758075 -0.003085018
000150 ab 0e c5 bc 4c 6b b1 3b 91 b4 2e 3b b6 c1 8f b7
       -0.024054846 0.005414402 0.002665792 -1.7137132e-05
000160 e7 61 ae ba 1c 1a 18 bc 04 1a 0a 3b 89 2c 27 bb
       -0.0013304324 -0.009283569 0.0021072635 -0.0025508723
000170 f4 77 bc bc 6d 59 af b9 0c 9d 55 ba 9b 11 1c 3c
       -0.023006417 -0.00033445228 -0.0008148707 0.009525682
000180 19 c9 14 bb 99 b6 b9 3b 52 ee 46 bc ea 4d 79 bc
       -0.0022702871 0.0056675193 -0.012141781 -0.01521633
000190 a6 09 8d 38 fb a6 03 bc 3d 31 a3 3c 43 c5 6a 3c
       6.725201e-05 -0.008035417 0.01992094 0.014329257
0001a0 7c 85 eb 3b ac 8e d1 3a b8 54 a5 3b f9 62 74 bb
       0.0071875434 0.0015987954 0.0050454997 -0.0037290438
0001b0 e5 7e b3 bc 8b b0 9d ba 73 7c 9b 3c 9c d9 a8 ba
       -0.021911094 -0.0012030763 0.01898024 -0.0012882235
0001c0 83 74 69 3c e3 bb bb ba 13 2f 55 3c c1 7b 21 bc
       0.01424897 -0.0014322962 0.013011712 -0.009856165
0001d0 a9 de dc 3b b6 73 d4 bb b4 3b a3 3b 30 cc 85 bc
       0.0067404103 -0.0064835204 0.0049814824 -0.016332716
0001e0 18 b6 70 bc 40 cf 96 39 90 a0 91 bb f6 88 89 3b
       -0.014691852 0.00028764643 -0.0044441894 0.004197235
0001f0 69 cf de 39 03 75 cf bb d0 90 17 bc 8e ed e2 bb
       0.00042497672 -0.0063310876 -0.009250835 -0.0069252914

weight f4 [128, 128]
000000 ee 02 63 3c 0b ff 58 3d d7 df b0 3b 67 2c ec bb
       0.013855679 0.052977603 0.0053977775 -0.0072074416
000010 a0 a4 00 3e 4e 7c a3 3d 75 cf 7f bd af 0e 00 be
       0.125628 0.079826936 -0.062453706 -0.12505601
000020 dc 7d 09 be 53 30 05 3d af 70 37 bd bd 37 b4 3d
       -0.13426918 0.03251679 -0.044785198 0.08799694
000030 5c 06 0b 3e 33 f5 86 bb 8e be 7f bd 95 d9 99 bc
       0.13576645 -0.0041185855 -0.062437586 -0.018780509
000040 0b bf f7 3d fb c4 90 3d 3c 66 db 3d 4e eb f9 3d
       0.120969854 0.07068821 0.10712859 0.12203084
000050 eb 0a d3 3c e5 82 04 3c e5 12 a8 3c ff ec cd bd
       0.025762042 0.008087848 0.020516822 -0.10054969
000060 b0 c4 1a 3e 9d 01 d4 bc 05 40 8e bd 3b c8 92 bd
       0.15114093 -0.025879676 -0.069458045 -0.07167097
000070 e7 64 67 bd c2 cf c8 3d f0 83 84 bc c8 71 f6 bd
       -0.056492712 0.09805252 -0.016176194 -0.12033421
000080 53 69 71 3d 09 f7 65 3d 0b 64 b6 bc 6c a0 23 bd
       0.058938336 0.056143794 -0.022264501 -0.039947912
000090 d0 80 93 3d b8 71 cc 3d c5 52 0d be af 73 89 bd
       0.072023034 0.09982628 -0.13801105 -0.06711518
0000a0 29 54 b4 bc b8 56 b1 bd 30 34 fc bd 2a 6c 75 3c
       -0.022012787 -0.086591184 -0.123146415 0.014979402
0000b0 dd 16 b2 3d ee 8d 59 bc 4e 2f 41 bd 2a d8 fd 3d
       0.08695767 -0.013278468 -0.047164254 0.12394746
0000c0 8f f6 41 3d 4a b4 fb 3d dd 6f c8 bd 5c be e7 bd
       0.047354277 0.12290247 -0.09786961 -0.11315605
0000d0 7f 10 4c 3b 07 a7 90 bd 93 94 70 bd 3c b2 0f 3e
       0.0031137762 -0.07063108 -0.05873544 0.14032835
0000e0 f4 93 7b bd e3 13 59 bd f0 6b 15 be 7d 5a bc 3d
       -0.061420396 -0.05299748 -0.14591956 0.09196947
0000f0 cf 5b 0c 3e a4 09 ca bd 58 9d 62 3d 1a ba 36 3d
       0.13706897 -0.0986512 0.055325836 0.044611074
000100 10 9e 0d 3e 92 73 01 3e 71 2e b0 3c ae ac f4 3d
       0.13829827 0.12641743 0.02150652 0.119469985
000110 95 9f a8 bd 50 1c 7c 3d 1b e5 9e 3d ae 73 bb 3d
       -0.08233563 0.06155044 0.07758542 0.091529235
000120 f6 2f a7 3a 65 f2 e3 3d c7 e5 12 be c3 87 06 3e
       0.0012755382 0.111302175 -0.14345466 0.13137726
000130 52 e9 eb 3d 8d cf fc bd c5 a1 ef 3d 65 76 c9 3c
       0.11519112 -0.12344275 0.11700777 0.024592588
000140 be 39 3c bd 41 c9 93 3c b3 df 60 3d 2e 49 55 bd
       -0.045953505 0.018040301 0.054900836 -0.052071743
000150 4c 41 a0 bd 0e 74 a0 bd ef 6a 0c be 6a 50 15 3c
       -0.078249544 -0.07834636 -0.13712667 0.0091134105
000160 96 25 71 3d 2e 02 48 bd aa 69 b8 bd 44 91 08 3d
       0.058873735 -0.048830204 -0.09004529 0.03334166
000170 58 56 fe bc e1 14 83 bd 7d e2 a6 3c f3 41 d2 3d
       -0.031047031 -0.06400467 0.02037167 0.10266485
000180 4c b3 57 3d 9f 31 4f bd 7b 68 a7 3d b4 dc 0e be
       0.052661225 -0.05058443 0.08174225 -0.13951379
000190 f9 31 ce 3d d6 96 1a be 5e d0 18 3e 66 7e eb 3c
       0.10068125 -0.15096602 0.14923236 0.028746795
0001a0 ca 0d 55 3c a4 34 2e bd ec 63 15 be 86 1f d6 3d
       0.013003776 -0.04253067 -0.14588898 0.10455231
0001b0 3a 45 00 3e 17 f8 bf 3d 16 3f 0d 3e e3 fb 05 3e
       0.12526408 0.09373491 0.13793597 0.13084368
0001c0 c6 c9 98 3d 8f 77 19 be e1 36 bf 3d 45 13 de bd
       0.0746036 -0.14987014 0.09336639 -0.10843519
0001d0 ad f7 f7 bd b3 6e 90 bb a0 68 77 3d 23 b1 11 3e
       -0.12107787 -0.0044077276 0.060402513 0.14227729
0001e0 92 a8 f2 bc 0c 92 03 3e 0e bb d5 bd de aa 30 bd
       -0.029621396 0.12848681 -0.104360685 -0.0431317
0001f0 2d 85 de bd 03 55 9e bc a5 46 ac bd f5 7f f5 3b
       -0.10865245 -0.019327646 -0.08411912 0.0074920603
000200 b0 83 31 3d 30 59 01 be 08 5f 01 be e1 45 09 3e
       0.043338478 -0.12631679 -0.12633908 0.13405563
000210 ef 1f 1e 3d f6 01 1f 3e 3b 2f 09 3e 3c d0 d1 3d
       0.038604673 0.15528092 0.13396923 0.10244796
000220 10 58 9d 3d 99 e4 88 3c 6e 75 2d 3d 43 9c 00 3e
       0.07682812 0.016710566 0.042348318 0.12559609
000230 13 05 51 3c 8f 09 08 3e 97 8e 00 bd 6e af a0 bd
       0.012757557 0.13284896 -0.031385984 -0.078459606
000240 e3 5b 88 bd e2 72 f2 3d 5f 47 d9 3d f7 f5 f4 3d
       -0.06658151 0.118383184 0.10609316 0.119609766
000250 8c 55 ba 3d e6 a6 58 3d 77 53 ec 3d f8 90 b3 bd
       0.09098348 0.05289354 0.11539357 -0.08767885
000260 82 9c e8 bc e8 16 5d bd c3 73 db 3d 91 ae 19 be
       -0.028394941 -0.053976923 0.10715439 -0.15007998
000270 f1 d0 09 be f5 9f be 3d b5 d0 f6 3d f7 d6 08 be
       -0.13458611 0.09307853 0.120515265 -0.13363253
000280 0a 99 89 bd 2a c2 13 3e 99 89 95 3d e0 33 98 3d
       -0.06718643 0.14429536 0.07301635 0.07431769
000290 67 74 ec 3d bc 3b 4c 3d 02 f1 13 3b 70 07 07 be
       0.115456395 0.049861655 0.0022574072 -0.13186431
0002a0 9a 5f b4 bd fd 6d ef bd 0e de a7 bd 41 69 5c bd
       -0.08807297 -0.116909005 -0.081966504 -0.053811315
0002b0 91 d4 1f bc c9 a5 85 bd 05 c5 f5 3c a8 55 89 3d
       -0.00975527 -0.06525762 0.030001173 0.06705791
0002c0 0b 53 06 be 4c 10 a7 bd c9 72 51 3d 04 51 7c 3d
       -0.13117616 -0.08157405 0.05113486 0.0616007
0002d0 88 11 8f bd 07 66 a1 3c f6 60 fa bc e4 cc ee 3d
       -0.06985766 0.01970197 -0.030563813 0.116601735
0002e0 6e 97 b1 3d 76 0a 06 3e f1 a8 71 bc 49 70 10 bd
       0.08671461 0.13089928 -0.014749751 -0.035263333
0002f0 7d 7f a6 3d e5 42 08 3e 11 14 a9 3d 35 61 ed 3a
       0.08129785 0.13306768 0.082557805 0.0018110635
000300 3a 7b 0b bc 7d f2 96 3d 41 d5 dc bd cf 39 d4 3d
       -0.008513266 0.0737047 -0.107828625 0.103625886
000310 04 41 04 3d 62 d3 01 3e 33 be 16 be 2f d7 bb bc
       0.032288566 0.12678292 -0.14720993 -0.022929756
000320 cb cc dc 3d 63 47 8e 3d 79 38 bf bd c4 cc a1 bd
       0.10781249 0.0694721 -0.09336943 -0.07900384
000330 52 3c 57 bc 05 31 8b bd 29 d3 cc 3d 11 ac 13 be
       -0.01313694 -0.06796459 0.10001213 -0.14421107
000340 92 ac f9 bc 57 a9 ef 3d 7c 77 08 bc 22 dc a9 3d
       -0.030477796 0.11702221 -0.008329269 0.0829394
000350 7a d6 3c 3d 2a 6e 12 3e 97 5c b7 3d eb 9b 81 3d
       0.04610298 0.14299837 0.08953207 0.06328567
000360 0f b2 62 bd 9d 6d 23 39 14 bd f4 bd e9 94 ed bc
       -0.05534559 0.00015585725 -0.11950126 -0.02900167
000370 07 7f c9 bd 2d 15 d1 bd ac a0 1a 3e 59 dd 00 3e
       -0.09838682 -0.10209117 0.15100354 0.12584437
000380 4c b8 00 be 8d a7 ec bd 3a ca 92 3d 58 48 b3 3d
       -0.12570304 -0.11555395 0.07167478 0.08754033
000390 e2 d6 cf 3d e9 d3 d1 3d 57 92 db bd 5f e5 71 3d
       0.101484075 0.10245497 -0.107212715 0.059056636
0003a0 dd 13 b7 bb 86 fa 8a bd 4c 8d 10 3e 1d 84 9c bd
       -0.0055870847 -0.06786065 0.141164 -0.07642386
0003b0 1f ce d8 bd c1 7a 04 3d a1 0a d4 bd d6 c0 ed 3c
       -0.105861895 0.03234363 -0.1035359 0.029022615
0003c0 99 97 77 bd 2b 21 0e 3e d8 ac 06 bd cb 40 5f 3d
       -0.06044731 0.1387984 -0.03287968 0.05450515
0003d0 bf 2e 3e bd 69 0d 1f 3e f0 e7 02 be 25 90 6c 3b
       -0.0464313 0.1553246 -0.1278379 0.003609666
0003e0 09 af 4c bd 23 a0 39 3d dc 46 a0 3d e3 78 ce 3d
       -0.049971614 0.045318734 0.07826015 0.10081651
0003f0 b2 86 05 3e 94 0c 15 3e 31 1b f0 bd a3 27 5e bd
       0.13039663 0.1455558 -0.11723936 -0.05423702

bias f4 [128]
000000 06 69 11 bc 91 29 f1 3b 22 7b 6e 3c f8 00 db 3a
       -0.008875137 0.0073596914 0.014555724 0.0016708663
000010 08 49 4a bb 57 ab 2e bc 96 3e a0 bc c0 5b 29 bc
       -0.0030866284 -0.010660968 -0.019561093 -0.010336816
000020 ac 1f ad 3b e8 23 8f 3a 42 90 f3 3b 1e e7 3b 3c
       0.0052833166 0.0010920735 0.0074329684 0.011468677
000030 af 8d 2a bc 50 f1 19 3a 32 fc aa bb a1 a7 7c 3b
       -0.010409757 0.0005872445 -0.0052180523 0.0038552063
000040 32 aa 61 bb 42 b2 4e bb 50 ed ad bb 4b a4 12 bc
       -0.003443372 -0.0031539355 -0.005307831 -0.008950303
000050 71 fc 42 3c 13 2b c8 3b 77 db 37 3c a0 ab 30 bc
       0.011901007 0.0061086505 0.011221758 -0.010783106
000060 fc 99 18 bc da 90 86 3a 1b 8a 75 bc 02 31 25 bc
       -0.0093140565 0.0010266558 -0.01498654 -0.010082485
000070 f0 c9 87 bc e1 20 eb 3b 71 6c 7a bc e6 9f 6c bb
       -0.016575783 0.0071755503 -0.0152846435 -0.003610605
000080 c9 88 f3 ba b4 38 0c 39 15 38 85 ba bf 50 18 3c
       -0.0018580194 0.00013372564 -0.0010163808 0.009296595
000090 24 5d 61 bc de 05 be 3b 1f a0 35 3c 77 8e b6 bb
       -0.013755117 0.0057990393 0.011085539 -0.0055711824
0000a0 aa 33 7f 3c 16 da 86 bb 0d ce 60 3b 83 9b 6e bc
       0.0155762825 -0.0041153533 0.0034302503 -0.014563444
0000b0 af d9 a8 ba 5b 15 e1 bb 90 ca 3a bb f2 2b 55 bc
       -0.0012882258 -0.006869001 -0.0028502084 -0.013010966
0000c0 ae 62 8c 3c ac 2e 85 ba 24 02 0e bc 78 9e 26 3c
       0.017136898 -0.0010161004 -0.008667503 0.010169618
0000d0 39 84 64 3b 64 80 0d 3c 20 07 5b bb 2b a5 4b bc
       0.003486885 0.008636568 -0.0033420995 -0.012429516
0000e0 75 90 9e bb 3b 4f be ba d6 2a 1a bb b3 be 46 bc
       -0.004838998 -0.0014519462 -0.0023524067 -0.012130427
0000f0 01 f2 44 bc 1d 37 a4 ba 9d 1b 2f bc 5f 7f 44 bc
       -0.012020589 -0.0012528632 -0.010687736 -0.011993258
000100 da 69 55 bc ba f2 c2 3b d5 4c d6 bb 15 13 0a 3c
       -0.013025725 0.0059493454 -0.006539921 0.008427401
000110 4d cf 00 bb c3 de dc ba 2f 82 27 3c 0f f0 43 3c
       -0.001965481 -0.0016851056 0.010223909 0.01195909
000120 5b 91 8d bc cd 28 ee 3b e8 d7 f3 bb 67 12 8a bb
       -0.017281225 0.0072680474 -0.0074415095 -0.0042136195
000130 f1 28 db bb bb 3f 8c 3c 83 b8 ac 3b 98 47 25 bc
       -0.00668823 0.017120233 0.005271019 -0.01008787
000140 c5 2c 1d bc 3c 9c 35 3c 48 59 c4 bb 04 58 88 3b
       -0.009593193 0.011084612 -0.0059920885 0.004160883
000150 46 50 2a 3b db 28 f8 b9 ff ea 0e 3c fa 72 c1 3b
       0.0025987788 -0.00047332686 0.00872302 0.005903599
000160 9f 5c 02 bc f9 f6 85 bc d3 e5 63 bc 85 9b b3 3b
       -0.007956653 -0.016353117 -0.013909775 0.005481186
000170 c7 00 3d 3c 88 0b 4b 3c 0e 3d de 3b ee 0b 39 bc
       0.01153583 0.012392886 0.0067821806 -0.011294348
000180 2c 08 a6 bb 72 be 94 bb 7c f1 ee bb 7e 7e 2a 3b
       -0.005066892 -0.0045393044 -0.007291971 0.0026015337
000190 a0 7b a4 bb a1 73 18 3c da 08 f5 bb c6 42 da 3b
       -0.00501962 0.009304912 -0.007477862 0.006660792
0001a0 ae ce ad b9 11 0e 17 3b 2e ce 12 3c 5b 4d b7 3b
       -0.0003315112 0.0023049156 0.00896029 0.0055939383
0001b0 1e db dd 3b d4 7c 28 3c 92 40 31 bb 78 f0 b3 3b
       0.0067705056 0.010283668 -0.0027046544 0.0054913126
0001c0 7c fb 38 bc 5b f9 b9 3b db f1 82 bb b9 c4 2b 3c
       -0.011290427 0.0056754774 -0.0039961166 0.010483914
0001d0 b1 0c 82 3c 5a c6 bd ba 87 62 53 3c a7 ee c3 3b
       0.015875192 -0.0014478669 0.012901909 0.0059793773
0001e0 b2 f9 12 3c 95 d4 d8 3b 53 34 83 39 61 56 88 bb
       0.008970665 0.0066171386 0.00025025252 -0.004160688
0001f0 9b 7c 29 3c 38 a0 99 3b 9b ab 24 3c 2f f3 bf ba
       0.01034465 0.004688289 0.01005068 -0.0014644618

weight f4 [128, 128]
000000 f3 a1 19 3d 5c b6 64 3d 24 d1 a9 3d c1 fb ae bd
       0.037507962 0.055837974 0.082918435 -0.08544112
000010 e6 68 a7 3c 75 33 a0 bb ae db e0 3c f3 a7 9a bd
       0.020435762 -0.0048889467 0.027448501 -0.07551565
000020 a0 47 dd 3d e8 4d 46 bd a2 e1 d2 3d 04 e0 f1 3d
       0.10804677 -0.04841414 0.10296942 0.11810306
000030 e7 82 fd bd 9e 5b 51 bd 53 27 fe bd 7f 43 70 3d
       -0.12378483 -0.051112764 -0.12409844 0.05865812
000040 0b 70 50 bb d5 c8 51 3d 75 5d 97 bd b5 29 1c be
       -0.0031805064 0.05121692 -0.073908724 -0.15250285
000050 0e 34 e2 3d 1f da 35 bd b2 99 a7 bd 3c 3a f4 bd
       0.11045085 -0.04439747 -0.08183612 -0.1192517
000060 f1 3d e0 3d d5 ab 10 be 86 bd 78 3d a0 cc 13 be
       0.109493144 -0.14128049 0.06072762 -0.14433527
000070 61 f7 df 3b c9 5e bc 3d ed 8c ff 3d b0 7a cc 3b
       0.00683491 0.09197766 0.12478051 0.0062402114
000080 d9 b6 63 bd b9 d4 68 bd 41 85 08 be 5f ff 05 3e
       -0.0555943 -0.056843493 -0.13332082 0.13085698
000090 4f 36 0a 3e b5 b3 05 3e 71 11 98 bd 90 b9 4e bd
       0.1349728 0.13056834 -0.07425202 -0.050469935
0000a0 10 33 4c bd 69 c9 27 3e 44 2c d3 3d a0 5f 10 ba
       -0.049853384 0.16385426 0.103111774 -0.00055074133
0000b0 54 ce e3 3d 5b b3 ad bd bd 18 01 3e e4 39 ed bd
       0.11123338 -0.08481475 0.12607093 -0.115833074
0000c0 36 fd 26 bd 58 dd 5d 3c 54 1b f9 3d 8f b7 13 bd
       -0.040768825 0.013541542 0.121634156 -0.036063727
0000d0 6d b1 a1 bd bd b9 da bc 9c bc db bb 44 de e0 bb
       -0.078951694 -0.026699895 -0.0067058336 -0.0068624336
0000e0 b2 5d fb bd 81 eb 87 bd 17 c5 d7 bd 36 89 0e 3e
       -0.1227373 -0.06636716 -0.10535639 0.1391953
0000f0 2e f1 09 be 8a f1 78 3d 78 49 f6 bd a2 b4 e0 bc
       -0.13470909 0.060777225 -0.12025732 -0.027429882
000100 c3 23 07 bd ba 5e f9 bd 36 6c 8d bd da 0b d3 bc
       -0.03299309 -0.12176271 -0.06905405 -0.025762487
000110 b4 b5 9a bd 86 1d e1 bd 25 ed 0a 3e 71 b3 00 3e
       -0.07554188 -0.10991959 0.13567026 0.12568451
000120 19 1f f0 bd 9e d3 65 bd f7 b5 3f 3d 17 f5 0f 3e
       -0.117246814 -0.056110017 0.046804395 0.14058338
000130 95 25 24 bd eb 80 0f 3d e6 2d f7 3d b5 b7 77 bd
       -0.040074904 0.035035055 0.12069301 -0.06047793
000140 12 28 f6 3d 4a ee b2 3d 1a 6c bb 3d 9a 69 17 bd
       0.120193616 0.08736856 0.09151478 -0.036965944
000150 d3 0d ed 3c 31 f3 a3 bd ef 91 93 ba ad 8a 5b bd
       0.028937256 -0.080053695 -0.0011258702 -0.05359905
000160 0e 8f 09 be 9f 68 12 be 88 15 6f 3c 1e 84 ec 3d
       -0.13433477 -0.14297722 0.014592536 0.11548637
000170 af eb d5 bd f9 77 ad 3d b7 fc 33 bc 56 ae ee 3d
       -0.10445344 0.084701486 -0.010985545 0.11654346
000180 4d 3e ba bd 45 c1 89 bd ce 78 7f 3d ef de 11 be
       -0.09093914 -0.06726316 0.062371068 -0.14245199
000190 d2 c6 88 3d a2 e6 08 be 02 8d e3 bd 20 58 9d 3d
       0.06678547 -0.1336923 -0.111108795 0.07682824
0001a0 51 fc 54 3d 84 2c fb bc ed 44 d7 3d a5 72 c9 3d
       0.05199844 -0.030660875 0.105111934 0.0983632
0001b0 c1 fd ad bd ab 80 bc bc d2 99 20 be 53 b4 3d bd
       -0.08495665 -0.023010572 -0.15683678 -0.04631455
0001c0 84 fd 1b 3e 48 99 60 bd 4a 3f d9 3d ca 81 e0 3a
       0.15233427 -0.05483368 0.106077746 0.0017128524
0001d0 6c 07 e4 3d 18 19 00 be 7c 55 93 3b 0b 0f bb bd
       0.11134228 -0.12509573 0.0044962745 -0.091337286
0001e0 69 1f 83 3c 77 8c 06 3e 29 7c cb 3c 3c 59 9d bd
       0.016006188 0.1313952 0.024839478 -0.07683036
0001f0 46 cb 04 bd f5 27 26 3d cf 34 06 3e 57 fd 07 be
       -0.03242042 0.04056545 0.13106082 -0.13280235
000200 ac 8f f7 bd 28 a7 ea bd b3 c5 9a 3d e6 05 91 3d
       -0.1208795 -0.11457664 0.075572394 0.07081203
000210 e9 ab f2 3d b6 28 51 bd 51 07 98 bc 9e e1 0f 3e
       0.118491955 -0.051064216 -0.018558176 0.1405091
000220 00 0e ab bd a1 ef 98 bd 8c 7c 19 3d 23 72 1c 3e
       -0.0835228 -0.074675806 0.037472293 0.15277915
000230 60 57 15 bd 93 c8 d5 bc d3 d6 f2 3d 35 11 a3 3d
       -0.03646028 -0.026096618 0.11857381 0.07962266
000240 8a 43 f6 3c 00 a7 d7 3c 36 15 c0 3c 39 2c f0 3d
       0.030061502 0.026324749 0.023447614 0.11727185
000250 dd 11 29 3b 76 bb b6 bd 00 60 ae bd 65 ba 99 3c
       0.0025798 -0.08922474 -0.08514404 0.018765638
000260 f4 25 59 bc 42 07 c8 3d 90 95 f5 3d 8a ed 09 3e
       -0.013253678 0.09767009 0.119914174 0.1346952
000270 e1 fa f7 3d 8b 93 93 3c 2c b6 50 bd af ac 05 bd
       0.12108398 0.01801469 -0.050954983 -0.032635387
000280 1a 47 28 3d 04 52 9b 3d fe 38 73 bd 0e 32 0c 3e
       0.041083433 0.075840026 -0.059380524 0.1369097
000290 d5 7f ef 3c 2d 7c 7a bc 43 91 52 3d 78 4e d8 3d
       0.02923576 -0.015288395 0.051408064 0.10561842
0002a0 98 20 80 bd a3 29 dd 3d 92 06 f7 bd 62 70 71 3d
       -0.06256217 0.10798957 -0.120618 0.058945067
0002b0 38 f1 48 3d 6d 4d 3a 3b 5b 08 bd 3d e5 60 17 3e
       0.04905817 0.0028427497 0.09230109 0.14783056
0002c0 ae e1 d7 bd 47 61 7b 3d 96 80 ca 3d 79 41 93 bd
       -0.10541092 0.061372068 0.09887807 -0.07190222
0002d0 36 4a ac 3d 31 e3 6e 3c ea d5 18 3e c9 08 c5 3d
       0.08412592 0.014580534 0.14925352 0.09620816
0002e0 e8 30 fc 3d a8 72 8a 3c 26 d1 bd bd 8d c7 1e be
       0.123140156 0.016900375 -0.092684075 -0.1550581
0002f0 43 e9 c1 bd 5b 9d 3e 3d 5a ba ee 3d 6c 3b be 3d
       -0.09468319 0.046536785 0.116566375 0.092886776
000300 72 4c 0f bd e6 78 c0 3c 89 7e fc bc b8 f6 27 3d
       -0.034985013 0.023495149 -0.030822055 0.041006774
000310 fe 02 99 bd 58 e1 1b be 77 3e bd 3d cb bc 91 3d
       -0.07471274 -0.1522268 0.0924043 0.071160875
000320 4e 8b af 3d 6b 32 1a be 58 1b da 3d 49 42 07 be
       0.08571492 -0.15058295 0.10649747 -0.1320888
000330 6d a7 27 3d af 96 14 be 45 ef 14 be de fa 1b be
       0.040931154 -0.14510606 -0.14544399 -0.15232417
000340 ed c3 20 bd 19 a5 89 bd 6a bd d4 3d 42 bf f6 bd
       -0.03924935 -0.06720943 0.1038769 -0.12048198
000350 c1 c1 f8 bd ec ec 19 be 01 f4 a6 bb cf 24 fe bd
       -0.121463306 -0.15031785 -0.0050950055 -0.124093644
000360 5f 77 af 3d 17 e5 04 3e 84 f5 0a 3e d1 48 a0 bd
       0.0856769 0.12978016 0.1357022 -0.078263886
000370 e6 f3 55 3d 89 ae 1a bc e1 56 cc 3d bc e3 49 3d
       0.052234553 -0.0094410265 0.09977508 0.04928945
000380 23 7c 89 3c b3 54 c5 3d da ce d4 3d 48 87 22 3e
       0.016782826 0.09635296 0.10391016 0.15871918
000390 3d 77 d8 3d e8 4b 16 3e 2e bd 0d be fe a5 65 bd
       0.10569618 0.14677393 -0.13841698 -0.056066506
0003a0 29 4b 1e 3d 4d 8c ab bd dc bd 8b bd d2 0f e2 bc
       0.038645897 -0.083763696 -0.06823322 -0.027595434
0003b0 01 35 18 3e 99 79 15 3d e6 1b 07 3e e6 0c 1b bd
       0.1486397 0.036492918 0.13194236 -0.037854098
0003c0 90 9c 98 3d 63 69 54 bd d9 b0 80 3c 49 8c 16 3e
       0.07451737 -0.051858317 0.015709328 0.14701952
0003d0 7e 04 0f be a3 60 01 bd d4 ec 21 3d 00 23 ea 3d
       -0.13966557 -0.0315863 0.039532498 0.11432457
0003e0 e9 83 e7 3c 33 93 3d bd b1 07 f3 bc 43 ba 5f bd
       0.028261142 -0.04628296 -0.029666753 -0.054620992
0003f0 d8 ac 98 3d d7 1a dd 3c c3 f7 ae 3c da 77 8a bc
       0.07454842 0.026990337 0.021358376 -0.016902853
