BFSF/model/u=0.02-decrease/ninit/2024-11-20-0.0050_model-d.pth (torch, 342128 bytes, 14 tensors)

weight f4 [128, 2]
0.2192772 0.25564072 0.010901245 0.3380397 0.044150043 0.1714343 -0.1443174 0.23527227
-0.04544038 0.24622557 0.14559367 -0.1412848 0.22689806 0.08184761 0.06177607 0.22765432
0.057102926 0.18616259 -0.015916906 0.31128263 0.051278222 0.24519557 -0.11662024 0.22067985
0.260521 -0.47852227 -0.033885635 0.19091508 0.035000395 -0.08186747 -0.053881705 -0.15786311
0.3847541 0.37480557 0.038583085 -0.19821678 -0.042460237 -0.13599089 0.24534947 0.1365153
-0.038894314 -0.27927238 -0.05949048 -0.004274054 -0.06545799 -0.17160377 -0.03339967 -0.23333114
0.05931533 -0.13368924 0.16466855 0.08392927 -0.19073135 -0.1247487 0.00021255844 0.15214626
0.14685966 -0.10952672 0.17044163 0.23429917 0.25427142 -0.2504606 -0.06515829 -0.0063222377
0.071293935 0.1867467 0.06567523 0.023398703 -0.06699147 0.115921445 -0.05693016 -0.13156356
0.062008284 0.27765998 -0.33367816 -0.17041285 -0.043581158 -0.025731374 0.08064628 -0.055551592
0.047313605 0.039921984 -0.049049955 -0.01086129 0.33307013 -0.16151646 0.0054870746 0.10116795
-0.02395058 0.27453107 -0.065521576 0.13646023 0.039024945 0.013843529 0.065901354 0.14587289
0.03655664 -0.26127088 0.06757722 -0.01928918 -0.031653475 -0.09845712 -0.015103793 0.17405362
0.037814666 0.15860009 0.14067449 0.26533172 0.06492655 0.24159978 0.042074747 0.027151037
-0.29767272 -0.2093738 0.04552152 -0.26355603 0.030629637 0.25885233 -0.27717972 -0.03365201
0.05086186 -0.1589992 -0.06286058 0.057040468 0.000102346145 0.3300709 0.046449576 0.17025468
-0.0068835365 -0.27466044 -0.01668631 0.38907948 0.030013312 0.18462326 -0.023929553 0.15142328
-0.048311155 -0.17458822 0.04611579 0.089348465 0.068650484 0.1088216 0.05431815 0.06918893
-0.0796966 -0.3078672 0.045681316 -0.12466643 0.15852715 -0.268348 -0.061569817 0.23613992
-0.008349113 0.36032775 -0.02780711 -0.13315752 0.05534315 0.0743438 -0.047307167 0.27069646
0.053480078 -0.20899566 0.06440421 0.32032079 -0.067677945 0.07908737 -0.064585805 -0.15336363
-0.06729022 -0.30010405 0.056440346 0.26530287 -0.24141665 0.051913746 0.17471714 0.109848976
-0.27444637 0.08620732 0.0035302055 -0.43101886 0.032702666 -0.17269154 0.035937477 -0.16015501
-0.07090236 -0.20674856 0.28327197 0.21927553 0.007938551 -0.3544013 -0.07709325 -0.19018039
-0.12419667 -0.17947702 0.054788172 0.14426191 0.04703912 0.2229722 0.05131778 0.25843754
-0.04857578 -0.15893072 -0.01726979 0.29240015 -0.033858497 0.28167433 0.26236644 -0.26855564
0.069555186 0.26056224 -0.12943953 -0.039514247 0.008498728 -0.3704308 0.32667446 -0.2553734
0.38586643 0.04130301 0.24440162 -0.31368616 0.06756309 -0.042884834 0.1532081 -0.04303891
0.022755364 -0.23419549 -0.05780994 -0.28515238 -0.06906853 -0.27395025 0.03577226 -0.29155815
-0.4011297 -0.23431109 -0.07430336 -0.056995206 -0.21129188 -0.12556006 0.13614331 -0.2840469
0.060416803 -0.19888473 -0.025274234 0.09316041 0.103128485 -0.06348475 -0.07186991 -0.27109292
-0.02266487 0.27016702 -0.06784295 0.17910948 -0.0047941874 0.35107753 0.28863683 -0.18802811
00000000: 348a 603e 57e3 823e 239b 323c 8a13 ad3e
00000010: add6 343d 798c 2f3e f1c7 13be 37eb 703e
00000020: b11f 3abd 8e22 7c3e 8216 153e f6ac 10be
00000030: f757 683e b89f a73d e808 7d3d 371e 693e
00000040: c2e4 693d 68a1 3e3e 2c64 82bc 7060 9f3e
00000050: 1d09 523d 8c14 7b3e 98d6 eebd e6f9 613e
00000060: 0263 853e df00 f5be aacb 0abd 3e7f 433e
00000070: 935c 0f3d 22aa a7bd 10b3 5cbd dea6 21be
00000080: 7dfe c43e 84e6 bf3e 4c09 1e3d 57f9 4abe
00000090: c9ea 2dbd 3241 0bbe e43c 7b3e abca 0b3e
000000a0: a54f 1fbd cafc 8ebe 4aac 73bd 5d0d 8cbb
000000b0: d70e 86bd e6b8 2fbe 18ce 08bd 5cee 6ebe
000000c0: a2f4 723d d5e5 08be df9e 283e 1ce3 ab3d
000000d0: 144f 43be 3f7c ffbd 39e2 5e39 3bcc 1b3e
000000e0: 6162 163e 8c4f e0bd 4088 2e3e 1fec 6f3e
000000f0: dd2f 823e 5f3c 80be b671 85bd c62a cfbb
00000100: 8e02 923d 873a 3f3e bc80 863d a3ae bf3c
00000110: d332 89bd 3968 ed3d 992f 69bd 99b8 06be
00000120: 66fc 7d3d 7329 8e3e ddd7 aabe b580 2ebe
00000130: 2882 32bd 9aca d2bc e029 a53d 118a 63bd
00000140: e9cb 413d 3c85 233d 9be8 48bd 8df3 31bc
00000150: 2b88 aa3e 9264 25be ebcc b33b 2431 cf3d
00000160: 0234 c4bc 568f 8c3e 2d30 86bd 3bbc 0b3e
00000170: 9fd8 1f3d f8cf 623c 4af7 863d b45f 153e
00000180: 6abc 153d 4cc5 85be ed65 8a3d 5804 9ebc
00000190: 13a7 01bd e3a3 c9bd e675 77bc 1d3b 323e
000001a0: 8de3 1a3d 1068 223e f90c 103e 8fd9 873e
000001b0: 36f8 843d ef65 773e 9256 2c3d da6b de3c
000001c0: 8f68 98be 1666 56be c674 3a3d d1f0 86be
000001d0: 01eb fa3c 4b88 843e 80ea 8dbe b1d6 09bd
000001e0: 8754 503d b0d0 22be 0cbd 80bd 44a3 693d
000001f0: aba2 d638 0eff a83e e941 3e3d 3e57 2e3e
00000200: 4a8f e1bb 4ba0 8cbe bab1 88bc 6d35 c73e
00000210: 7ade f53c e10d 3d3e e907 c4bc b40e 1b3e
00000220: ebe1 45bd 41c7 32be e9e3 3c3d 54fc b63d
00000230: a098 8c3d dcdd de3d b57c 5e3d edb2 8d3d
00000240: f937 a3bd c5a0 9dbe 551c 3b3d 1d51 ffbd
00000250: f154 223e e964 89be a230 7cbd aace 713e
00000260: b8ca 08bc e17c b83e bdcb e3bc 725a 08be
00000270: 80af 623d 9041 983d 29c5 41bd ba98 8a3e
00000280: ed0d 5b3d f502 56be 5be6 833d 1601 a43e
00000290: bc9a 8abd 8ff8 a13d 9045 84bd 5b0b 1dbe
000002a0: 74cf 89bd 3da7 99be fe2d 673d c7d5 873e
000002b0: ed35 77be 82a3 543d 0de9 323e 80f8 e03d
000002c0: 3c84 8cbe 778d b03d 055b 673b 81ae dcbe
000002d0: 3bf3 053d 0dd6 30be 2d33 133d adff 23be
000002e0: 4235 91bd e5b5 53be 0609 913e c489 603e
000002f0: b210 023c 1674 b5be 11e3 9dbd a6be 42be
00000300: d35a febd d3c8 37be 9069 603d 65b9 133e
00000310: 18ac 403d d352 643e 9832 523d ed51 843e
00000320: 66f7 46bd bcbe 22be 6079 8dbc 79b5 953e
00000330: 35af 0abd 9e37 903e e554 863e 2080 89be
00000340: f372 8e3d 6a68 853e cc8b 04be b1d9 21bd
00000350: 403e 0b3c 1ba9 bdbe e041 a73e 4dc0 82be
00000360: 4990 c53e 582d 293d 6b44 7a3e 799b a0be
00000370: 845e 8a3d 02a8 2fbd 96e2 1c3e 9149 30bd
00000380: 7569 ba3c f1d0 6fbe 1eca 6cbd 7eff 91be
00000390: cd73 8dbd 3543 8cbe ef85 123d 1c47 95be
000003a0: df60 cdbe 3fef 6fbe 5c2c 98bd ce73 69bd
000003b0: e65c 58be d192 00be 2769 0b3e 986e 91be
000003c0: 9c77 773d 70a8 4bbe e90b cfbc e3ca be3d
000003d0: 0735 d33d 4b04 82bd 8830 93bd b1cc 8abe
000003e0: adab b9bc 5553 8a3e 3ff1 8abd 7a68 373e
000003f0: 8f18 9dbb 6fc0 b33e 35c8 933e 718a 40be

bias f4 [128]
-0.14653152 0.05401135 0.051422063 0.31402177 -0.2181731 -0.13823268 -0.235478 0.08155263
0.15061143 -0.11937905 0.076719135 -0.26423812 -0.08717103 -0.104935475 0.09541093 -0.056816764
-0.054442517 0.15609437 -0.04543712 -0.19703618 -0.10611593 -0.1322054 -0.17533216 -0.009938059
0.22025236 -0.23846577 0.15269594 -0.01189604 0.24368641 -0.1402186 -0.25645694 -0.23518151
0.20520332 0.2026212 -0.19718482 -0.097462475 0.11632474 0.098922685 -0.16117953 0.18548499
0.106801994 -0.16421537 0.042475145 0.012000761 -0.12830237 -0.24815902 0.12220354 0.28079796
0.05928889 0.22616918 0.10612889 -0.02437952 0.15013531 -0.08552019 0.20306772 -0.030130042
-0.17112043 0.19321842 0.03911405 0.13278994 0.12850834 -0.18167827 -0.01861219 -0.107396245
0.0037723635 -0.1012146 -0.00053534855 -0.05387488 -0.12537771 0.04914627 0.21958502 0.17240578
-0.0010318367 0.11303112 -0.41954488 -0.20888834 -0.06542681 0.03375028 0.21281077 -0.15600502
0.17406566 0.16630699 -0.23274213 -0.20938541 -0.12237021 0.19054756 0.06808559 -0.47214592
0.23413983 0.029639512 0.12391778 0.0075722574 -0.21789189 -0.07965485 0.0833179 -0.31445795
0.18233104 0.114847004 0.07265185 0.0698132 -0.027646655 -0.03552466 -0.10151213 0.007594652
0.24901581 0.23563477 0.00527434 -0.13466462 0.026761984 -0.30117315 0.2547503 -0.31560123
0.04940309 -0.09431464 -0.24407111 -0.18831886 -0.103973255 -0.3805627 -0.19443113 -0.38150698
0.18190588 -0.026648208 -0.24104472 -0.18595453 -0.08066078 -0.25153586 -0.13873631 0.010218786
00000000: 5c0c 16be 013b 5d3d f19f 523d 76c7 a03e
00000010: c568 5fbe de8c 0dbe 2521 71be 1105 a73d
00000020: e239 1a3e 017d f4bd ec1e 9d3d 384a 87be
00000030: ba86 b2bd 69e8 d6bd ce66 c33d b2b8 68bd
00000040: 1eff 5ebd 34d7 1f3e 461c 3abd dac3 49be
00000050: 4f53 d9bd da60 07be 468a 33be 3ed3 22bc
00000060: d689 613e 5f30 74be 535c 1c3e 9ce7 42bc
00000070: ee88 793e 7795 0fbe 534e 83be 6cd3 70be
00000080: d220 523e ef7b 4f3e d1ea 49be 689a c7bd
00000090: aa3b ee3d fa97 ca3d 3f0c 25be c7ef 3d3e
000000a0: 01bb da3d 1328 28be 6bfa 2d3d d79e 443c
000000b0: b261 03be 661d 7ebe d945 fa3d c0c4 8f3e
000000c0: e8d8 723d e598 673e 1a5a d93d 8fb7 c7bc
000000d0: 12bd 193e 3625 afbd fcf0 4f3e 47d3 f6bc
000000e0: 323a 2fbe 0ddb 453e 0e36 203d 16fa 073e
000000f0: b197 033e de09 3abe 9778 98bc 90f2 dbbd
00000100: c239 773b 9a49 cfbd a256 0cba e8ab 5cbd
00000110: 0463 00be 994d 493d e5da 603e 248b 303e
00000120: b23e 87ba dc7c e73d 96ce d6be d3e6 55be
00000130: 7efe 85bd bc3d 0a3d 11eb 593e c8bf 1fbe
00000140: 453e 323e 614c 2a3e f453 6ebe 2169 56be
00000150: 3c9d fabd e61e 433e 7570 8b3d 1cbd f1be
00000160: 5ac2 6f3e 90ce f23c 9bc8 fd3d b320 f83b
00000170: 0d1f 5fbe 1522 a3bd 93a2 aa3d a200 a1be
00000180: fdb4 3a3e e834 eb3d 7eca 943d 39fa 8e3d
00000190: 3d7b e2bc 4e82 11bd 97e5 cfbd 8fdc f83b
000001a0: 00fe 7e3e 3e4a 713e 5fd4 ac3b 86e5 09be
000001b0: f33b db3c 5e33 9abe a26e 823e 7c96 a1be
000001c0: e55a 4a3d 0928 c1bd c7ed 79be a9d6 40be
000001d0: eeef d4bd 1dd9 c2be f418 47be e254 c3be
000001e0: 8945 3a3e 584d dabc 6dd4 76be dd6a 3ebe
000001f0: 7b31 a5bd 4fc9 80be e410 0ebe b26c 273c

weight f4 [128, 128]
0.041207034 -0.077328816 -0.04915763 0.10311154 0.15760536 0.04647284 0.10544724 -0.011160901
-0.14683576 0.024406107 -0.08481075 -0.045094103 -0.095033124 0.11735846 0.00561378 -0.07610867
0.1425293 -0.109695286 0.01787407 0.0017152173 -0.009207166 0.08818268 0.056581553 0.05138723
-0.040227592 -0.060142733 0.003915741 0.07465522 0.031494405 0.081882276 0.0306837 0.048599716
-0.0913378 -0.15061122 0.1420404 0.120033525 -0.031478245 -0.07801008 -0.08404092 -0.07965945
-0.11870345 -0.06441752 0.014295141 0.0052768826 0.17848313 0.1097292 0.08798841 -0.008987003
-0.03887462 -0.09647688 0.03246494 0.11583315 0.028537774 0.12447088 0.032728605 0.014980401
0.063514106 -0.021434518 0.023126587 0.0023732814 0.042151082 0.034912065 -0.031185541 0.02141658
0.0654045 0.07875869 -0.06399252 0.023554891 0.12534796 -0.112820655 -0.14225437 -0.08168469
0.08273624 -0.14350866 0.01819304 -0.0779308 0.05621084 -0.08305867 -0.058975186 0.14116661
0.050306205 0.02567193 -0.05068372 0.103427604 0.09380056 -0.13040759 -0.06340257 0.027188169
-0.04557518 -0.054561064 -0.083502665 0.07079707 0.11276566 0.051786117 -0.07267097 -0.05263399
0.025139153 -0.08666654 0.051157296 0.00012583152 -0.099768505 0.022214502 0.012233806 -0.05447549
0.019580679 -0.11704521 -0.007845124 0.02045741 0.15364471 0.08407172 0.021132862 -0.022623254
-0.15102687 -0.05750036 0.027275974 -0.09252862 0.0022713547 -0.006191026 -0.0661625 -0.004430384
-0.069815926 -0.027412008 0.06863249 -0.060088053 0.11135931 0.09630522 -0.03139075 -0.023625532
0.0094817085 -0.047600057 0.099899724 0.08848301 0.046089817 0.13451654 0.025405549 0.010041182
-0.12851825 0.09174159 -0.13854298 0.06943805 0.123398855 0.06889268 0.10776998 -0.099199526
0.03720645 0.05660298 0.124170355 -0.04893508 0.16524029 0.03942256 0.069889836 -0.048918575
-0.12895098 0.12852898 0.01527513 -0.0112012485 0.05546059 0.02778079 0.055902954 0.085256256
-0.15245618 0.03377268 0.027632462 0.0008293765 -0.06988296 -0.057877854 0.045394592 0.09117878
-0.11888664 -0.06253441 -0.08855294 0.08678498 -0.04053431 0.026159115 0.009173552 -0.12050445
0.08887271 -0.15133743 -0.08587922 -0.07513333 0.003703275 -0.080053724 0.054653104 -0.008945783
-0.118829265 -0.09807775 0.04023507 0.09812144 -0.11138946 0.009010869 -0.113764726 0.03948181
0.057011817 -0.094789185 -0.07809553 0.019248335 0.093598396 0.010413826 -0.087031744 -0.05855216
0.028804056 -0.11071824 0.1396784 0.074361615 -0.04399794 -0.0023005377 -0.0675586 -0.0016674553
0.11019748 -0.15217929 -0.0019830877 -0.030763214 -0.07233957 -0.06435319 0.11001788 0.06503849
0.086374834 0.10520208 0.111559175 -0.014128471 0.12384756 0.052523818 0.040391225 0.032154646
0.027254935 -0.09913808 0.05224475 -0.031812653 -0.090183094 0.007931823 -0.062390048 0.08767658
-0.13162304 0.017248778 0.055103745 0.07779157 -0.044612627 -0.026801094 0.011593539 -0.07373917
0.1404214 -0.08757337 0.040914103 0.0053889314 -0.0009762893 -0.033375535 0.094584286 -0.081508204
-0.08344604 -0.05723915 0.0657732 0.010061799 -0.07895228 0.09045674 0.00742371 0.121258095
00000000: b5c8 283d 925e 9ebd 8359 49bd 252c d33d
00000010: 4d63 213e 4e5a 3e3d b9f4 d73d 36dc 36bc
00000020: 1d5c 16be 51ef c73c 42b1 adbd 98b4 38bd
00000030: baa0 c2bd a259 f03d cdf3 b73b ddde 9bbd
00000040: 33f3 113e eca7 e0bd a46c 923c 24d1 e03a
00000050: a7d9 16bc 1f99 b43d 0fc2 673d 6b7b 523d
00000060: b0c5 24bd 3a58 76bd 9e4f 803b d6e4 983d
00000070: 4700 013d e5b1 a73d 625c fb3c 7f10 473d
00000080: 500f bbbd d439 1abe 0a73 113e 23d4 f53d
00000090: 55ef 00bd c0c3 9fbd a51d acbd 7e24 a3bd
000000a0: cb1a f3bd 55ed 83bd 2b36 6a3c b3e9 ac3b
000000b0: 48c4 363e b4b9 e03d 4433 b43d 393e 13bc
000000c0: fe3a 1fbd ac95 c5bd f5f9 043d ee39 ed3d
000000d0: 0dc8 e93c 97ea fe3d 6e0e 063d 5b70 753c
000000e0: af13 823d 7197 afbc f873 bd3c 0e89 1b3b
000000f0: 9da6 2c3d f4ff 0e3d d278 ffbc d371 af3c
00000100: cbf2 853d 3c4c a13d 830e 83bd 30f6 c03c
00000110: 375b 003e 840e e7bd 21ab 11be 4e4a a7bd
00000120: 9e71 a93d eff3 12be 9209 953c 2f9a 9fbd
00000130: 563d 663d aa1a aabd f78f 71bd fb8d 103e
00000140: e10d 4e3d f04d d23c bb99 4fbd dad1 d33d
00000150: 821a c03d 9189 05be 35d9 81bd b9b9 de3c
00000160: 0aad 3abd 6c7b 5fbd 7203 abbd 0efe 903d
00000170: aff1 e63d ae1d 543d 84d4 94bd bd96 57bd
00000180: a0f0 cd3c 3a7e b1bd 508a 513d a4f1 0339
00000190: 6e53 ccbd 30fb b53c 4d70 483c b121 5fbd
000001a0: a967 a03c 66b5 efbd d688 00bc 4c96 a73c
000001b0: 0a55 1d3e cb2d ac3d d31e ad3c 6754 b9bc
000001c0: caa6 1abe 7f85 6bbd dd71 df3c a57f bdbd
000001d0: 02db 143b 17de cabb 3480 87bd c12c 91bb
000001e0: a7fb 8ebd 268f e0bc 318f 8c3d e41e 76bd
000001f0: 5a10 e43d ac3b c53d 9693 00bd 558a c1bc
00000200: 2b59 1b3c 47f8 42bd 3a98 cc3d 9536 b53d
00000210: adc8 3c3d b4be 093e 4c1f d03c c583 243c
00000220: 4a9a 03be 04e3 bb3d 36de 0dbe 8935 8e3d
00000230: 8ab8 fc3d 9b17 8d3d 82b6 dc3d 1f29 cbbd
00000240: ca65 183d 87d8 673d 074d fe3d 2770 48bd
00000250: c034 293e 8d79 213d 6722 8f3d d85e 48bd
00000260: ba0b 04be 1a9d 033e 8a44 7a3c 7185 37bc
00000270: a52a 633d 8a94 e33c 7ffa 643d d59a ae3d
00000280: 791d 1cbe 3955 0a3d 795d e23c 846a 593a
00000290: cc1e 8fbd 5411 6dbd aeef 393d f1bb ba3d
000002a0: d77a f3bd 0a12 80bd 3e5b b5bd 53bc b13d
000002b0: 4e07 26bd a44b d63c aa4c 163c 09cb f6bd
000002c0: e502 b63d 33f8 1abe 72e1 afbd 81df 99bd
000002d0: a5b2 723b 35f3 a3bd efdb 5f3d 5591 12bc
000002e0: c25c f3bd fddc c8bd 87cd 243d e5f3 c83d
000002f0: 2820 e4bd 53a2 133c 7bfd e8bd aeb7 213d
00000300: 3985 693d d520 c2bd 8df0 9fbd afae 9d3c
00000310: 84b0 bf3d c19e 2a3c b33d b2bd 64d4 6fbd
00000320: 7cf6 eb3c 3fc0 e2bd db07 0f3e e74a 983d
00000330: 2f37 34bd 9ec4 16bb 2a5c 8abd 848e daba
00000340: 37af e13d e3d4 1bbe b1f6 01bb 2303 fcbc
00000350: c526 94bd 9bcb 83bd 0e51 e13d e632 853d
00000360: 4ae5 b03d 3074 d73d 2379 e43d 1a7b 67bc
00000370: caa3 fd3d 3723 573d 4571 253d 97b4 033d
00000380: be45 df3c e808 cbbd 97fe 553d fc4d 02bd
00000390: eab1 b8bd 7af4 013c b58c 7fbd c78f b33d
000003a0: 31c8 06be 4f4d 8d3c 77b4 613d 3051 9f3d
000003b0: bbbb 36bd f88d dbbc d4f2 3d3c 9004 97bd
000003c0: a1ca 0f3e ab59 b3bd 8c95 273d a295 b03b
000003d0: aaed 7fba c9b4 08bd 68b5 c13d c6ed a6bd
000003e0: c2e5 aabd 9973 6abd 19b4 863d 3eda 243c
000003f0: bcb1 a1bd 6241 b93d 9842 f33b 2a56 f83d

bias f4 [128]
-0.033611566 -0.10049274 -0.11546993 -0.017303424 0.011111693 0.076658905 -0.0030887693 -0.10174835
0.0070222137 0.014084459 0.07389312 0.032720793 -0.04840447 0.0029960612 -0.026802558 0.16415028
-0.04801813 -0.03734184 -0.051049404 -0.13845019 -0.03727917 0.039308168 0.031755637 0.1691492
-0.039644595 0.045493178 0.048287712 0.06844685 0.03475958 0.13451536 0.029527701 0.025368635
0.100614 -0.061794832 -0.13012214 -0.030079711 0.0046180408 -0.05513196 0.00641141 0.048875727
-0.07518143 0.064173944 -0.047665473 0.12271211 0.09202408 -0.07039124 0.076839715 0.12779957
0.16395299 -0.07383118 0.03628898 0.0020217504 -0.08216787 -0.01671491 -0.08426647 0.07255116
-0.018333608 0.04457754 -0.0040057027 -0.11956271 0.013467574 -0.0069650346 0.01082263 0.109393775
-0.008109623 -0.07239375 0.06652015 0.11079229 -0.012455674 -0.05848565 -0.046606906 -0.03635787
0.00061305816 0.036912065 -0.10477503 -0.011095908 -0.041554563 0.01615666 -0.17985554 0.027134657
0.051647265 -0.10193155 0.0495008 -0.014176429 0.11127146 -0.091655426 0.09806802 0.04194853
-0.058825582 -0.08419653 -0.0166134 -0.04064651 0.05662784 -0.0876723 0.013713055 -0.07400373
-0.03498137 -0.126537 0.00087272824 -0.008990576 -0.005652628 0.035467517 0.028860286 0.019550122
0.016839726 -0.082171366 0.00088290125 -0.10703344 -0.05496934 -0.0063828263 0.051467277 0.036321387
0.011673944 -0.01506565 0.11879129 -0.0829871 -0.04471021 -0.13859363 0.10284064 0.124210395
0.17497028 0.029435884 -0.06843421 -0.04748389 0.026402228 -0.0025790497 -0.021974407 -0.052228104
00000000: 48ac 09bd 23cf cdbd 807b ecbd e9bf 8dbc
00000010: d20d 363c 58ff 9c3d f36c 4abb 7061 d0bd
00000020: 991a e63b 81c2 663c 4755 973d 3d06 063d
00000030: c443 46bd 9159 443b 0a91 dbbc 0317 283e
00000040: a9ae 44bd c2f3 18bd 2e19 51bd e3c5 0dbe
00000050: 0bb2 18bd 9a01 213d 3312 023d 7335 2d3e
00000060: 5f62 22bd 0e57 3a3d 56c9 453d dd2d 8c3d
00000070: 1060 0e3d 65be 093e 14e4 f13c e2d1 cf3c
00000080: b60e ce3d 941c 7dbd bd3e 05be ba69 f6bc
00000090: ef52 973b 0dd2 61bd ce16 d23b ea31 483d
000000a0: b9f8 99bd a16d 833d df3c 43bd 7d50 fb3d
000000b0: 1f77 bc3d 4829 90bd 245e 9d3d e4dd 023e
000000c0: 4be3 273e cd34 97bd c1a3 143d 587f 043b
000000d0: a147 a8bd b5ed 88bc e693 acbd b495 943d
000000e0: 5d30 96bc f096 363d 4542 83bb 4bdd f4bd
000000f0: 19a7 5c3c f23a e4bb 6651 313c d809 e03d
00000100: 39de 04bc 2d43 94bd b73b 883d 11e7 e23d
00000110: e212 4cbc a68e 6fbd e2e6 3ebd fdeb 14bd
00000120: a3b5 203a 1b31 173d 4a94 d6bd 9ccb 35bc
00000130: 1e35 2abd f95a 843c 0d2c 38be 8049 de3c
00000140: 158c 533d 7dc1 d0bd 5ac1 4a3d 4144 68bc
00000150: 4be2 e33d d7b5 bbbd e3d7 c83d 39d2 2b3d
00000160: 18f3 70bd 3b6f acbd d318 88bc f47c 26bd
00000170: 98f2 673d 898d b3bd b9ac 603c 458f 97bd
00000180: a048 0fbd ea92 01be cdc7 643a 354d 13bc
00000190: ae39 b9bb 6346 113d 686c ec3c 9427 a03c
000001a0: 77f3 893c 7649 a8bd 8072 673a 5934 dbbd
000001b0: 8827 61bd 0727 d1bb 5acf 523d bcc5 143d
000001c0: 1244 3f3c ebd5 76bc d948 f33d 24f5 a9bd
000001d0: 0e22 37bd 7deb 0dbe 1d9e d23d 0562 fe3d
000001e0: 692b 333e 8623 f13c 3c27 8cbd 787e 42bd
000001f0: 7c49 d83c 4605 29bb ac03 b4bc 23ed 55bd

weight f4 [128, 128]
0.20022196 -0.08405429 0.030376785 0.12750508 0.12566096 0.06414117 -0.02229317 0.19742584
-0.08449378 -0.009891597 -0.17575994 0.46338582 0.047400024 0.112067394 0.05832115 -0.18416242
0.09949548 0.04777183 0.07408316 -0.08490505 0.072203636 -0.11199572 0.06435171 0.054181844
0.17371008 -0.1750379 -0.039499395 -0.40049297 0.041429386 0.070000365 -0.34832412 -0.01661511
0.06614869 -0.13625982 0.176901 1.0286744 -0.09488839 -0.055693094 0.13065721 0.0701874
-0.11860523 -0.15760249 0.052553408 -0.12525938 -0.10267692 0.14549166 -0.30361015 -0.07952234
-0.33436424 0.049827922 -0.07519278 0.021813637 0.05661935 0.5634265 -0.053013556 0.09735658
-0.036478102 0.03673492 -0.0035518121 0.13739897 -0.23427317 -0.045109805 -0.018366963 0.0028590253
0.06511248 -0.0713128 -0.14566748 0.015848482 0.25904274 0.07813944 0.114119835 0.13781002
-0.20981449 0.13457192 -0.07671492 0.20036401 0.10080496 -0.10606277 0.1255752 0.073790066
0.020176046 0.24729589 -0.09876845 -0.10455949 0.087864995 0.25122356 -0.067582145 -0.4911488
0.09989959 -0.021689527 0.48358625 0.038924824 -0.065135725 0.12775874 0.16299644 -0.019369867
-0.04258394 0.119638786 0.11555449 0.07872843 -0.0037526852 -0.03332092 -0.021940146 0.11201586
-0.02814725 0.1378621 0.0031383245 0.12462866 0.07966877 -0.64855134 0.048381407 -0.07822816
0.12024851 -0.0017131391 -0.025624365 0.012963511 -0.06463313 0.044647373 -0.06802253 -0.110163435
-0.05479446 -0.10108221 0.22015633 0.012323547 -0.149732 0.09974455 0.10139151 0.38893396
-0.089643866 0.07888584 0.18076578 0.19089809 0.11587541 0.068813264 0.021441571 0.14481059
0.101386085 -0.02300559 0.0731739 0.019805266 0.031856854 0.04082513 0.063095234 -0.12119516
-0.02500927 0.037412107 0.090632 -0.056908272 0.123549454 -0.12559609 -0.039234493 0.039775748
0.011642584 -0.067588694 -0.11080788 -0.08884345 -0.10391578 0.02385711 0.006423958 -0.034610827
-0.10116673 0.12540542 0.12872906 -0.083231255 -0.09709269 0.12570143 -0.116404906 0.08584603
-0.05916659 0.0748545 0.07514511 -0.07530939 -0.12904674 0.083075464 0.031855293 -0.035076745
-0.14477177 0.076147325 -0.12888923 0.033891432 0.0030955162 -0.042500272 0.13110738 0.06785717
0.008890897 0.031170309 0.10898892 0.07863062 0.05651553 -0.0044390485 0.016266711 -0.046283517
0.0046604476 0.0010953437 -0.012530866 -0.035163254 -0.059036322 -0.03381524 0.07034983 -0.09906073
-0.14335771 -0.043567136 -0.007189244 0.08738338 0.006008666 0.0786826 0.056159135 -0.14312543
0.063920245 0.07571587 0.12087448 -0.084932 0.02612989 0.00699363 -0.05628885 -0.03180194
0.13890393 -0.080155686 -0.04102704 -0.10961672 0.020677373 -0.13130257 0.050871246 0.050369445
0.042201694 0.1076966 0.06034836 -0.0531131 -0.03024549 0.053315982 -0.09667653 -0.086228184
0.053125914 -0.1326461 0.031774238 0.006814137 -0.018494414 -0.016035844 -0.035166387 0.037641373
0.11249987 -0.05221614 -0.0783433 0.05401273 0.12286983 -0.06972591 -0.00011838026 0.0419409
0.039741054 -0.02400286 -0.07512019 -0.018701136 0.12748022 0.08106586 -0.029442368 0.069912605
00000000: fc06 4d3e a824 acbd bcd8 f83c b190 023e
00000010: 44ad 003e 725c 833d 2ba0 b6bc 002a 4a3e
00000020: 130b adbd 5d10 22bc 6afa 33be e840 ed3e
00000030: 8726 423d 9783 e53d 28e2 6e3d 1395 3cbe
00000040: 49c4 cb3d 65ac 433d e9b8 973d b3e2 adbd
00000050: 80df 933d 035e e5bd d4ca 833d c8ed 5d3d
00000060: 0ee1 313e 233d 33be 1eca 21bd 6a0d cdbe
00000070: dcb1 293d 5a5c 8f3d 8a57 b2be 691c 88bc
00000080: f778 873d b287 0bbe 8925 353e 9aab 833f
00000090: d854 c2bd 711e 64bd 01cb 053e 69be 8f3d
000000a0: 4ce7 f2bd 8c62 21be 3e42 573d ff43 00be
000000b0: 4748 d2bd c4fb 143e ca72 9bbe 9cdc a2bd
000000c0: ca31 abbe 5d18 4c3d acfe 99bd 83b2 b23c
000000d0: b1e9 673d b83c 103f be24 59bd e362 c73d
000000e0: 106a 15bd 5b77 163d 85c5 68bb 51b2 0c3e
000000f0: 4ee5 6fbe 0fc5 38bd 5076 96bc 7c5e 3b3b
00000100: b159 853d 720c 92bd db29 15be add4 813c
00000110: 40a1 843e 9207 a03d a9b7 e93d 121e 0d3e
00000120: 9cd9 56be 39cd 093e b61c 9dbd 392c 4d3e
00000130: d572 ce3d 7037 d9bd c996 003e 3f1f 973d
00000140: 3c48 a53c 223b 7d3e 1d47 cabd 4923 d6bd
00000150: 90f2 b33d 60a0 803e 8268 8abd db77 fbbe
00000160: 2898 cc3d 3cae b1bc 9e98 f73e a36f 1f3d
00000170: e165 85bd 30d3 023e 8ae8 263e 8ead 9ebc
00000180: 7f6c 2ebd 2e05 f53d d5a7 ec3d 5f3c a13d
00000190: 9cef 75bb 847b 08bd d2bb b3bc 9268 e53d
000001a0: 1095 e6bc b92b 0d3e 59ac 4d3b 503d ff3d
000001b0: 6129 a33d 7607 26bf 952b 463d 1636 a0bd
000001c0: da44 f63d 698b e0ba 30ea d1bc e864 543c
000001d0: 605e 84bd 2ae0 363d 654f 8bbd 5e9d e1bd
000001e0: 2870 60bd 3104 cfbd a970 613e b4e8 493c
000001f0: 5853 19be df46 cc3d 5aa6 cf3d 5a22 c73e
00000200: 3497 b7bd e68e a13d aa1a 393e ca7a 433e
00000210: 1650 ed3d f8ed 8c3d 3ca6 af3c 3a49 143e
00000220: 82a3 cf3d 3876 bcbc 33dc 953d a73e a23c
00000230: 557c 023d 4038 273d 1338 813d 2b35 f8bd
00000240: 3ee0 ccbc 703d 193d 459d b93d a618 69bd
00000250: 7f07 fd3d 439c 00be 59b4 20bd e5eb 223d
00000260: 89c0 3e3c f16b 8abd 3eef e2bd 8ef3 b5bd
00000270: ccd1 d4bd fc6f c33c 1180 d23b 15c4 0dbd
00000280: 8130 cfbd 476a 003e 8dd1 033e 2675 aabd
00000290: 88d8 c6bd e0b7 003e b265 eebd 0bd0 af3d
000002a0: ab58 72bd 514d 993d aee5 993d cf3b 9abd
000002b0: d424 04be 7823 aa3d b27a 023d a2ac 0fbd
000002c0: 0d3f 14be 21f3 9b3d 8afb 03be bed1 0a3d
000002d0: 25de 4a3b c414 2ebd 0341 063e b3f8 8a3d
000002e0: 20ab 113c e058 ff3c 9535 df3d 1709 a13d
000002f0: d47c 673d 7075 91bb c441 853c c993 3dbd
00000300: abb6 983b a391 8f3a 434e 4dbc 5807 10bd
00000310: 12d0 71bd d981 0abd 9213 903d 5ae0 cabd
00000320: 5dcc 12be 7473 32bd c093 ebbb 0ff6 b23d
00000330: 58e4 c43b 5824 a13d 1f07 663d 798f 12be
00000340: 9ee8 823d ec10 9b3d 0a8d f73d d4f0 adbd
00000350: 5a0e d63c d22a e53b 238f 66bd c042 02bd
00000360: d53c 0e3e aa28 a4bd f80b 28bd bb7e e0bd
00000370: 9863 a93c 2e74 06be 5e5e 503d 3150 4e3d
00000380: afdb 2c3d 0990 dc3d d82f 773d 1f8d 59bd
00000390: 64c5 f7bc dc61 5a3d 58fe c5bd 6798 b0bd
000003a0: 8f9a 593d 61d4 07be b425 023d 2049 df3b
000003b0: 9981 97bc 9a5d 83bc a10a 10bd d72d 1a3d
000003c0: 5566 e63d 97e0 55bd 7472 a0bd 743c 5d3d
000003d0: 2da3 fb3d 75cc 8ebd eb42 f8b8 39ca 2b3d
000003e0: 84c7 223d a5a1 c4bc 9dd8 99bd 2033 99bc
000003f0: 2d8a 023e dc05 a63d 1f31 f1bc 572e 8f3d

bias f4 [128]
-0.030509418 -0.021855598 0.06971168 0.033535182 -0.06732738 -0.024405632 0.07520423 -0.11346858
0.06968558 -0.0054416503 0.009168111 -0.007417203 -0.039991826 -0.003755142 -0.04662494 -0.007682475
-0.057566885 -0.106742896 0.022948492 0.014946504 -0.063601755 -0.07539773 0.0047739153 0.017109416
0.018278575 0.046981193 -0.05190034 -0.09198534 0.01907183 -0.052346468 0.012077915 -0.012431276
-0.007967617 -0.067484036 0.006370127 -0.08750559 0.11654871 -0.019875187 -0.00971263 0.035685107
0.070637725 0.024417283 0.08386608 -0.028085707 -0.083851 0.09604734 -0.027421767 -0.059458397
-0.035936084 0.11687932 0.09631083 -0.06618747 0.16402732 0.100417994 -0.026309153 -0.035078596
0.04826882 0.03137989 0.04743753 -0.0011501708 0.06509385 0.14582989 -0.09815328 0.059690714
-0.037582178 0.05860489 0.04095687 -0.034513243 0.01913761 0.01752595 0.052344657 0.073477216
0.04674546 -0.09084735 0.08450179 -0.07701506 0.0052367966 0.030410388 -0.08246352 -0.1251068
-0.08102582 -0.035528474 -0.08792805 0.009633596 0.04499259 0.09251248 0.111446775 -0.028368829
-0.074881725 -0.06855041 0.0041414495 0.0012624348 0.06853927 -0.013681448 0.035060573 0.13463606
0.07008493 -0.033388857 0.10407828 -0.1388172 -0.05164837 -0.079184696 0.03546835 -0.0050703078
0.022040533 0.034870114 -0.017191987 -0.04677578 -0.09675561 -0.038287684 0.089490525 -0.07666782
0.005886643 -0.11932696 -0.082028046 -0.018939065 0.010428358 0.022629647 -0.059288897 -0.08038868
0.027029864 0.07182581 -0.112372704 0.036462206 -0.02578996 -0.018189916 -0.042793468 -0.093973875
00000000: e3ee f9bc 830a b3bc ffc4 8e3d 305c 093d
00000010: f0e2 89bd 52ee c7bc ad04 9a3d 3762 e8bd
00000020: 50b7 8e3d df4f b2bb d835 163c 020c f3bb
00000030: 78ce 23bd d418 76bb cbf9 3ebd 45bd fbbb
00000040: 41cb 6bbd 059c dabd 7afe bb3c 2ee2 743c
00000050: a341 82bd 206a 9abd 816e 9c3b 0c29 8c3c
00000060: f3bc 953c 5a6f 403d 7395 54bd cf62 bcbd
00000070: 873c 9c3c 4069 56bd 72e2 453c 8dac 4bbc
00000080: 9c8a 02bc 1235 8abd 80bc d03b 2136 b3bd
00000090: 17b1 ee3d 4ad1 a2bc b921 1fbc 8c2a 123d
000000a0: 83aa 903d c106 c83c fbc1 ab3d ff13 e6bc
000000b0: 13ba abbd 78b4 c43d 9da3 e0bc a68a 73bd
000000c0: b731 13bd 6d5e ef3d 9d3e c53d 4c8d 87bd
000000d0: c7f6 273e f3a7 cd3d 4b86 d7bc 93ae 0fbd
000000e0: 87b5 453d 3388 003d db4d 423d 54c1 96ba
000000f0: ed4f 853d 6e54 153e 9604 c9bd 407e 743d
00000100: c5ef 19bd ae0b 703d 64c2 273d c25d 0dbd
00000110: 7ac6 9c3c 9592 8f3c 5a67 563d 397b 963d
00000120: 2b78 3f3d 2d0e babd 460f ad3d 12ba 9dbd
00000130: 6f99 ab3b 351f f93c a2e2 a8bd ff1b 00be
00000140: ddf0 a5bd 4e86 11bd 9f13 b4bd 3bd6 1d3c
00000150: 264a 383d 2f77 bd3d 353e e43d bf65 e8bc
00000160: 975b 99bd 2864 8cbd ffb4 873b 4878 a53a
00000170: 515e 8c3d 2728 60bc ad9b 0f3d 09de 093e
00000180: b088 8f3d c1c2 08bd fe26 d53d 1926 0ebe
00000190: 3e8d 53bd 962b a2bd 4347 113d d324 a6bb
000001a0: 598e b43c f7d3 0e3d 36d6 8cbc f697 3fbd
000001b0: ce27 c6bd 8cd3 1cbd cf46 b73d 0504 9dbd
000001c0: bee4 c03b b161 f4bd 52fe a7bd 1926 9bbc
000001d0: b4db 2a3c cf61 b93c ead8 72bd d2a2 a4bd
000001e0: bc6d dd3c 6919 933d a923 e6bd 6559 153d
000001f0: 7745 d3bc 0503 95bc 3448 2fbd 6075 c0bd

weight f4 [128, 128]
0.020706374 0.07304057 0.021912592 0.03843153 0.10697864 0.08425387 -0.06092191 -0.102680095
-0.10910801 0.050142147 -0.044449523 0.02533151 0.10389358 0.04890186 -0.04002935 -0.023377378
0.10397514 0.033916723 0.11809851 0.10325087 -0.10771211 -0.00619525 0.036581405 -0.07323795
0.16669564 -0.0104538435 0.013823072 -0.08204277 -0.033452883 0.052559428 0.004761752 -0.0587506
-0.06857816 0.17573692 -0.027447823 -0.043357782 0.03207154 0.08158546 -0.10585859 -0.04279229
-0.10886036 -0.03217171 -0.07505083 -0.063936815 -0.04654694 0.100940965 -0.033178214 0.10554872
0.04193788 0.08962164 -0.21420515 -0.16413939 -0.034794655 -0.075734876 -0.09471597 0.11435014
0.0031535898 -0.07201389 -0.065411165 0.09835881 0.10411962 -0.10463253 0.0728775 0.051710222
0.15765151 0.1674584 0.15237789 0.2886738 -0.05673873 0.023160735 0.076141834 0.056269377
-0.0046924655 0.077563606 -0.13710685 0.07390765 0.053787008 -0.038091827 0.061624706 0.061521847
-0.038218815 0.018955866 0.11097458 -0.041117843 -0.09391921 -3.7299847e-05 -0.123273104 -0.07116056
-0.12891003 -0.040000357 -0.060811274 0.20276283 -0.006530536 0.015632212 0.109446794 0.045132533
0.027133979 -0.06665662 0.06977464 -0.035452727 0.090838596 -0.11936569 0.15582673 -0.0070802104
-0.0071794325 0.0017129444 -0.18745804 0.07090394 0.10506861 0.10294082 0.07967343 0.09422959
0.07297501 -0.11145179 0.051976506 -0.08380326 -0.2596345 -0.018099599 -0.14248174 0.13648437
0.022397038 0.09455061 -0.08655498 -0.025285298 -0.06195555 0.14815512 -0.029835269 -0.036985256
-0.02741729 -0.1333575 -0.121411525 0.15560578 0.0027564897 0.10853365 0.17052549 0.09278195
0.019316554 0.10260234 -0.017219156 0.07216442 0.0007447811 0.11360317 -0.047243584 0.034990083
-0.082093835 0.07546931 0.28267604 0.05013809 0.22290997 0.042216606 0.1445141 -0.09111576
-0.060882665 0.022875817 0.3385021 -0.13512832 -0.12450954 0.21144152 0.052689064 -0.10480549
-0.24413341 0.31021428 0.098009065 0.31945172 0.08372761 0.0915091 -0.018328141 -0.02568071
-0.039298482 -0.15880187 0.02907113 0.017619815 0.048136435 -0.16171572 -0.013279421 0.07883841
-0.17769471 -0.18868679 -0.13239512 0.09164915 -0.30092308 -0.050927926 0.00041493424 0.17681202
0.03975583 0.0781434 -0.009360395 -0.08927086 0.12892024 0.03890422 0.047166377 -0.0669087
0.034709167 0.015189264 -0.15717195 0.22007243 0.10723401 0.08425423 -0.26879638 -0.14867122
0.17126207 0.15671088 -0.08591502 0.034814507 0.019417135 -0.08922516 0.2302094 0.003387729
0.024667416 0.077616945 -0.028717361 0.119851746 0.024656571 0.019922422 0.060123637 0.036740307
0.16508484 -0.06991613 -0.14772287 -0.18940851 -0.04969348 -0.1144538 0.04975832 0.10674925
-0.09067253 -0.089444265 0.09764498 0.19644187 0.12725757 0.04413449 -0.08683338 0.118027225
0.0332756 -0.023083467 0.18078887 -0.094435796 -0.12789066 0.041079495 -0.11785528 -0.007936437
-0.0306841 0.14539845 -0.038163807 -0.004140424 0.0665135 0.19449194 0.13716303 -0.09013162
-0.06175329 0.07392187 0.0999251 0.06853905 0.09605304 0.009345827 -0.10904663 0.13906112
00000000: 6aa0 a93c 4b96 953d 0982 b33c 616a 1d3d
00000010: 9e17 db3d 4b8d ac3d 4189 79bd f149 d2bd
00000020: 0574 dfbd da61 4d3d b410 36bd 0784 cf3c
00000030: 28c6 d43d 514d 483d d1f5 23bd ea81 bfbc
00000040: ebf0 d43d 43ec 0a3d a2dd f13d 3175 d33d
00000050: 2b98 dcbd 8601 cbbb 62d6 153d c7fd 95bd
00000060: 43b2 2a3e 9946 2bbc 2b7a 623c 0a06 a8bd
00000070: e405 09bd 8e48 573d 7908 9c3b 78a4 70bd
00000080: b572 8cbd 61f4 333e 42da e0bc ee97 31bd
00000090: 725d 033d 4716 a73d 63cc d8bd f846 2fbd
000000a0: 2ef2 debd 7cc6 03bd 40b4 99bd 4ef1 82bd
000000b0: 01a8 3ebd 23ba ce3d e1e5 07bd ed29 d83d
000000c0: 0ec7 2b3d 8d8b b73d 9858 5bbe 2814 28be
000000d0: d784 0ebd e31a 9bbd 72fa c1bd 6830 ea3d
000000e0: 75ac 4e3b 057c 93bd 4af6 85bd 5870 c93d
000000f0: ab3c d53d 9449 d6bd cc40 953d 19ce 533d
00000100: 666f 213e 377a 2b3e f308 1c3e 0dcd 933e
00000110: df66 68bd 95bb bd3c 40f0 9b3d b87a 663d
00000120: 41c3 99bb abd9 9e3d bd65 0cbe e55c 973d
00000130: c44f 5c3d 2d06 1cbd 306a 7c3d 55fe 7b3d
00000140: 558b 1cbd 5549 9b3c a446 e33d 2f6b 28bd
00000150: b758 c0bd 6872 1cb8 9c76 fcbd a1bc 91bd
00000160: fe00 04be 6ad7 23bd 3e15 79bd 0fa1 4f3e
00000170: 1bfe d5bb 200f 803c a425 e03d e4dc 383d
00000180: 1448 de3c 4483 88bd 02e6 8e3d e136 11bd
00000190: 9609 ba3d 0076 f4bd 0b91 1f3e 1c01 e8bb
000001a0: 7241 ebbb e084 e03a 00f5 3fbe 1636 913d
000001b0: 362e d73d a3d2 d23d d32b a33d 71fb c03d
000001c0: ec73 953d d640 e4bd 51e5 543d 0ba1 abbd
000001d0: d0ee 84be 9c45 94bc bce6 11be 8fc2 0b3e
000001e0: fe79 b73c c0a3 c13d bd43 b1bd 1d23 cfbc
000001f0: 1ac5 7dbd fab5 173e 1869 f4bc da7d 17bd
00000200: 399a e0bc de8e 08be 9ba6 f8bd 1f57 1f3e
00000210: 39a6 343b e446 de3d 3c9e 2e3e 7704 be3d
00000220: c03d 9e3c 2d21 d23d 300f 8dbc f0ca 933d
00000230: 6a3d 433a c7a8 e83d 7d82 41bd c351 0f3d
00000240: d020 a8bd a78f 9a3d eaba 903e 995d 4d3d
00000250: 8342 643e 52eb 2c3d 81fb 133e e69a babd
00000260: 1a60 79bd 1166 bb3c 2650 ad3e 145f 0abe
00000270: dcfe febd 2084 583e 7dd0 573d 43a4 d6bd
00000280: 1cfe 79be 68d4 9e3e fab8 c83d 2d8f a33e
00000290: 6279 ab3d 1f69 bb3d e624 96bc 5a60 d2bc
000002a0: 72f7 20bd f59c 22be 9426 ee3c 6e57 903c
000002b0: b62a 453d ce98 25be ee91 59bc 0876 a13d
000002c0: 9af5 35be 1c37 41be 9692 07be 8db2 bb3d
000002d0: 9712 9abe cd99 50bd 888b d939 360e 353e
000002e0: 02d7 223d a609 a03d 585c 19bc a4d3 b6bd
000002f0: ab03 043e 085a 1f3d 8831 413d 6e07 89bd
00000300: 332b 0e3d 64dc 783c aff1 20be ab5a 613e
00000310: 819d db3d 7b8d ac3d ae9f 89be 453d 18be
00000320: 535f 2f3e d178 203e 37f4 afbd a899 0e3d
00000330: af10 9f3c aebb b6bd 03bc 6b3e a904 5e3b
00000340: 5213 ca3c a2f5 9e3d ac40 ebbc d574 f53d
00000350: 94fc c93c 5934 a33c 3444 763d 017d 163d
00000360: 000c 293e 3030 8fbd aa44 17be 4ef4 41be
00000370: 648b 4bbd c166 eabd 61cf 4b3d 5a9f da3d
00000380: 85b2 b9bd 8e2e b7bd 17fa c73d 0f28 493e
00000390: cf4f 023e 5ec6 343d b3d5 b1bd 42b8 f13d
000003a0: ff4b 083d 8a19 bdbc b820 393e 8e67 c1bd
000003b0: c5f5 02be f942 283d 1c5e f1bd d407 02bc
000003c0: 395d fbbc 55e3 143e a751 1cbd 65ac 87bb
000003d0: 3b38 883d e528 473e 7774 0c3e ed96 b8bd
000003e0: 05f1 7cbd 5964 973d 88a5 cc3d 345e 8c3d
000003f0: 75b7 c43d 3d1f 193c d753 dfbd 0a66 0e3e

bias f4 [128]
-0.025232324 -0.07685533 0.044401553 0.057811297 0.00886253 -0.028162295 -0.046900745 -0.055204585
-0.021397252 0.0067293737 0.013104331 0.0076336297 -0.048924312 -0.045760095 -0.0027584063 -0.041165538
-0.00445075 -0.016293041 -0.12026498 0.063604765 -0.046153817 0.12278882 0.070360005 -0.052633736
0.07576583 -0.08809155 -0.09152165 0.009716084 -0.15243809 -0.05195457 0.012099328 -0.0053320928
0.023576764 -0.004718205 -0.011450375 0.009894696 0.06408374 0.007908692 -0.016559564 -0.003430892
0.037356228 0.030334348 -0.098279856 0.023511745 0.010063063 0.032012086 -0.030943492 -0.119966745
0.046787202 0.03261399 -0.034322765 0.06154161 -0.006573416 0.0028594218 0.030525522 -0.13675222
-0.031175949 -0.09408269 -0.03490719 -0.01952269 -0.055617686 0.020402804 -0.020137073 -0.06524163
0.027600074 -0.010221071 -0.044922385 0.04657526 -0.029327678 -0.095557004 0.029971724 0.10781867
-0.049415223 0.032086 -0.005350058 0.08274136 -0.04854108 0.044537377 0.01062167 -0.08717973
-0.0146178575 0.02103716 0.034575976 0.09122715 0.024535432 -0.027252924 0.078351036 0.005203989
-0.03308375 0.1318017 -0.043093957 0.05680369 0.003839593 -0.061237052 -0.030965412 0.0043711523
-0.04773985 -0.0106752375 0.019720212 -0.043498848 -0.04101004 -0.045375444 0.0414106 0.07258232
0.056956466 0.058634836 0.07083002 0.026979256 0.019129405 0.043102283 0.025873773 -0.050870094
-0.08470852 0.045112077 -0.004600833 0.04684485 0.032083318 -0.060608868 0.026919266 -0.13061175
0.018839613 0.062754475 -0.042517543 -0.13147625 0.027862724 0.037681848 0.099123694 -0.046487685
00000000: 05b4 cebc 5466 9dbd 67de 353d 8acb 6c3d
00000010: 2534 113c 9db4 e6bc ff1a 40bd 341e 62bd
00000020: 4a49 afbc 1482 dc3b 8cb3 563c 8723 fa3b
00000030: dc64 48bd f06e 3bbd 61c6 34bb 329d 28bd
00000040: 99d7 91bb fc78 85bc 7c4d f6bd 3743 823d
00000050: c90b 3dbd b478 fb3d e818 903d 7996 57bd
00000060: 1e2b 9b3d 5869 b4bd b46f bbbd 3630 1f3c
00000070: bb18 1cbe 51ce 54bd 433c 463c d6b8 aebb
00000080: 0f24 c13c 2c9b 9abb 5b9a 3bbc 5d1d 223c
00000090: 563e 833d 7593 013c eca7 87bc d1d8 60bb
000000a0: d802 193d bd7f f83c f346 c9bd b49b c03c
000000b0: 8cdf 243c 1b1f 033d 357d fdbc 20b1 f5bd
000000c0: f0a3 3f3d 3f96 053d 0796 0cbd 0e13 7c3d
000000d0: cf65 d7bb 2365 3b3b a910 fa3c c608 0cbe
000000e0: b464 ffbc 6dae c0bd d7fa 0ebd 0cee 9fbc
000000f0: 5fcf 63bd c823 a73c 81f6 a4bc 679d 85bd
00000100: 8d19 e23c 4776 27bc 8900 38bd b3c5 3e3d
00000110: 9940 f0bc 64b3 c3bd 4387 f53c 09d0 dc3d
00000120: 9e67 4abd 9c6c 033d 8a4f afbb 4d74 a93d
00000130: 03d3 46bd d36c 363d 8306 2e3c 498b b2bd
00000140: bd7f 6fbc 1f56 ac3c 8a9f 0d3d 4dd5 ba3d
00000150: 88fe c83c 8641 dfbc 8276 a03d 3986 aa3b
00000160: d482 07bd 06f7 063e 4a83 30bd fcaa 683d
00000170: aea1 7b3b b4d3 7abd 2dab fdbc e23b 8f3b
00000180: dc8a 43bd 31e7 2ebc 488c a13c d92b 32bd
00000190: 25fa 27bd 9adb 39bd 299e 293d 0aa6 943d
000001a0: 2f4b 693d 152b 703d 540f 913d 9a03 dd3c
000001b0: 45b5 9c3c 058c 303d 3cf5 d33c 295d 50bd
000001c0: a97b adbd 71c7 383d 96c2 96bb 63e0 3f3d
000001d0: cc69 033d 0141 78bd cb85 dc3c 16bf 05be
000001e0: 8855 9a3c 6b85 803d e026 2ebd b6a1 06be
000001f0: 5e40 e43c 4858 1a3d 5d01 cb3d df69 3ebd

weight f4 [128, 128]
0.020154642 0.022110268 0.028281305 -0.037067328 0.013596295 0.020813497 0.0042555933 -0.111079395
0.097473785 -0.050784968 0.08050549 0.07454275 -0.11833465 -0.030481953 -0.093261756 0.013126092
-0.01740481 -0.0073915464 -0.13890846 -0.09807811 0.036822043 0.016951146 -0.06663034 -0.12646948
0.12375176 -0.1277612 0.0592796 -0.1019333 -0.035717405 -0.024462644 0.07128191 0.04517035
-0.060426466 -0.027279614 -0.05801106 0.12066606 0.17489083 0.14139025 -0.12965469 -0.023136923
-0.03595427 0.18134603 0.05274984 0.009817562 0.057791974 -0.059721585 0.0482985 -0.10427084
-0.020747593 0.039227474 0.10062165 -0.01773548 -0.012229211 0.0023797906 0.015817186 -0.07168763
-0.12524348 -0.08220234 -0.08350837 0.0978705 -0.063661404 0.06874317 -0.100750335 -0.036827996
-0.0013715226 -0.08197375 -0.059644885 -0.042148154 -0.0843062 -0.12190314 0.1361502 0.15688969
-0.12960292 -0.04834754 0.056589067 0.16634329 -0.027722836 0.007073585 0.1319566 -0.057697017
0.04992577 0.03378667 0.11831007 -0.017113857 0.029947653 0.0139057115 0.02590155 -0.031279255
-0.114787765 -0.083840154 0.0077982093 0.10360703 -0.09390294 0.023118142 -0.002850434 0.13829528
-0.082616486 -0.054673098 0.05715902 -0.167267 0.015801875 -0.10559712 -0.06346359 0.09272669
0.0680872 0.009042588 0.12659757 0.13410076 -0.074985735 -0.010382974 -0.1150928 -0.08780148
0.058054823 -0.013037954 0.13184261 0.021520482 0.116628155 -0.11931316 -0.07365378 -0.10605379
-0.015688898 0.105544284 -0.01566005 -0.13336821 0.030181434 0.047001928 0.12670702 -0.14782746
-0.08608995 -0.055187013 0.09208653 -0.013680284 0.087285735 -0.047433864 -0.0068103755 0.19177566
-0.11295573 -0.09316945 0.011285148 0.21160977 -0.036013532 -0.040266253 0.07488608 0.09977807
0.033747863 0.008667695 0.073002726 0.06879444 0.0006256285 -0.07421897 -0.08335598 0.023457795
-0.008630322 0.11858356 0.08843824 0.118013926 0.12885608 0.04394383 -0.055607792 -0.022288969
0.042878635 0.041382786 -0.02825769 0.15149568 -3.4435223e-05 0.00015060305 0.046812207 0.052280914
-0.063725755 0.087479025 -0.08373387 0.022688054 0.030871542 -0.009070228 0.11429465 0.13781317
-0.10587211 0.035421755 0.06987905 -0.10664178 0.060102392 0.044151764 0.16209793 0.14283127
0.09970315 0.10113374 -0.084217176 -0.12105485 -0.08512166 -0.042447638 0.12492019 0.091387056
-0.06603609 0.03496515 -0.04113676 0.01714152 -0.017358262 -0.10398538 0.051849306 0.00750771
0.08763835 -0.10219572 0.093675464 -0.23505947 0.08773572 -0.10771927 -0.14540777 -0.10823709
0.004059853 -0.06176891 0.041950468 -0.15237966 -0.15148684 -0.09969641 -0.016108524 -0.082787655
0.08568792 0.079505 0.12509267 -0.11720435 0.0522292 0.026855089 0.12443625 0.047838364
0.06772593 0.04090115 0.068732314 0.3111114 0.17114377 0.113318056 -0.19256563 -0.068686634
-0.03455662 -0.07223808 -0.13342299 -0.0168456 0.13334318 0.037841197 0.09147675 -0.01696084
0.072912976 -0.048503425 0.0060236375 0.106238194 -0.13216507 0.052337673 0.022190187 0.119754925
0.035352603 -0.04565714 -0.017678823 -0.019659452 0.060135305 -0.014684288 0.010942929 0.047579058
00000000: 591b a53c 9820 b53c 32ae e73c e9d3 17bd
00000010: ffc2 5e3c 1181 aa3c 8172 8b3b 987d e3bd
00000020: 56a0 c73d e603 50bd 10e0 a43d dfa9 983d
00000030: 7059 f2bd 4ab5 f9bc 0500 bfbd d20e 573c
00000040: 8894 8ebc c934 f2bb 053e 0ebe 2ddd c8bd
00000050: b6d2 163d 21dd 8a3c 7d75 88bd 3781 01be
00000060: 9071 fd3d d5d3 02be 2acf 723d 68c2 d0bd
00000070: 6a4c 12bd e265 c8bc 40fc 913d 8b04 393d
00000080: be81 77bd 7f79 dfbc 019d 6dbd c41f f73d
00000090: 9516 333e 9bc8 103e 33c4 04be a589 bdbc
000000a0: c944 13bd c6b2 393e 3710 583d d7d9 203c
000000b0: 47b7 6c3d 9f9e 74bd a6d4 453d f38b d5bd
000000c0: dbf6 a9bc fdac 203d b912 ce3d ff49 91bc
000000d0: 075d 48bc 43f6 1b3b 0b93 813c f7d0 92bd
000000e0: d43f 00be b359 a8bd 7006 abbd 5470 c83d
000000f0: e960 82bd 38c9 8c3d 3156 cebd f4d8 16bd
00000100: a9c4 b3ba dae1 a7bd 324e 74bd 8ba3 2cbd
00000110: bba8 acbd 5aa8 f9bd f56a 0b3e b1a7 203e
00000120: a1b6 04be 1208 46bd f0c9 673d e555 2a3e
00000130: 001b e3bc 88c9 e73b a21f 073e b553 6cbd
00000140: f77e 4c3d e463 0a3d 8d4c f23d 5c32 8cbc
00000150: c854 f53c c8d4 633c 7d2f d43c ad1e 00bd
00000160: d915 ebbd 63b4 abbd 1f88 ff3b ec2f d43d
00000170: 2f50 c0bd 4262 bd3c 59ce 3abb 479d 0d3e
00000180: d532 a9bd e6f0 5fbd 941f 6a3d 0a48 2bbe
00000190: ef72 813c 4e43 d8bd 33f9 81bd 7ee7 bd3d
000001a0: 4d71 8b3d 5d27 143c cba2 013e b651 093e
000001b0: 1f92 99bd 591d 2abc c6b5 ebbd 43d1 b3bd
000001c0: e5ca 6d3d 259d 55bc c001 073e b94b b03c
000001d0: beda ee3d 755a f4bd cbd7 96bd bb32 d9bd
000001e0: 0186 80bc 9a27 d83d 8149 80bc ad91 08be
000001f0: 0e3f f73c 1885 403d 7cbf 013e 1560 17be
00000200: ed4f b0bd c70b 62bd dd97 bc3d 4523 60bc
00000210: ddc2 b23d 034a 42bd 9229 dfbb d760 443e
00000220: 5555 e7bd a0cf bebd 57e5 383c 3bb0 583e
00000230: ed82 13bd 3aee 24bd e05d 993d 7258 cc3d
00000240: 333b 0a3d f302 0e3c 7482 953d 19e4 8c3d
00000250: 3801 243a 1e00 98bd 8ab6 aabd 902a c03c
00000260: 3266 0dbc f0db f23d 1c1f b53d 49b1 f13d
00000270: d9f2 033e 72fe 333d ffc4 63bd 5b97 b6bc
00000280: 82a1 2f3d ff80 293d ac7c e7bc af21 1b3e
00000290: 8a6e 10b8 33eb 1d39 28be 3f3d 8324 563d
000002a0: a682 82bd 3428 b33d aa7c abbd 4cdc b93c
000002b0: 51e6 fc3c 4b9b 14bc 5013 ea3d e51e 0d3e
000002c0: 7ad3 d8bd 6716 113d bf1c 8f3d 0167 dabd
000002d0: ed2d 763d 7bd8 343d 00fd 253e 5c42 123e
000002e0: 2a31 cc3d 351f cf3d 0e7a acbd 9beb f7bd
000002f0: 4454 aebd 93dd 2dbd 28d6 ff3d 2329 bb3d
00000300: ee3d 87bd 9e37 0f3d 057f 28bd 5f6c 8c3c
00000310: ea32 8ebc 49f6 d4bd f05f 543d 3c03 f63b
00000320: bc7b b33d fd4b d1bd ecd8 bf3d 6eb3 70be
00000330: c9ae b33d ec9b dcbd c6e5 14be 68ab ddbd
00000340: 8408 853b 6601 7dbd 41d4 2b3d 6a09 1cbe
00000350: 5e1f 1bbe a22d ccbd 06f6 83bc 938c a9bd
00000360: 267d af3d 84d3 a23d 4b18 003e d608 f0bd
00000370: 49ee 553d 34ff db3c 6fd8 fe3d 29f2 433d
00000380: e4b3 8a3d f787 273d 87c3 8c3d fe49 9f3e
00000390: 5040 2f3e 4c13 e83d ed2f 45be 94ab 8cbd
000003a0: 3e8b 0dbd 8ff1 93bd 09a0 08be c9ff 89bc
000003b0: 1d8b 083e 5fff 1a3d 2a58 bb3d 76f1 8abc
000003c0: 6653 953d 87ab 46bd ef61 c53b 6993 d93d
000003d0: 4856 07be 0760 563d 32c8 b53c 1242 f53d
000003e0: e4cd 103d fb02 3bbd 2ed3 90bc dc0c a1bc
000003f0: 7050 763d 5e96 70bc f949 333c 42e2 423d

bias f4 [128]
0.014246469 -0.05701996 0.026351385 0.017462272 0.09661603 0.013855587 -0.031474017 0.03432687
-0.06840666 -0.012451525 -0.005648114 -0.02885749 -0.054299854 -0.04543486 0.02102253 -0.04764267
0.021727353 0.08447044 0.04238622 -0.008095912 -0.012385178 0.023016654 0.008779533 -0.005994022
-0.035335038 0.010489516 0.026131185 -0.030023523 0.0061843097 0.022414403 -0.022796359 0.050586935
-0.03396813 0.045176845 0.032443628 -0.056375913 0.038486958 -0.04064744 0.020212466 0.058899984
0.008502811 -0.03137641 -0.014268417 0.009832065 0.036637433 -0.047314014 -0.0056430274 -0.049169373
-0.0057887756 0.029973403 0.05336495 0.0051141656 0.008691364 0.08727421 0.10016598 -0.027604688
0.0228439 0.033764627 0.048362665 -0.030590815 -0.009289679 -0.017453356 -0.03320517 -0.03171603
0.037260357 -0.057915688 0.027035637 -0.024863644 0.017154075 -0.02291135 0.027351856 0.05281032
0.05981612 -0.044634853 -0.042026784 0.05520043 0.06024707 -0.0075747585 -0.030745467 -0.044847813
0.017407905 0.026480382 0.07307389 -0.0129005425 -0.05490607 0.032296535 0.061207667 -0.04955776
0.0032084174 0.043584462 0.030006917 0.017952977 0.021691136 0.022755692 0.05678308 -0.07290243
0.06759345 0.01491682 -0.02557762 0.045807984 -0.05226134 0.05019399 -0.06641293 -0.016393336
0.0036803612 -0.031937625 -0.079295255 0.012871837 0.0703787 -0.05921568 0.062332686 0.02078333
0.005218358 -0.091107346 0.023117017 0.039820947 0.019257445 -0.0051912223 -0.015440085 0.016090399
0.039604455 -0.0288306 0.010734028 0.09232905 -0.024045963 0.007649421 -0.022584781 0.039362025
00000000: 066a 693c c38d 69bd dcde d73c 0a0d 8f3c
00000010: a0de c53d 8b02 633c e6ea 00bd 559a 0c3d
00000020: ca18 8cbd 7b01 4cbc d013 b9bb 8b66 ecbc
00000030: 8669 5ebd e719 3abd 7137 ac3c f624 43bd
00000040: 90fd b13c d7fe ac3d 2c9d 2d3d b7a4 04bc
00000050: 34eb 4abc 6c8d bc3c 08d8 0f3c 8069 c4bb
00000060: 79bb 10bd 38dc 2b3c 1111 d63c e4f3 f5bc
00000070: c0a5 ca3b 699e b73c 6ebf babc 3f34 4f3d
00000080: 2a22 0bbd 5b0b 393d 9ce3 043d 6eea 66bd
00000090: 80a4 1d3d ee7d 26bd 9d94 a53c 1c41 713d
000000a0: 604f 0b3c 8d84 00bd 14c6 69bc ab16 213c
000000b0: 2211 163d 57cc 41bd 25e9 b8bb d365 49bd
000000c0: c5af bdbb c88a f53c 3595 5a3d bb94 a73b
000000d0: 3966 0e3c d2bc b23d d223 cd3d 3a23 e2bc
000000e0: 2123 bb3c c74c 0a3d ee17 463d 9799 fabc
000000f0: bd33 18bc 57fa 8ebc 2502 08bd abe8 01bd
00000100: 519e 183d 0039 6dbd d779 dd3c d7ae cbbc
00000110: b486 8c3c 95b0 bbbc 0011 e03c a24f 583d
00000120: bf01 753d 09d3 36bd 4724 2cbd d919 623d
00000130: a2c5 763d ae35 f8bb ebdd fbbc 57b2 37bd
00000140: 069b 8e3c 63ed d83c c3a7 953d cc5c 53bc
00000150: 30e5 60bd 5f49 043d e4b4 7a3d 14fd 4abd
00000160: 5044 523b 9f85 323d 11d1 f53c 1f12 933c
00000170: 9cb1 b13c 256a ba3c 6095 683d df4d 95bd
00000180: 6f6e 8a3d ae65 743c 2888 d1bc 27a1 3b3d
00000190: fd0f 56bd 3798 4d3d 8103 88bd 514b 86bc
000001a0: 3732 713b 07d1 02bd 8d65 a2bd 66e4 523c
000001b0: b522 903d 248c 72bd 8f50 7f3d cd41 aa3c
000001c0: c2fe aa3b 7d96 babd e65f bd3c 4a1b 233d
000001d0: cac1 9d3c 211b aabb 69f8 7cbc 03d0 833c
000001e0: 4838 223d 272e ecbc c7dd 2f3c 0317 bd3d
000001f0: 0afc c4bc ffa7 fa3b b803 b9bc 133a 213d
