BFSF/model/u=0.02-decrease/ninit/2025-02-22-0.0085_model.pth (torch, 342092 bytes, 14 tensors)

weight f4 [128, 2]
0	0x3e54ed57	0.20793663
1	0x3e385574	0.18001348
2	0x3861abf3	5.380432e-05
3	0x3d513dad	0.05108421
4	0x3e13d4c1	0.14436628
5	0x3ddfdf6d	0.10931287
6	0xbdc59699	-0.09647865
7	0x3e3a1c7e	0.18174931
8	0xbdf621f1	-0.120181926
9	0x3db1f675	0.08689586
10	0x3e1bbb1c	0.15208095
11	0xbe319d34	-0.17345124
12	0x3e452c23	0.19255118
13	0x3dc787a4	0.09742668
14	0x3df35e92	0.11883272
15	0x3d08f8af	0.03344029
16	0x3ddc3274	0.10751811
17	0x3deb2e8a	0.11483486
18	0xbaa40833	-0.0012514651
19	0x3dee37dc	0.11631748
20	0x3d46fcde	0.048580997
21	0x3dd54e7d	0.10415361
22	0xbe3085bd	-0.17238517
23	0x3e5c8db3	0.21538429
24	0x3dfcfe5d	0.123532034
25	0x3cae8b8b	0.021306774
26	0xbc970eca	-0.01843967
27	0x3e043726	0.12911662
28	0x3db064eb	0.086129986
29	0x3c9c156a	0.01905318
30	0xbe051263	-0.12995295
31	0xbd9bbf59	-0.07604856
32	0x3e3f5291	0.1868384
33	0x3d58a1fb	0.05288885
34	0x3cd23462	0.025659744
35	0xbe03f09c	-0.12884754
36	0xbd4f9b9a	-0.050685503
37	0xbda94e85	-0.082669295
38	0x3e242821	0.16030933
39	0x3e2c84f0	0.16847587
40	0xbd63b0ec	-0.055588648
41	0xbe496fae	-0.19671509
42	0xbde25828	-0.11051971
43	0xbbbc41d5	-0.0057451525
44	0xbdbc7fe5	-0.092040814
45	0xbdd763c3	-0.10517075
46	0xbd82ab23	-0.06380298
47	0xbdeea0d2	-0.11651768
48	0x3e18802b	0.14892642
49	0xbd1a4175	-0.03766008
50	0x3e063f06	0.13109979
51	0x3da13e31	0.0787319
52	0xbe4f899d	-0.20267339
53	0xbcf4dfa9	-0.029891806
54	0xbc797ea7	-0.01522795
55	0x3cbadb58	0.02280967
56	0x3e2f02b8	0.17090881
57	0xbd856664	-0.0651367
58	0x3e55be0f	0.20873283
59	0x3e396234	0.18103868
60	0x3e3d1d6e	0.18468258
61	0xbe3a4bd7	-0.18192993
62	0xbe0ede28	-0.13951933
63	0x3cd5c8d3	0.026096737
64	0x3df1d017	0.11807268
65	0x3e3b3a76	0.1828402
66	0x3df301ad	0.11865554
67	0xbd2360df	-0.039887305
68	0xbe26c718	-0.16286886
69	0x3e428c6f	0.18998884
70	0xbd9b94ef	-0.07596766
71	0xbc1d693e	-0.009607611
72	0x3e2a275d	0.16616578
73	0x3e0ab232	0.13544539
74	0xbe11341a	-0.14180031
75	0xbe5b040d	-0.21388264
76	0xbe0b590a	-0.13608184
77	0xbc95ff30	-0.01831016
78	0x3e50429b	0.20337908
79	0xbd51503c	-0.051101908
80	0x3d57167e	0.052511685
81	0xbc3f330f	-0.011669888
82	0xbd72d823	-0.059288155
83	0xbc2ae951	-0.0104316035
84	0x3e14e25f	0.14539479
85	0xbd2cd7d5	-0.04219802
86	0x3d3d75ef	0.04625505
87	0x3d4475d6	0.04796394
88	0xbc194baa	-0.009356419
89	0x3db68b65	0.08913306
90	0xbe30e31b	-0.17274134
91	0x3e1211e8	0.14264643
92	0x3cb34226	0.021882128
93	0x3d4c4a2c	0.049875423
94	0x3e2b4648	0.16726029
95	0xbd298501	-0.041386608
96	0x3cd157e0	0.025554597
97	0xbe09f75d	-0.13473268
98	0x3e1f481b	0.1555485
99	0x3cc0b71e	0.023524817
100	0xbd63bfce	-0.05560284
101	0xbc061c1d	-0.008185414
102	0xbc718b7f	-0.014742731
103	0xbd2168c8	-0.039406568
104	0x3d146f7f	0.036239143
105	0x3e03c98b	0.12869851
106	0x3e202c17	0.15641819
107	0x3e039394	0.12849265
108	0x3e053d66	0.13011703
109	0x3dae8d09	0.08522994
110	0x3d8de1f4	0.06927863
111	0xbc8d5f57	-0.017257376
112	0xbe438301	-0.19092943
113	0xbdd6e2b2	-0.104924574
114	0x3dff6f1b	0.124723636
115	0xbe523bc3	-0.2053061
116	0x3ccaf233	0.024773693
117	0x3d608870	0.054817617
118	0xbe3f3927	-0.18674146
119	0xbd8e663d	-0.06953094
120	0x3de12e94	0.10995212
121	0xbe23cda1	-0.1599641
122	0xbe025129	-0.12726273
123	0x3dce3ee0	0.10070586
124	0x3d174917	0.03693494
125	0x3e481784	0.1954022
126	0x3da38181	0.07983685
127	0x3d98c655	0.07459704
128	0xbc1427ae	-0.0090426635
129	0xbd90de04	-0.07073596
130	0xbd5dbcc2	-0.05413509
131	0x3e53fab3	0.20701103
132	0x3dcf0927	0.101091675
133	0x3d6a358d	0.057179976
134	0xbd0148a6	-0.031563424
135	0x3d01f998	0.03173217
136	0xbccacb6d	-0.024755204
137	0xbd25273a	-0.040320612
138	0x3d06aa90	0.032877505
139	0x3db6b77d	0.08921716
140	0x3dcb47d7	0.09925812
141	0x3e0a6cc6	0.13518056
142	0x3e26270b	0.16225831
143	0x3c30a5e7	0.010781742
144	0xbe2544c9	-0.1613952
145	0xbe3afb1e	-0.18259856
146	0x3d0a6c48	0.03379467
147	0xbccf6d1a	-0.025320578
148	0x3dca5b44	0.09880689
149	0xbe3190e9	-0.17340435
150	0xbe129c9d	-0.14317556
151	0x3e3316b5	0.17489131
152	0x3b3f415b	0.0029183242
153	0x3e3f9713	0.18709974
154	0xbdf067d4	-0.11738554
155	0x3bd42ebd	0.006475298
156	0x3dac96ee	0.08427225
157	0x3d9fe7e3	0.07807901
158	0xbd8d8de4	-0.06911829
159	0x3e4c3b9b	0.19944613
160	0x3da2e078	0.0795297
161	0xbe47a376	-0.19495949
162	0x3e4694ea	0.19392744
163	0x3e2a8f56	0.16656241
164	0xbe1a8208	-0.15088665
165	0x3ca61c72	0.020277236
166	0xbe04bc3c	-0.1296243
167	0xbe0c306a	-0.13690343
168	0xbd72b7db	-0.05925737
169	0xbe0d9dfd	-0.13829799
170	0x3e4245b1	0.18971898
171	0x3dd56a93	0.10420718
172	0xbe4d08d3	-0.20022897
173	0xbd5d144c	-0.053974435
174	0x3e192871	0.14956833
175	0x3e23a649	0.15981402
176	0xbe3623bf	-0.17787074
177	0x3d8a6ee9	0.06759436
178	0xba9b01ba	-0.0011826076
179	0xbe13e675	-0.14443381
180	0x3c95f6ac	0.018306099
181	0xbc686300	-0.01418376
182	0x3d5c8245	0.053835172
183	0x3c829299	0.015939044
184	0xbe03b2e9	-0.12861218
185	0xbe172ecc	-0.14763945
186	0x3e576b46	0.21037015
187	0x3da43b7e	0.0801916
188	0x3a98f184	0.0011668657
189	0xbe06943e	-0.13142487
190	0xbe3cd4c6	-0.18440542
191	0xbd85f50e	-0.06540881
192	0xbe377f5f	-0.17919682
193	0xbd84e1f8	-0.064884126
194	0x3e23b537	0.15987097
195	0xbd1bac29	-0.03800598
196	0x3df1cab6	0.11806242
197	0x3e1244f4	0.14284116
198	0x3d4aea2c	0.04953973
199	0x3e4744e2	0.1945987
200	0xbe097b4f	-0.13425945
201	0xbdcfbf54	-0.10143915
202	0xbbc1863e	-0.0059058955
203	0x3e30c48f	0.17262481
204	0xbd96f60f	-0.07371151
205	0x3e0f95bd	0.14021964
206	0x3e59a245	0.21253307
207	0xbe024b20	-0.1272397
208	0x3dac271d	0.08405898
209	0x3e0d9009	0.13824476
210	0xbdffd134	-0.12491074
211	0xbd835369	-0.064123936
212	0x3c7bc128	0.015365876
213	0xbe541eb5	-0.20714839
214	0x3e2f0055	0.1708997
215	0xbe483a9b	-0.19553606
216	0x3e54cc04	0.20780951
217	0xbd4c1187	-0.049821403
218	0x3df6eba1	0.120566614
219	0xbe0ad2ca	-0.13556972
220	0x3e32d431	0.17463757
221	0x3d501e90	0.050810397
222	0x3de6c86d	0.11268697
223	0xbb5ba542	-0.003351525
224	0x3ca5347c	0.020166628
225	0xbe2713cc	-0.16316146
226	0xbdc6cb95	-0.09706799
227	0xbe198dde	-0.14995524
228	0xbe282c3a	-0.16423121
229	0xbd97fede	-0.07421659
230	0x3dad16b8	0.08451599
231	0xbe3cc0bb	-0.18432896
232	0xbe400473	-0.18751697
233	0xbe1780e3	-0.1479526
234	0xbe007bea	-0.1254727
235	0x3d23d25a	0.03999553
236	0xbe41335e	-0.18867251
237	0xbd3da2f3	-0.04629798
238	0x3e3cfe3b	0.18456356
239	0xbe506b17	-0.20353352
240	0x3e191963	0.1495109
241	0xbe38a1af	-0.18030427
242	0xbd70fbce	-0.05883389
243	0x3c215791	0.009847538
244	0x3dc35a47	0.095387034
245	0xbd9b93b6	-0.07596533
246	0xbe216db5	-0.15764506
247	0xbe2ac2cf	-0.16675876
248	0xbcfc12ed	-0.030770743
249	0x3e0820ae	0.13293716
250	0xbe20f483	-0.15718274
251	0x3d51dce0	0.051236033
252	0xbb6c5aa8	-0.0036064778
253	0x3e2e0ab1	0.16996266
254	0x3e291d84	0.16515166
255	0xbe26c8f1	-0.1628759

bias f4 [128]
0	0xbb8db419	-0.004324448
1	0xb97ca323	-0.00024093366
2	0xbb78c73e	-0.0037960554
3	0xb9d60014	-0.0004081732
4	0x3b1b785c	0.0023722863
5	0xbb629a62	-0.0034576883
6	0xbb454949	-0.0030103496
7	0x3bb65fa5	0.005565601
8	0x3c12aaaa	0.008951822
9	0x3b3f231c	0.0029165214
10	0x3b70b17d	0.0036726885
11	0xb9d77403	-0.0004109443
12	0xba0133b6	-0.0004928665
13	0xbafbb75b	-0.0019204424
14	0x3c161d3a	0.009162242
15	0xbafd93ca	-0.0019346413
16	0xbbdd9c6b	-0.0067630312
17	0x3bf0a043	0.0073433234
18	0xbbfe0bee	-0.007752887
19	0x3b4824f8	0.0030539613
20	0xba868c98	-0.0010265289
21	0x3ba318cd	0.0049773217
22	0xbc041ca7	-0.008063472
23	0xbba607da	-0.005066854
24	0x3b3b5199	0.0028582572
25	0xbb570cf9	-0.0032814129
26	0xbaa4f03e	-0.0012583805
27	0xbbb1b7c0	-0.005423516
28	0x3b4f9137	0.0031672248
29	0x3b7b0e8b	0.0038308229
30	0xbc15b77d	-0.009137985
31	0xbc20d751	-0.00981696
32	0x3c1fcfb4	0.00975411
33	0x3bcace8b	0.0061891726
34	0xbb9f166a	-0.004854967
35	0xbad71b9a	-0.0016411424
36	0xbbfd6f58	-0.0077342205
37	0x3c075f95	0.008262535
38	0xba900eff	-0.0010990797
39	0x3bfc815a	0.0077058496
40	0xbaf2ca57	-0.0018523437
41	0xbafb048e	-0.0019151138
42	0x3bb2cc20	0.0054564625
43	0xb91007d6	-0.00013735829
44	0xbad0774f	-0.0015904697
45	0xbc40d447	-0.011769361
46	0x3b12e707	0.0022415535
47	0x3beba853	0.0071916967
48	0xbbe8ead9	-0.007108074
49	0x3c1d5948	0.009603806
50	0x3b699a10	0.0035644807
51	0xbaff66f8	-0.0019485643
52	0x3bf9b3ed	0.007620326
53	0xbbf42c93	-0.0074516027
54	0x3b66112e	0.0035105455
55	0x3af001e9	0.0018311116
56	0xbbca4ac0	-0.0061734617
57	0x3b7a809e	0.0038223634
58	0x3ba9caee	0.005181662
59	0xbae2ddec	-0.001730857
60	0xb9b53e96	-0.0003456964
61	0xbc0fd9e7	-0.008779979
62	0xba3a1146	-0.0007097911
63	0x3c2213e4	0.009892438
64	0xbb45843f	-0.003013864
65	0xba125620	-0.00055822916
66	0x3ae8cc2d	0.0017761044
67	0xbb389051	-0.002816219
68	0xbacf5a97	-0.0015819845
69	0xbba2ba29	-0.0049660397
70	0x37963d60	1.7909973e-05
71	0xbb570ddd	-0.003281466
72	0xbbe35079	-0.0069370833
73	0xbb18b4ee	-0.0023301202
74	0x3a83f4a3	0.0010067414
75	0xbb5bba7f	-0.0033527908
76	0xbb03993d	-0.002008035
77	0x3bbf67e1	0.0058412408
78	0x3bb17013	0.0054149716
79	0xbb13ffb2	-0.0022582826
80	0xb95953a9	-0.00020725899
81	0x3b4153bf	0.002949938
82	0xbc561be1	-0.01306817
83	0xbbe35456	-0.006937544
84	0xbb7901fa	-0.0037995563
85	0x3bd78145	0.0065766894
86	0x3bf0e488	0.007351462
87	0xbb48af6f	-0.0030622145
88	0x3bdf481a	0.006814015
89	0xbb80b9d1	-0.003928401
90	0xba0408b5	-0.0005036698
91	0x39e39fb7	0.0004341581
92	0xbb462eb4	-0.003024024
93	0xbbab6e7b	-0.005231676
94	0x3bacc43b	0.005272416
95	0xbc054444	-0.008133952
96	0xbc43a1f6	-0.01194047
97	0xbc22505a	-0.009906853
98	0x3b381f47	0.0028094815
99	0xbc0e4436	-0.008683255
100	0x3bb0cc3d	0.005395441
101	0x3b348c77	0.0027549544
102	0x37e2a135	2.7016367e-05
103	0x3bc094e0	0.0058771223
104	0xbb382aab	-0.0028101604
105	0x3b8e43f6	0.0043415977
106	0x3b0a218e	0.002107713
107	0xbbebad73	-0.0071923076
108	0xbb89effa	-0.0042095156
109	0x3c199778	0.009374492
110	0x3c4b88ae	0.012422724
111	0xbb68823e	-0.003547802
112	0xbb03ea97	-0.002012884
113	0x3bafa6ea	0.005360474
114	0x3aedec12	0.001815202
115	0xba8be3e9	-0.0010672781
116	0xba864ade	-0.0010245701
117	0xb9f7f791	-0.00047295963
118	0xbc06857d	-0.008210537
119	0xbb8a2ec9	-0.004217003
120	0x3b50d248	0.0031863619
121	0xbb4186b8	-0.0029529762
122	0xba41c91c	-0.00073923334
123	0xbbb42364	-0.005497383
124	0x3b091bcf	0.0020921116
125	0x39336f5f	0.00017112259
126	0x3a61229a	0.0008588225
127	0x3b774080	0.0037727654

weight f4 [128, 128]
0	0x3c95d1fc	0.018288605
1	0xbdde1c29	-0.10845215
2	0xbd52c40f	-0.051456507
3	0x3e0cac8e	0.137377
4	0x3e109b0e	0.14121649
5	0x3d28565e	0.04109799
6	0x3dc4626f	0.09589087
7	0x3ba480ae	0.0050202226
8	0xbe1a24ee	-0.1505315
9	0xbdd7e9d0	-0.10542643
10	0xbd96a540	-0.07355738
11	0xbd50ab18	-0.050944418
12	0xbe12a422	-0.14320424
13	0x3dbc206a	0.0918587
14	0x3d18921b	0.037248712
15	0xbdd928c0	-0.106034756
16	0x3e0b9544	0.13631159
17	0xbd8e7491	-0.06955827
18	0xbb9c8885	-0.0047770166
19	0xbcfdd598	-0.030985638
20	0xbd30e845	-0.04319026
21	0x3db5c66d	0.08875737
22	0x3d1870ca	0.03721694
23	0x3d1ba4ec	0.03799908
24	0xbc4e8d8d	-0.0126069905
25	0xbdc4f2fe	-0.096166596
26	0x3d07c9e4	0.033151522
27	0x3d9bc6ac	0.07606253
28	0x3ce75bab	0.028241953
29	0x3d8cc3ac	0.06873259
30	0x3bc2e2c0	0.005947441
31	0x3c9666b2	0.018359516
32	0xbda6fa78	-0.08153242
33	0xbe160c3e	-0.14653108
34	0x3e13351e	0.14375731
35	0x3df40e25	0.1191676
36	0xbce70763	-0.028201764
37	0xbd762c10	-0.060100615
38	0xbdfd531c	-0.123693675
39	0xbdd0536c	-0.101721615
40	0xbde2637c	-0.110541314
41	0xbdf93209	-0.121677466
42	0xbc4bcaf1	-0.012438522
43	0x3cd9d20b	0.026589414
44	0x3e05596a	0.1302239
45	0x3dbf4258	0.09338826
46	0x3e1a5ad0	0.15073705
47	0x3cfa2279	0.030534016
48	0xbc05c0b7	-0.008163623
49	0xbdac7f9a	-0.084227756
50	0x3ca6f1c7	0.02037896
51	0x3ddd3c16	0.10802476
52	0x3d9c7226	0.076389596
53	0x3e074095	0.1320823
54	0x3d86be1c	0.06579229
55	0x3d0b801b	0.034057718
56	0x3de77096	0.11300771
57	0x3ca9aac9	0.02071132
58	0x3d60fd1b	0.05492888
59	0x3d19f52c	0.03758733
60	0x3d9e8c6f	0.07741629
61	0x3bac622d	0.005260727
62	0xbd1442e5	-0.036196608
63	0x3d2d5d41	0.042325262
64	0x3db5950f	0.08866321
65	0x3d28f568	0.041249663
66	0xbd818bb0	-0.063254714
67	0xbbd4b694	-0.0064914916
68	0x3de4618e	0.111514196
69	0xbde13c7e	-0.10997866
70	0xbe0ad75f	-0.1355872
71	0xbda55ddc	-0.08074543
72	0x3dcd7468	0.10031968
73	0xbe05e41d	-0.130753
74	0x3bc8ef17	0.0061320174
75	0xbe01b9d2	-0.12668541
76	0xbcb2774e	-0.021785405
77	0xbdd5b22e	-0.10434376
78	0xbcf91a0d	-0.03040793
79	0x3dfd0653	0.12354722
80	0x3dd7353a	0.10508199
81	0x3d5f73ea	0.054553904
82	0xbdd14ad0	-0.102193475
83	0x3dc18671	0.09449471
84	0x3dae37d1	0.0850674
85	0xbe0caef4	-0.13738614
86	0xbd4455ac	-0.047933266
87	0x398facd5	0.00027403855
88	0xbcbcf24a	-0.023064751
89	0x3bf8ee68	0.0075967796
90	0xbd349da2	-0.044095643
91	0x3de42ffc	0.11141965
92	0x3dd5526c	0.10416111
93	0x3ce08f18	0.027411982
94	0x3d02ba2e	0.031915836
95	0xbd9edbc4	-0.07756761
96	0x3d4df51b	0.05028258
97	0xbdaa66a6	-0.0832036
98	0x3da5270a	0.08064087
99	0x3cc4722f	0.023980228
100	0xbe023a99	-0.12717666
101	0xbc91190d	-0.01771214
102	0xbccac601	-0.024752619
103	0xbdc80c68	-0.09767991
104	0x3d8c98ee	0.068651065
105	0xbe01bb77	-0.12669168
106	0x3cd6229a	0.026139546
107	0xbbd77131	-0.0065747728
108	0x3e1a4ff4	0.15069562
109	0x3d9e930e	0.07742892
110	0x3d4fc73f	0.050727125
111	0xbd3b4cfe	-0.045727722
112	0xbe15a355	-0.14613087
113	0xbdbadd1c	-0.091242045
114	0x3bee323c	0.007269172
115	0xbdc7f8f5	-0.09764282
116	0x3d2b4f95	0.041823942
117	0xbdb2802a	-0.087158516
118	0xbd65f542	-0.0561421
119	0xbcea1b2e	-0.028577413
120	0xbd51add3	-0.051191162
121	0xbd681a7b	-0.05666588
122	0x3d9eb4ea	0.0774935
123	0xbdb155e7	-0.08658963
124	0x3db7e085	0.089783706
125	0x3da701dc	0.081546515
126	0xbdc91d8b	-0.09820088
127	0xbd6b6ec7	-0.057478692
128	0xbc3fcd5e	-0.011706678
129	0x3d7f962f	0.062399086
130	0x3df782e2	0.12085511
131	0x3e186733	0.14883117
132	0x3cf1e77a	0.029529322
133	0x3e0cdf1c	0.13756984
134	0x3c110dee	0.008853419
135	0x3ccc3fc0	0.024932742
136	0xbdff1f83	-0.12457182
137	0x3e0ecf09	0.13946165
138	0xbe0b4274	-0.13599569
139	0x3db56b54	0.08858362
140	0x3e0d16bb	0.13778202
141	0x3dbd7d06	0.09252362
142	0x3e0d1382	0.13776973
143	0xbdff6e61	-0.12472225
144	0x3d0665d6	0.032811962
145	0x3dabe5c4	0.08393434
146	0x3e0f9855	0.14022954
147	0xbda3a11e	-0.07989715
148	0x3e12ed21	0.1434827
149	0x3d251611	0.040304247
150	0x3d3ef04b	0.04661588
151	0xbd9a4d47	-0.07534271
152	0xbe02c654	-0.12770969
153	0x3e03a856	0.12857184
154	0x3d2caf62	0.042159446
155	0x3c449f15	0.012000819
156	0x3d81f080	0.063447
157	0x3c32ac17	0.010905287
158	0x3d3b9e05	0.045804996
159	0x3d7aa0bf	0.061188456
160	0xbe0f47c5	-0.13992222
161	0x3d9c6223	0.076359056
162	0x3c88b177	0.016686184
163	0xbc813744	-0.015773423
164	0xbd8cb3e5	-0.0687025
165	0xbd654c68	-0.05598107
166	0x3d0d5cb2	0.03451223
167	0x3dd81f8d	0.10552893
168	0xbe0414c0	-0.1289854
169	0xbdf0e234	-0.11761895
170	0xbde68748	-0.112562716
171	0x3dec5ad5	0.11540762
172	0xbd2267e8	-0.039649874
173	0x3aaa2e4b	0.0012983767
174	0x3d610ff6	0.054946862
175	0xbda2b440	-0.07944536
176	0x3d9fe1c9	0.07806737
177	0xbe17622a	-0.1478354
178	0xbda0f063	-0.0785835
179	0xbd70406a	-0.05865518
180	0x3da55287	0.080723815
181	0xbdf4badf	-0.11949705
182	0x3ddb47de	0.10707067
183	0xbd0a2e9e	-0.033735864
184	0xbe09205e	-0.13391253
185	0xbddb340a	-0.10703285
186	0x3ddd3628	0.10801345
187	0x3e06a3f4	0.1314848
188	0xbe1042e7	-0.14088021
189	0xbc2eb1f8	-0.010662548
190	0xbd75c352	-0.060000725
191	0x3d06968a	0.03285841
192	0xbc9774b4	-0.018488266
193	0xbd9dcebf	-0.07705449
194	0xbdcf9eaf	-0.10137688
195	0x3d29d18e	0.041459613
196	0x3d4fe303	0.050753605
197	0x3cb0cba5	0.02158148
198	0xbd598fd5	-0.053115685
199	0xbd4bf34b	-0.04979257
200	0x3d20c265	0.03924789
201	0xbe0008ba	-0.12503329
202	0x3dfec864	0.12440565
203	0x3da6db3b	0.08147284
204	0x3c56b12d	0.013103765
205	0x3c9636d4	0.018336691
206	0xbcdccb47	-0.026952399
207	0xbb9343ac	-0.004494151
208	0x3e133e0a	0.14379135
209	0xbe12eed5	-0.1434892
210	0xbd1cfa87	-0.03832486
211	0xbdab8087	-0.08374124
212	0xbe0b23a4	-0.13587815
213	0xbd15d095	-0.036575872
214	0x3e187f60	0.1489234
215	0x3d16ff00	0.03686428
216	0x3dfe35fa	0.12412639
217	0x3d2b26b9	0.041784976
218	0x3e1633a6	0.1466814
219	0xbd2047e8	-0.039131075
220	0x3dcd9a15	0.100391544
221	0x3d49fa98	0.04931125
222	0xbc1b6d6a	-0.009486536
223	0x3c1af872	0.009458648
224	0x3d843a7a	0.06456466
225	0xbdd9b854	-0.10630861
226	0x3da12afc	0.07869527
227	0xbba2bca7	-0.004966337
228	0xbdd0c436	-0.10193674
229	0x3d8f9d28	0.07012397
230	0xbd813a93	-0.0631
231	0x3dc4943e	0.095985875
232	0xbda73fe9	-0.08166487
233	0x3d5128fa	0.05106447
234	0xba8ebf98	-0.001089084
235	0x3daee8d5	0.08540503
236	0xbd71e477	-0.05905577
237	0xbd598e97	-0.0531145
238	0x3d3391b3	0.04384012
239	0xbdfed608	-0.12443167
240	0x3e066565	0.13124616
241	0xbe0d479c	-0.13796848
242	0xba5bab88	-0.0008379747
243	0xbd26a5de	-0.040685527
244	0x3b6d9da6	0.0036257296
245	0xbe192d72	-0.14958742
246	0x3e0282b1	0.12745167
247	0xbe141ad0	-0.14463353
248	0xbdbee02d	-0.09320102
249	0xbd591971	-0.05300278
250	0x3d359500	0.04433155
251	0xbc70b20a	-0.014690885
252	0xbd881cc7	-0.06646114
253	0x3daaa7d3	0.08332791
254	0x3d1e43f7	0.038639035
255	0x3e0bd926	0.13657054

bias f4 [128]
0	0xba7f188b	-0.0009731135
1	0xbad41a36	-0.0016182128
2	0xbc47340c	-0.012158405
3	0xbb92360f	-0.0044620107
4	0xbbdd7345	-0.006758126
5	0xbba1a8fa	-0.0049334737
6	0x3a0ff4c7	0.0005491492
7	0x3a737c59	0.00092882436
8	0x3ba67289	0.0050795716
9	0xbaa44802	-0.0012533667
10	0x3bea6ac9	0.007153843
11	0x3bbcc878	0.0057612024
12	0x3b9acb60	0.004723951
13	0x3bab8efa	0.00523555
14	0x3af80945	0.0018923661
15	0x3aafb74a	0.0013406065
16	0xbbb09025	-0.005388277
17	0xbb7a2906	-0.0038171425
18	0x3b1b2244	0.0023671547
19	0xbb972c54	-0.0046134386
20	0xb9637539	-0.00021692076
21	0xb9372f07	-0.00017469759
22	0xbb2ee99c	-0.0026689535
23	0xbb75b7ae	-0.0037493515
24	0xbc156e13	-0.009120482
25	0x3af0a37b	0.0018359268
26	0xbb8eb68d	-0.004355258
27	0xbb57f2b0	-0.003295105
28	0x3bfd96c8	0.007738922
29	0xbb56cf57	-0.0032777393
30	0xbaa286a9	-0.0012399751
31	0xbb5fb4d5	-0.0034134884
32	0x3b00d2f2	0.0019656983
33	0x3ae6b683	0.0017602
34	0x3a687881	0.0008868054
35	0x3a87184d	0.0010306925
36	0x3a1fe7c3	0.0006099904
37	0xbb042557	-0.0020163858
38	0xbb510ca1	-0.0031898397
39	0x3be49ae3	0.0069764717
40	0x3b11842d	0.0022204027
41	0x3b86d42b	0.004114648
42	0xbac03f48	-0.0014667297
43	0x3bcad9ba	0.006190506
44	0x3c14b86b	0.009077172
45	0xbba763ce	-0.005108333
46	0xbb37036c	-0.0027925624
47	0x3ae89ccc	0.0017746924
48	0xbb55fa47	-0.0032650398
49	0xbb3348aa	-0.0027356544
50	0x38b6829a	8.702763e-05
51	0x3bfe2779	0.0077561704
52	0x3b8046e6	0.0039147018
53	0xbb19eaba	-0.0023485855
54	0x3a3cc509	0.00072009914
55	0xbb59fcca	-0.0033262246
56	0x3b8c5fff	0.0042839046
57	0xbb58ecdf	-0.003310017
58	0x3b8ad154	0.0042363796
59	0xbb8780b6	-0.0041352166
60	0xba1670ca	-0.0005738853
61	0xbb985d79	-0.0046498147
62	0x3c2aad73	0.01041733
63	0x34f5d6c8	4.579108e-07
64	0x3b2d023a	0.0026399032
65	0x3b36f32b	0.0027915935
66	0x3b9191e5	0.004442441
67	0x3b4b0bcd	0.0030982376
68	0xb9911c9a	-0.00027677865
69	0x3b0dba8b	0.002162608
70	0xbb828f4b	-0.003984367
71	0xbbc525ad	-0.006016454
72	0xbb1f32c3	-0.002429173
73	0x3a43140e	0.0007441648
74	0xbbe87e55	-0.007095138
75	0xbb032272	-0.0020009545
76	0xbb3b7c8a	-0.0028608167
77	0x3b89318f	0.004186816
78	0xbb75fe92	-0.003753577
79	0xbb900fe3	-0.004396425
80	0x3be122d6	0.006870608
81	0x38aa83e5	8.130799e-05
82	0xbb8b3a0b	-0.0042488626
83	0xbba62a70	-0.005070977
84	0x3b13d60c	0.0022558002
85	0xbbd669ab	-0.0065433583
86	0xbbc8827f	-0.006119072
87	0x3b1dc0c8	0.0024071205
88	0xbb903a5f	-0.0044014896
89	0xb8c78051	-9.51296e-05
90	0x3b6d942b	0.0036251645
91	0x3a2490b7	0.00062776677
92	0xbbb12fd3	-0.0054073124
93	0x3b962b09	0.004582767
94	0x3c488c72	0.012240516
95	0xbbbf5893	-0.0058394163
96	0x3b80c9da	0.0039303126
97	0xbb1c0135	-0.002380443
98	0xba876b9e	-0.0010331755
99	0xbb5bfebc	-0.0033568582
100	0xbb93ca3e	-0.004510193
101	0xbb72e175	-0.0037060652
102	0x3a08516b	0.00052001205
103	0x3b6407f9	0.003479479
104	0x3b5b03be	0.0033418979
105	0x3a474109	0.00076009386
106	0xbb8bdb8f	-0.004268117
107	0x3ab0bb35	0.0013483526
108	0xbad87a08	-0.001651586
109	0xbbb0c72a	-0.005394836
110	0xbaf2a034	-0.0018510879
111	0x39fd764e	0.00048344064
112	0xbb278827	-0.002556333
113	0xb8c4079c	-9.347426e-05
114	0x3a6b70e5	0.0008981361
115	0xbbcb9eff	-0.006214022
116	0xbba899e5	-0.005145299
117	0xbb20d511	-0.002454106
118	0x3b905008	0.0044040717
119	0x3b875dd7	0.0041310596
120	0xbb8646ee	-0.004097811
121	0xbbdaf186	-0.006681624
122	0xbb4e1fc1	-0.0031452032
123	0x3b8aca23	0.0042355224
124	0xbb41934c	-0.0029537259
125	0x3be7bc37	0.0070719975
126	0x3baac515	0.0052114823
127	0x3afec42c	0.0019437126

weight f4 [128, 128]
0	0x3de6fd31	0.11278761
1	0xbe0ad8e3	-0.13559298
2	0xbdc59bf5	-0.09648887
3	0x3d8a5979	0.06755347
4	0x3e1ad762	0.15121225
5	0x3e08441b	0.1330723
6	0x3d04f2fd	0.032458294
7	0x3dde300d	0.10849009
8	0xbe086eab	-0.13323466
9	0x3c82e968	0.015980437
10	0xbe18e448	-0.14930832
11	0x3d1b9e42	0.037992723
12	0xbc18c5a4	-0.009324465
13	0x3e156f95	0.14593346
14	0x3d5c1439	0.053730223
15	0xbd0dfccd	-0.034664918
16	0x3cc192ca	0.023629565
17	0x3dab1bd1	0.08354915
18	0x3d96ddb5	0.07366506
19	0xbe0ef2ad	-0.13959761
20	0x3d302601	0.043004993
21	0xbda2727c	-0.079319924
22	0x3d973902	0.0738392
23	0x3dc74c69	0.09731371
24	0x3e14c0b4	0.14526635
25	0x3ba61a94	0.0050690863
26	0x3af0fa60	0.0018385164
27	0xbe07669c	-0.13222736
28	0x3da92c05	0.08260349
29	0x3de38aba	0.11110444
30	0xbdff010f	-0.12451374
31	0x3cfba659	0.03071897
32	0x3e1944b7	0.14967619
33	0xbd37b9ae	-0.044854812
34	0x3e191d09	0.14952482
35	0x3e11eac3	0.1424971
36	0xbdcd76d7	-0.100324325
37	0xbd59e615	-0.05319794
38	0x3e1a65c4	0.15077883
39	0x3d9696aa	0.07352956
40	0xbe074844	-0.13211161
41	0x3e09bb6d	0.13450404
42	0xbc966c58	-0.01836221
43	0xbe0439f3	-0.12912731
44	0xbdfe2cb6	-0.12410872
45	0xbd4a452f	-0.049382385
46	0xbc547d9b	-0.0129694
47	0xbd54ff7b	-0.052001458
48	0xbdb16eb3	-0.08663692
49	0x3cc19a59	0.023633169
50	0xbdf7a235	-0.120914854
51	0xba2635b3	-0.0006340399
52	0x3d99c11c	0.07507536
53	0x3d0aa92d	0.033852745
54	0xbda49072	-0.08035363
55	0x3df635d0	0.12021983
56	0xbd82012e	-0.06347881
57	0x3d8f8312	0.070074216
58	0xbc026bef	-0.007960304
59	0x3e09706b	0.1342179
60	0xbdba8c24	-0.09108761
61	0xbd66e47c	-0.056370243
62	0xbd585eaf	-0.052824672
63	0xbce00fd8	-0.027351305
64	0x3b8b0b82	0.004243315
65	0xbd599df4	-0.05312915
66	0xbd97b188	-0.07406908
67	0x3ca9fe42	0.020751122
68	0x3dff03a4	0.12451866
69	0xbdad93a2	-0.08475424
70	0x3d26ff07	0.040770557
71	0x3df3b7c0	0.11900282
72	0xbe183bb9	-0.14866532
73	0x3e0bf803	0.13668828
74	0xbdb67779	-0.08909506
75	0x3e13eb8c	0.14445323
76	0x3d9c5804	0.07633975
77	0xbe18caa1	-0.14921047
78	0x3e022c9a	0.12712327
79	0x3d988fb8	0.07449287
80	0x3df23955	0.118273415
81	0x3aa2e50f	0.0012427884
82	0xbd96b191	-0.07358087
83	0xbe19a564	-0.15004498
84	0x3e0f0e00	0.13970184
85	0xbcb550ab	-0.022133192
86	0xbdc63360	-0.09677768
87	0xbd220c37	-0.03956243
88	0xbdd765be	-0.10517453
89	0xbe0de24b	-0.13855855
90	0x3df370bd	0.118867375
91	0x3dc53d84	0.09630874
92	0xbc8a629f	-0.01689273
93	0x3e1b295b	0.15152495
94	0x3e0d61b8	0.13806808
95	0xbd512bd1	-0.051067177
96	0xbdd60f57	-0.104521446
97	0x3e13f2ea	0.14448133
98	0x3dbc1098	0.091828525
99	0x3dc8bbd4	0.0980145
100	0x3d2f0c52	0.04273636
101	0xbdd82f73	-0.10555925
102	0xbe0e549e	-0.13899466
103	0x3e11b1f5	0.14228041
104	0xbdb412b3	-0.08792629
105	0x3ded6a71	0.11592568
106	0xbca1b09d	-0.019737536
107	0x3de3db61	0.111258276
108	0xbd84a272	-0.064762965
109	0x3d649575	0.055806596
110	0xbd1a0b4b	-0.037608426
111	0xbd02f425	-0.031971116
112	0x3e02d738	0.12777412
113	0xbc69ad2a	-0.014262477
114	0x3dd2cfce	0.10293542
115	0xbc78ebac	-0.015192907
116	0xbe03e8db	-0.12881796
117	0x3e01dc62	0.12681726
118	0xbdd3e250	-0.103459
119	0xbd190f36	-0.037368022
120	0x3b95c86f	0.0045710127
121	0x3dc5c678	0.096569955
122	0xbb148a5d	-0.0022665479
123	0x3c81f52c	0.015863977
124	0xbe05c8b7	-0.13064848
125	0x3d3f7ead	0.046751667
126	0x3de05066	0.10952835
127	0xbe101c19	-0.14073218
128	0xbdda6b9f	-0.10665058
129	0x3db5b360	0.08872104
130	0x3db06cc9	0.08614499
131	0x3de91b00	0.11382103
132	0x3e02ef58	0.12786615
133	0x3e048f98	0.12945402
134	0x3c9768bc	0.018482558
135	0x3dc48935	0.09596483
136	0x3dc57eeb	0.09643348
137	0xbd2bb999	-0.041925047
138	0x3da60a5f	0.08107447
139	0x3cc57a20	0.024106085
140	0x3ced1e00	0.02894497
141	0x3d3493a9	0.044086132
142	0x3ddaf8fa	0.1069202
143	0xbe0c52db	-0.13703482
144	0xbcb9bc5e	-0.022672828
145	0x3d6d45f6	0.057928048
146	0x3d87367a	0.066021875
147	0xbb525ed0	-0.003209997
148	0x3de3cc7a	0.11122985
149	0xbe0d9f97	-0.1383041
150	0xbc7700bc	-0.015075859
151	0x3d4430b6	0.047898017
152	0x3d11f6a5	0.03563561
153	0xbd9b5496	-0.07584493
154	0xbe08aff9	-0.13348378
155	0xbdb7ba67	-0.089711
156	0xbdbfe67d	-0.09370134
157	0x3d2296a5	0.039694447
158	0x3caa00b3	0.020752287
159	0xbdd635e8	-0.104595006
160	0xbdf4101c	-0.11917135
161	0x3dff3a89	0.124623366
162	0x3dab721f	0.08371376
163	0xbe04ffcc	-0.12988204
164	0xbdbee917	-0.09321802
165	0x3e032b75	0.12809546
166	0xbe142e73	-0.14470844
167	0x3dbec6c6	0.09315257
168	0xbd862975	-0.06550876
169	0x3df143cb	0.117805086
170	0x3dcc1186	0.0996428
171	0xbdc14bbb	-0.094382726
172	0xbe0b30f8	-0.13592899
173	0x3dacfbda	0.084464744
174	0x3d66d1d6	0.05635246
175	0xbd3d274d	-0.04618006
176	0xbe0af513	-0.13570051
177	0x3d2acb21	0.041697625
178	0xbe150ab5	-0.14554866
179	0x3d6170c7	0.055039193
180	0xbd4dd15d	-0.050248493
181	0xbd861cb2	-0.06548442
182	0x3e019963	0.12656169
183	0x3d88dbcc	0.06682548
184	0x3d1f5e58	0.038908333
185	0x3ce143ca	0.027498145
186	0x3e099c36	0.13438496
187	0x3d17e8d7	0.037087288
188	0x3d83bd7d	0.064326264
189	0xbd16f81f	-0.03685772
190	0x3cfa3ca9	0.030546503
191	0xbd6172ab	-0.055040997
192	0xbc02880e	-0.007967008
193	0x3d460646	0.048345827
194	0x3dab4217	0.08362215
195	0xbd85b152	-0.06527962
196	0xbd468303	-0.048464786
197	0xbd47e8df	-0.048806068
198	0x3da6399c	0.08116457
199	0xbdb93101	-0.0904255
200	0xbe1740b3	-0.14770775
201	0xbd5bb008	-0.053634673
202	0xbb3a2174	-0.0028401287
203	0x3dfdc33a	0.12390752
204	0x3c8eea58	0.017445728
205	0x3d91a064	0.0711067
206	0x3d5eaa9c	0.054361925
207	0xbe1b299a	-0.15152588
208	0x3da31b64	0.07964209
209	0x3d62e1f8	0.05539128
210	0x3dcfa6f0	0.10139263
211	0xbda7635b	-0.081732474
212	0x3d848ec4	0.06472543
213	0xbc526f16	-0.012843868
214	0x3cb3e11a	0.021957923
215	0xbd036e82	-0.03208781
216	0x3e188f17	0.14898334
217	0xbdcdf042	-0.10055591
218	0xbd7b8f4b	-0.06141595
219	0xbdd3883d	-0.1032872
220	0x3cd8f862	0.026485626
221	0xbe13265b	-0.143701
222	0x3da391e9	0.079868145
223	0x3dafb58c	0.08579549
224	0x3d471898	0.04860744
225	0x3e091780	0.13387871
226	0x3dcc02c5	0.09961466
227	0xbd4c9df7	-0.049955335
228	0xbc5872bd	-0.0132109495
229	0x3ceb7224	0.02874095
230	0xbe0d88c9	-0.1382171
231	0xbdac9c51	-0.084282525
232	0x3d88d2d5	0.06680838
233	0xbe1b5f3a	-0.15173045
234	0xbbef7005	-0.007307055
235	0x3c8d5a30	0.017254919
236	0xbd29d2f4	-0.041460946
237	0x3ba0b349	0.004904185
238	0xbd6f5e94	-0.058439806
239	0x3c536d7f	0.012904524
240	0x3e18533f	0.14875506
241	0xbde273b2	-0.110572234
242	0xbc4a724b	-0.012356351
243	0x3db8aea1	0.09017683
244	0x3dbab5ba	0.09116693
245	0xbd9defb0	-0.077117324
246	0x3c5fda1e	0.013662843
247	0x3d83f512	0.06443228
248	0x3d47e997	0.048806753
249	0xbd4cc9cb	-0.049997132
250	0xbdea43d7	-0.11438721
251	0x3b73c076	0.0037193573
252	0x3e046b26	0.12931499
253	0x3dc06104	0.09393504
254	0xbd4649a1	-0.04841006
255	0x3d8e2f52	0.069426194

bias f4 [128]
0	0x3bdd9248	0.006761823
1	0x3bb8f1ba	0.0056440504
2	0xb9d505b0	-0.00040630763
3	0x3b4db573	0.003138867
4	0x3b72841f	0.003700502
5	0x3a94f098	0.0011363206
6	0x3bd997d8	0.0066404156
7	0xba43ef1d	-0.00074742903
8	0xbba42952	-0.0050098086
9	0xb97d2e36	-0.00024145175
10	0x3b833eb4	0.0040052775
11	0xba122481	-0.00055748975
12	0xbbd8593d	-0.006602435
13	0x3b3d3605	0.002887131
14	0xbc11826e	-0.0088811945
15	0x3aa052d7	0.001223172
16	0xbb688f20	-0.00354857
17	0xbbd3ee7b	-0.006467638
18	0x3be773b3	0.007063353
19	0xbb80f10c	-0.003934985
20	0xbb4ab6dd	-0.003093175
21	0xbae1070b	-0.0017168237
22	0x3b9ddad2	0.004817345
23	0x3b3cd8d7	0.002881577
24	0xb84ef151	-4.933897e-05
25	0x3b6c0cea	0.003601844
26	0xbbad7a2b	-0.0052941046
27	0xbb3d911a	-0.0028925599
28	0xbb54c7db	-0.0032467756
29	0xbb91990e	-0.0044432944
30	0xbb411c70	-0.0029466413
31	0xbbcfa967	-0.006337333
32	0xbc34b1b4	-0.011028696
33	0x3b34a07e	0.002756148
34	0xbb810aa4	-0.003938036
35	0x3add4fd8	0.0016884757
36	0xbaf029f3	-0.0018323049
37	0xbbc95ba7	-0.006144959
38	0x3ba5b77f	0.005057275
39	0x3ace8fcd	0.0015759409
40	0x3b8e43eb	0.0043415925
41	0x3b696289	0.003561171
42	0x39cf8039	0.0003957765
43	0xbc07a228	-0.008278407
44	0xbc215b4b	-0.009848426
45	0x3ba8118a	0.005129044
46	0xbb4bad24	-0.0031078542
47	0xbb8ea5fb	-0.0043532825
48	0x3b93f6a0	0.004515484
49	0xba4c79c7	-0.00078001287
50	0xbba2dc35	-0.0049700984
51	0xbbf4d636	-0.007471825
52	0x3b18b150	0.0023299046
53	0x3b0a1333	0.0021068573
54	0x3b8ac2db	0.0042346544
55	0x3c016090	0.007896557
56	0xbb9e7422	-0.0048356215
57	0x3a8cc3c3	0.0010739494
58	0x3b8d67fe	0.0043153754
59	0xbc170a39	-0.009218746
60	0x3bd91ac1	0.006625504
61	0x3b260e60	0.0025338158
62	0xbbcdf915	-0.0062857964
63	0x3b942159	0.004520577
64	0xb98f579f	-0.00027340368
65	0x3baa6d26	0.005201
66	0xbb875933	-0.0041305064
67	0x39f2e680	0.00046329573
68	0xbb167c5c	-0.0022962308
69	0x3aacaca4	0.001317401
70	0x3bcbf2cf	0.0062240134
71	0x3bec777a	0.007216391
72	0x3b8f501c	0.0043735635
73	0xbbe56384	-0.0070003886
74	0xbb6f3766	-0.0036501526
75	0xbbb6429e	-0.0055621406
76	0x3b53e90a	0.0032334947
77	0x3bbd30a4	0.0057736207
78	0x3b907ff2	0.0044097835
79	0x3c00f5d2	0.007871108
80	0xbb7cbb97	-0.003856396
81	0x3b824530	0.003975533
82	0xbbb6ec03	-0.005582334
83	0xbb06cc0d	-0.00205684
84	0xbc19fb32	-0.009398269
85	0xbb8ac7db	-0.0042352504
86	0x3b04f3f7	0.0020287016
87	0xb9e2674c	-0.0004318304
88	0x3a8ddc69	0.0010823134
89	0xba771112	-0.0009424846
90	0xbb889e5e	-0.0041692695
91	0xbb2a0b55	-0.0025946696
92	0xbb7cb03f	-0.00385572
93	0xbb9244bc	-0.00446376
94	0x39eaf325	0.00044813115
95	0xbb409463	-0.002938532
96	0xbb4c4022	-0.0031166156
97	0x3bdab3c3	0.0066742613
98	0xbbbc342c	-0.005743524
99	0xbb9e3a0b	-0.0048286966
100	0xbb0ca777	-0.0021462122
101	0xbbbef06e	-0.0058270013
102	0x3b722a47	0.0036951469
103	0x3c089d5e	0.0083383005
104	0x3bc5a9e5	0.006032216
105	0x3b5ce630	0.0033706538
106	0xb7a74b1b	-1.9942925e-05
107	0xbb1faba9	-0.0024363792
108	0xbc1f5035	-0.009723713
109	0x3bc3b5e6	0.0059726117
110	0x3b396e3a	0.002829446
111	0xb9d4cfc7	-0.00040590597
112	0x3bf4baa4	0.0074685384
113	0x3b81fe11	0.0039670547
114	0x3bb98d72	0.0056626135
115	0xbbb39865	-0.0054808133
116	0x3b6cb685	0.0036119532
117	0xbbb69b29	-0.0055726958
118	0x3ba6080d	0.0050668777
119	0xbbf6446f	-0.007515482
120	0xbbcee17a	-0.0063135
121	0xbb6c8bc2	-0.0036094044
122	0x3b54196d	0.0032363788
123	0x3b952f7c	0.0045527797
124	0xbb0658c3	-0.0020499683
125	0xbbccacff	-0.0062462087
126	0x3b07c21a	0.0020715059
127	0xbb5c1a56	-0.0033585033

weight f4 [128, 128]
0	0x3c789eba	0.015174562
1	0x3d54d785	0.051963348
2	0x3be19517	0.006884228
3	0xbbe163b2	-0.0068783397
4	0x3e009f7e	0.12560841
5	0x3da4d80f	0.080490224
6	0xbd803626	-0.06260328
7	0xbe0076be	-0.12545297
8	0xbe0a2163	-0.13489299
9	0x3d04b207	0.032396343
10	0xbd40e36a	-0.04709188
11	0x3db70783	0.089369796
12	0x3e0c4e57	0.1370176
13	0xbb3e91ef	-0.0029078682
14	0xbd7f07f6	-0.06226345
15	0xbc9c6a2e	-0.0190936
16	0x3df9652e	0.121775016
17	0x3d9338fe	0.07188605
18	0x3dda2fe8	0.10653669
19	0x3df9ba9f	0.12193798
20	0x3cd30226	0.02575786
21	0x3bf984c2	0.007614703
22	0x3cad94f0	0.021189183
23	0xbdcac65f	-0.099011175
24	0x3e1a7ebc	0.15087408
25	0xbcd1411b	-0.02554374
26	0xbd8bae71	-0.068203814
27	0xbd99124f	-0.07474195
28	0xbd5f7e53	-0.05456383
29	0x3dca275a	0.09870787
30	0xbc82d221	-0.015969338
31	0xbdf7d914	-0.12101951
32	0x3d7083ce	0.05871945
33	0x3d683764	0.05669345
34	0xbcb7c1ac	-0.022431217
35	0xbd24e1f8	-0.040254563
36	0x3d936589	0.07197101
37	0x3dc8e6cb	0.09809645
38	0xbe0d8ae8	-0.1382252
39	0xbd85131f	-0.06497788
40	0xbccc58bc	-0.024944656
41	0xbdb3e7f3	-0.08784475
42	0xbdfe2892	-0.12410082
43	0x3c730e76	0.014834991
44	0x3db24d64	0.08706167
45	0xbc4e0ee7	-0.012576795
46	0xbd32f8cd	-0.043694306
47	0x3dfe6384	0.12421325
48	0x3d3f96cd	0.046774674
49	0x3dfc9315	0.12332741
50	0xbdc94569	-0.09827692
51	0xbde8822c	-0.11352953
52	0x3b74ac0a	0.0037333989
53	0xbd8fe70a	-0.07026489
54	0xbd6f5357	-0.05842909
55	0x3e10aa16	0.14127383
56	0xbd79b321	-0.060961846
57	0xbd59df4d	-0.05319147
58	0xbe15df38	-0.14635932
59	0x3dbdf27a	0.09274764
60	0x3e0c56b4	0.1370495
61	0xbdc8bf7c	-0.09802148
62	0x3d6b5529	0.057454262
63	0x3d342899	0.04398403
64	0x3e0e07ff	0.13870238
65	0x3e00fa96	0.12595591
66	0x3cb36cf2	0.021902535
67	0x3df5b5f6	0.11997597
68	0xbda1ecc0	-0.079064846
69	0x3d79e9fc	0.06101416
70	0x3d9d4de0	0.07680869
71	0x3dbbe512	0.09174551
72	0x3a3ed677	0.00072798826
73	0x3de4d88c	0.111741155
74	0xbe133666	-0.1437622
75	0x3e073134	0.13202363
76	0x3deb8ab4	0.11501065
77	0xbdeb5725	-0.11491231
78	0x3df049c6	0.11732821
79	0x3ccccdce	0.02500048
80	0xbd5147aa	-0.051093735
81	0x3c951891	0.01820019
82	0x3d648205	0.05578806
83	0xbd5a482b	-0.05329148
84	0xbda113f0	-0.07865131
85	0xbd9d4f02	-0.07681085
86	0xbe0c8c3c	-0.1372537
87	0x3c0453c0	0.008076608
88	0x3d64a19b	0.05581818
89	0xbd48b169	-0.048997317
90	0xbdb8d726	-0.09025411
91	0x3d0a2fd3	0.033737015
92	0xbcf7d4dd	-0.030252868
93	0xbd82981c	-0.06376669
94	0x3ca8daee	0.020612206
95	0x3dd146e9	0.10218603
96	0x3d55056a	0.052007116
97	0xbd5063df	-0.050876494
98	0x3da833bb	0.08212992
99	0xbe0e7d2d	-0.13914938
100	0x3dcf198e	0.10112296
101	0xbe1a72bf	-0.15082835
102	0x3e193eda	0.14965382
103	0x3cd1ca0c	0.025609039
104	0x3c2d2af9	0.0105693275
105	0xbd2ead51	-0.042645756
106	0xbe18dfcf	-0.14929126
107	0x3dd61053	0.10452332
108	0x3e0000c2	0.12500289
109	0x3dc0acbc	0.094079465
110	0x3e0cd547	0.13753234
111	0x3e06d473	0.1316698
112	0x3d971894	0.07377735
113	0xbe18de2e	-0.14928505
114	0x3dbffe76	0.093747064
115	0xbddd5882	-0.10807897
116	0xbdf7e6b4	-0.1210455
117	0xbb0fe9b4	-0.0021959366
118	0x3d719270	0.058977544
119	0x3e11a78c	0.1422407
120	0xbcf1978f	-0.029491214
121	0x3e046a7a	0.12931243
122	0xbdd46e92	-0.10372652
123	0xbd2e303c	-0.04252647
124	0xbde2aee4	-0.11068514
125	0xbc92c7f8	-0.017917618
126	0xbdacebbd	-0.08443401
127	0x3bccb150	0.0062467232
128	0x3d27a617	0.04092988
129	0xbe023425	-0.12715204
130	0xbdff061b	-0.124523364
131	0x3e09ad8e	0.13445112
132	0x3d1aa482	0.037754543
133	0x3e1a39c7	0.15061103
134	0x3e09c16a	0.13452688
135	0x3dd104c0	0.10205984
136	0x3d9d267a	0.076733544
137	0x3c8f3b47	0.01748432
138	0x3d2d0987	0.042245414
139	0x3e0182fb	0.12647621
140	0x3c307608	0.010770328
141	0x3e076cb8	0.13225067
142	0xbd032c44	-0.032024637
143	0xbd98dde5	-0.07464198
144	0xbd891553	-0.066935204
145	0x3df0f4b5	0.11765424
146	0x3dd8ce14	0.10586181
147	0x3df3edb4	0.11910573
148	0x3db8a009	0.09014899
149	0x3d58905f	0.052872058
150	0x3deba7a1	0.11506582
151	0xbdb8e19b	-0.09027406
152	0xbce2ec3a	-0.027700532
153	0xbd5b49a3	-0.053537022
154	0x3ddd4134	0.10803452
155	0xbe1c2288	-0.15247548
156	0xbe0b95d2	-0.1363137
157	0x3dbe0a60	0.092793226
158	0x3df5d12d	0.12002788
159	0xbe076798	-0.13223112
160	0xbd88f27c	-0.06686875
161	0x3e14cffd	0.14532466
162	0x3d97ce82	0.07412435
163	0x3d99a1f6	0.07501595
164	0x3deb56e3	0.11491182
165	0x3d53cdc2	0.051709898
166	0x3ae6f17a	0.0017619573
167	0xbe05f1c6	-0.1308051
168	0xbdaf868e	-0.08570586
169	0xbde80abd	-0.11330173
170	0xbda98b9f	-0.08278584
171	0xbd5d9b6a	-0.054103293
172	0xbc148d44	-0.0090668835
173	0xbd861cd1	-0.06548465
174	0x3cc3773b	0.023860564
175	0x3d881912	0.06645407
176	0xbe06f9da	-0.13181248
177	0xbda73e34	-0.08166161
178	0x3d52a734	0.05142899
179	0x3d7a2d78	0.06107852
180	0xbd8e6872	-0.06953515
181	0x3ca5960c	0.02021315
182	0xbcf73b5d	-0.030179674
183	0x3df22ea1	0.118253
184	0x3db1f6ee	0.08689676
185	0x3e07eebc	0.13274664
186	0xbc6ccc76	-0.014453044
187	0xbd119345	-0.035540838
188	0x3da84f47	0.08218246
189	0x3e085adb	0.13315909
190	0x3da7404e	0.08166562
191	0x3b79f64a	0.0038141184
192	0xbc20425f	-0.009781449
193	0x3d968e57	0.07351368
194	0xbde084ac	-0.10962805
195	0x3dd424fc	0.10358617
196	0x3cee1a61	0.029065313
197	0x3e01dbd1	0.1268151
198	0xbe15dd43	-0.14635186
199	0xbcc9461e	-0.024569567
200	0x3de0a190	0.109683156
201	0x3d94c901	0.07264901
202	0xbdc046eb	-0.093885265
203	0xbd9e9b57	-0.077444725
204	0xbc582b43	-0.013193908
205	0xbda10b52	-0.07863487
206	0x3dcd74ef	0.10032069
207	0xbe138106	-0.14404687
208	0xbcf05740	-0.029338479
209	0x3dec7dff	0.11547469
210	0xbc289b63	-0.010290953
211	0x3dae43f8	0.08509058
212	0x3d3b9897	0.045799818
213	0x3e0f684c	0.1400463
214	0x3db62ba4	0.088950425
215	0x3d80fda2	0.062983766
216	0xbd54f332	-0.05198974
217	0xb99931e0	-0.00029219594
218	0xbdf5f19b	-0.12008973
219	0xbceb5a32	-0.028729532
220	0xbdca2697	-0.09870642
221	0xbdcfa24f	-0.1013838
222	0x3e1a0a34	0.15042955
223	0x3e019b7a	0.12656966
224	0xbe009924	-0.12558419
225	0xbdeaea2b	-0.11470445
226	0x3d9405c6	0.07227664
227	0x3db073d5	0.08615843
228	0x3dcf91b2	0.10135211
229	0x3dd28a75	0.10280315
230	0xbddb3ee9	-0.107053585
231	0x3d7cbdcb	0.06170444
232	0xbb7e82f4	-0.0038835378
233	0xbd8894b1	-0.06668986
234	0x3e11b7d1	0.14230277
235	0xbd9b6d91	-0.075892575
236	0xbdd71537	-0.10502093
237	0x3d05bf76	0.032653295
238	0xbdd0a651	-0.10187972
239	0x3cee03d9	0.02905457
240	0xbd7b0c45	-0.061290998
241	0x3e0e066c	0.13869637
242	0xbd0606ff	-0.032721516
243	0x3d5bcc49	0.05366162
244	0xbd3d840f	-0.04626852
245	0x3e1dad42	0.15398124
246	0xbe0231f4	-0.12714368
247	0x3b443e63	0.0029944412
248	0xbd492329	-0.049105797
249	0x3d3972f7	0.045275655
250	0x3da05bc0	0.0783
251	0x3dcb19cc	0.0991703
252	0x3e082a1d	0.13297315
253	0x3e12038f	0.1425917
254	0xbdf1281a	-0.11775227
255	0xbd5dd77d	-0.054160584

bias f4 [128]
0	0xbbf1bdfb	-0.0073773838
1	0x3b9ded28	0.004819531
2	0x3c0e2bce	0.008677436
3	0x3b05cc84	0.002041609
4	0x399913b3	0.0002919711
5	0xbbd59914	-0.0065184925
6	0xbc1e2fc0	-0.009654939
7	0xbbead62f	-0.007166646
8	0x3b95b4f0	0.0045686886
9	0x3be81330	0.0070823655
10	0x3adf7019	0.0017046958
11	0x3beaaf7e	0.0071620336
12	0xbbcb1f44	-0.0061987955
13	0x3b82f78a	0.003996794
14	0xbb69f01e	-0.00356961
15	0x3b892eeb	0.0041865013
16	0xbb8945a3	-0.0041892095
17	0xbbd6339e	-0.006536915
18	0xbb3bd96b	-0.0028663527
19	0xbc0a0f36	-0.008426478
20	0xbb3535c8	-0.0027650464
21	0x3baba7a4	0.00523849
22	0x3b8db4a0	0.0043245107
23	0xbbf02334	-0.0073284153
24	0x37533fd8	1.2591445e-05
25	0x3b97bf8e	0.0046309894
26	0xbc15b9a6	-0.0091385
27	0xbbe3b8f2	-0.0069495374
28	0xbc0dae9d	-0.008647588
29	0x3bae301e	0.0053157946
30	0xbbce2042	-0.0062904665
31	0x3b7250e6	0.0036974489
32	0xbb30d4f1	-0.0026982392
33	0x3ba6fa97	0.0050957906
34	0x3b3bbd19	0.0028646647
35	0x3bec173c	0.007204918
36	0xbbd59839	-0.0065183905
37	0xb9fc6c33	-0.000481458
38	0x3abc22d2	0.0014353639
39	0xbbb56e15	-0.0055368044
40	0x3c05d12c	0.008167546
41	0xb9696b6f	-0.00022260634
42	0xbb1f09e9	-0.0024267382
43	0xbbe2a173	-0.006916219
44	0xb994eccb	-0.00028405184
45	0xbc00b88e	-0.007856501
46	0xbafcef7e	-0.0019297448
47	0xbbf99fc9	-0.007617925
48	0x3c175c36	0.009238293
49	0xbba9bcb3	-0.0051799654
50	0xbbf0605d	-0.007335706
51	0x3c006f68	0.007839061
52	0x3b50055b	0.0031741473
53	0x3bbf276c	0.005833557
54	0xbbb9a228	-0.0056650825
55	0xbb550f1b	-0.0032510224
56	0xbb20cd61	-0.0024536478
57	0xbb79bf11	-0.003810827
58	0xbbddf16e	-0.0067731654
59	0xbc086b42	-0.0083263535
60	0xba3706a3	-0.0006981885
61	0x3b9dd3c7	0.0048165056
62	0xbbdd40f7	-0.006752129
63	0xbc061b44	-0.008185212
64	0xbc0512b7	-0.008122138
65	0x3be90b41	0.0071119373
66	0xbbd524c5	-0.0065046274
67	0x3bbc7c83	0.0057521476
68	0xbbbd2abc	-0.0057729166
69	0x3b1617df	0.0022902412
70	0x3bbf9047	0.0058460566
71	0x3b99ec76	0.004697378
72	0xbbf878d3	-0.0075827627
73	0x39fe5492	0.00048509665
74	0xbbbc1a57	-0.0057404446
75	0xbb70a079	-0.0036716743
76	0xbbb4dcec	-0.0055195
77	0x3bfeafdf	0.0077724303
78	0x3b74da13	0.0037361428
79	0xbb815097	-0.0039463746
80	0xbb8f2bec	-0.0043692496
81	0x3c006d31	0.007838533
82	0xbbc42b1d	-0.005986585
83	0x3ad55434	0.0016275705
84	0x3b5bfa5c	0.0033565974
85	0xbb76e6bc	-0.003767415
86	0x3bd487d3	0.006485918
87	0x3b823562	0.003973649
88	0xbba8e85d	-0.005154653
89	0x39f7dec2	0.0004727748
90	0xbbda99c6	-0.0066711633
91	0x3ad1ed9b	0.0016016247
92	0x3be935ce	0.0071170097
93	0x3c020b41	0.007937253
94	0xbb06b002	-0.0020551686
95	0xbaf3eeca	-0.0018610593
96	0xbb9e75e6	-0.004835832
97	0xbb3b6a10	-0.0028597154
98	0xbbc3bd28	-0.005973477
99	0x3ba3fed7	0.0050047445
100	0xbb8ed755	-0.0043591657
101	0xbacf786c	-0.0015828735
102	0xbb7690fc	-0.0037623039
103	0xb984962b	-0.00025288886
104	0x3ac19926	0.0014770373
105	0xb91c39d6	-0.00014898865
106	0x3c067ef1	0.008208976
107	0x3bac37e5	0.0052556866
108	0x3bcd1c6a	0.0062594907
109	0x3bd38a5d	0.006455703
110	0xbb4818b1	-0.0030532295
111	0x3bc3c979	0.005974945
112	0xbbb172f7	-0.005415316
113	0xbab339a6	-0.0013673797
114	0x3a6c94e9	0.0009024875
115	0x3ba8980c	0.0051450785
116	0x3c09c745	0.008409326
117	0xbb23fc8e	-0.002502236
118	0x3bc358ab	0.005961498
119	0x3b7ed003	0.003888131
120	0x3bcfc330	0.006340407
121	0x3afe7727	0.0019414172
122	0x3ae6ee54	0.0017618635
123	0xb9b3031b	-0.00034143854
124	0x3c00c71f	0.007859974
125	0x3b86e311	0.004116424
126	0x3be55336	0.006998445
127	0xbb5019a9	-0.0031753576

weight f4 [128, 128]
0	0x3d1b17ee	0.037864618
1	0x3d6ff1bb	0.05858014
2	0x3da9336d	0.08261762
3	0xbdad0017	-0.08447283
4	0x3cac908f	0.021065025
5	0xbc0f34e1	-0.008740635
6	0x3cd999d6	0.026562613
7	0xbd975126	-0.07388525
8	0x3ddd7c15	0.108146824
9	0xbd4577f6	-0.048210107
10	0x3dd28138	0.10278553
11	0x3df19fe1	0.117980726
12	0xbe00e616	-0.12587771
13	0xbd51a348	-0.051181108
14	0xbdff3a46	-0.12462287
15	0x3d71afdb	0.0590056
16	0xbb432164	-0.002977454
17	0x3d52a3cd	0.051425744
18	0xbd98dd52	-0.074640885
19	0xbe1b7e33	-0.1518486
20	0x3de2a1d1	0.1106602
21	0xbd35c5e7	-0.044378188
22	0xbda7863e	-0.081799015
23	0xbdf20430	-0.11817205
24	0x3ddff711	0.10935796
25	0xbe10ae45	-0.14128979
26	0x3d7ca9ac	0.06168525
27	0xbe136082	-0.14392284
28	0x3bf42673	0.0074508726
29	0x3dbe29aa	0.092852905
30	0x3e003a8e	0.12522337
31	0x3bbd7788	0.0057820715
32	0xbd620a74	-0.05518575
33	0xbd6ad37e	-0.0573306
34	0xbe08569f	-0.13314293
35	0x3e06c22a	0.13160005
36	0x3e09487b	0.13406555
37	0x3e05e0aa	0.13073984
38	0xbd97c425	-0.074104585
39	0xbd517ff3	-0.051147413
40	0xbd4b653d	-0.049657095
41	0x3e26214e	0.16223642
42	0x3dd34df0	0.103176
43	0x3a08a563	0.0005212633
44	0x3dec8233	0.11548271
45	0xbdaa43ee	-0.08313738
46	0x3dfe0ec0	0.12405157
47	0xbdecbdfd	-0.11559675
48	0xbd274953	-0.04084141
49	0x3c6232a3	0.013806018
50	0x3dfb9a5e	0.122853026
51	0xbd186fca	-0.037215985
52	0xbd9eae12	-0.07748045
53	0xbcdb57d9	-0.026775287
54	0xbbb6d573	-0.0055796443
55	0xbc14438a	-0.009049306
56	0xbe0017ee	-0.12509128
57	0xbd8853dc	-0.0665662
58	0xbdd797a2	-0.105269685
59	0x3e0f3db6	0.13988385
60	0xbe0a1590	-0.13484788
61	0x3d790ba6	0.060802124
62	0xbdfc3de2	-0.12316491
63	0xbcdd9a35	-0.02705107
64	0xbd13498d	-0.035958815
65	0xbdfc8c92	-0.12331499
66	0xbd8c292b	-0.0684379
67	0xbcd4d3d2	-0.02597991
68	0xbd99ce92	-0.07510103
69	0xbde1dba3	-0.110282205
70	0x3e0a0d23	0.13481574
71	0x3e0565a7	0.13027059
72	0xbdf1b875	-0.118027605
73	0xbd67ecd2	-0.056622334
74	0x3d3febd0	0.046855748
75	0x3e0ffa3a	0.14060298
76	0xbd33b78a	-0.04387621
77	0x3d1122ec	0.035433695
78	0x3df9c8ec	0.12196526
79	0xbd73af14	-0.05949314
80	0x3df8ee5f	0.12154841
81	0x3dafe0ea	0.08587821
82	0x3dbb4951	0.09144843
83	0xbd185bce	-0.037196927
84	0x3cec5b01	0.028851988
85	0xbda3bfc4	-0.07995561
86	0xbb1c6b3c	-0.0023867628
87	0xbd5d1cd2	-0.053982563
88	0xbe0a34fc	-0.13496774
89	0xbe12033c	-0.14259046
90	0x3c5cfb3f	0.013487636
91	0x3df49215	0.119419254
92	0xbdd52d63	-0.104090475
93	0x3dadadfb	0.0848045
94	0xbc26224d	-0.010140014
95	0x3dee47f1	0.116348155
96	0xbdb92158	-0.09039563
97	0xbd8b1c5c	-0.067925185
98	0x3d829a77	0.06377118
99	0xbe136392	-0.14393452
100	0x3d882fbb	0.06649729
101	0xbe098009	-0.13427748
102	0xbde3296f	-0.11091887
103	0x3d9cac4d	0.07650051
104	0x3d553cbe	0.05205988
105	0xbd02dfd4	-0.03195174
106	0x3dd6e775	0.10493366
107	0x3dccb71d	0.099958636
108	0xbdae57e1	-0.08512855
109	0xbcb990fe	-0.022652145
110	0xbe1fdd3c	-0.15611738
111	0xbd3f0433	-0.046634864
112	0x3e1bba59	0.15207805
113	0xbd5f41c1	-0.054506067
114	0x3dd86916	0.105669186
115	0x3b0e8206	0.002174498
116	0x3de27575	0.110575594
117	0xbdffbabf	-0.12486791
118	0x3b8e1b2f	0.0043367366
119	0xbdbb37c5	-0.091414966
120	0x3c643d61	0.0139306495
121	0x3e0636fb	0.13106911
122	0x3cc69660	0.024241626
123	0xbd9e00d8	-0.07715005
124	0xbd0ba178	-0.034089535
125	0x3d26b10f	0.0406962
126	0x3e06a1cd	0.1314766
127	0xbe0972d8	-0.13422716
128	0xbdf80a4d	-0.1211134
129	0xbdea3d19	-0.11437435
130	0x3d9acf3d	0.07559059
131	0x3d9028d3	0.070390366
132	0x3df32fac	0.11874327
133	0xbd61cdea	-0.055128016
134	0xbc8dd037	-0.017311199
135	0x3e111137	0.14166723
136	0xbdaa6437	-0.08319896
137	0xbd9b3885	-0.075791396
138	0x3d18eb9e	0.037334077
139	0x3e1c3c8f	0.15257476
140	0xbd0fbeea	-0.03509418
141	0xbcd33983	-0.02578426
142	0x3df5f3ad	0.12009368
143	0x3da3e696	0.08002965
144	0x3cf5d7b7	0.030010087
145	0x3cd9e7c1	0.026599767
146	0x3cb9532f	0.022622673
147	0x3df0a483	0.11750128
148	0x3b16d5f6	0.0023015714
149	0xbdb808c5	-0.08986048
150	0xbdad1381	-0.08450986
151	0x3c9e0bd8	0.019292757
152	0xbc587769	-0.013212063
153	0x3dc63284	0.09677604
154	0x3df2ee67	0.11861878
155	0x3e0a45a7	0.13503133
156	0x3df816da	0.121137336
157	0x3c9753c6	0.018472563
158	0xbd4ca32f	-0.04996031
159	0xbd0509f8	-0.03248021
160	0x3d2c94ee	0.042134218
161	0x3d995e1a	0.074886516
162	0xbd73b87a	-0.059502102
163	0x3e0cd526	0.13753185
164	0x3ce9d5a1	0.028544249
165	0xbc74f338	-0.014950566
166	0x3d56017e	0.052247517
167	0x3ddfa830	0.10920751
168	0xbd7f8de3	-0.062391173
169	0x3dde7441	0.108620174
170	0xbdf6f0aa	-0.12057622
171	0x3d6fecc0	0.05857539
172	0x3d3a26b3	0.045447063
173	0x3b95faae	0.0045770025
174	0x3dc06737	0.09394687
175	0x3e184f43	0.14873986
176	0xbdd6492f	-0.104631774
177	0x3d7b387c	0.061333165
178	0x3dcaba5a	0.09898825
179	0xbd94f081	-0.07272435
180	0x3daa54a7	0.083169274
181	0x3c67617a	0.014122361
182	0x3e1957bd	0.14974876
183	0x3dc5ed4c	0.096644014
184	0x3e000fda	0.12506047
185	0x3c957c61	0.018247785
186	0xbdbd74bc	-0.09250781
187	0xbe1de913	-0.15420942
188	0xbdc32d8c	-0.09530172
189	0x3d4070ff	0.04698276
190	0x3df5d3c8	0.12003285
191	0x3dbdb145	0.09262327
192	0xbd175233	-0.036943626
193	0x3cb4d080	0.022072077
194	0xbcf6b5f5	-0.03011606
195	0x3d28b9a7	0.041192677
196	0xbd98b583	-0.074564956
197	0xbe1c233a	-0.15247813
198	0x3db8ec41	0.09029437
199	0x3d9323ec	0.07184586
200	0x3db02b89	0.08602054
201	0xbe19207d	-0.149538
202	0x3dda3909	0.1065541
203	0xbe0737a4	-0.13204819
204	0x3d11f6d1	0.035635773
205	0xbe14a987	-0.14517795
206	0xbe15d841	-0.14633276
207	0xbe1bcd7e	-0.15215108
208	0xbd218ea8	-0.03944269
209	0xbd8849f9	-0.06654734
210	0x3dd49ba6	0.1038125
211	0xbdf682a2	-0.12036635
212	0xbdfa277d	-0.12214563
213	0xbe19cb36	-0.15018925
214	0xbbaa4568	-0.005196262
215	0xbdfe45e7	-0.124156766
216	0x3dadeab3	0.08492031
217	0x3e05056e	0.12990353
218	0x3e078de1	0.13237716
219	0xbd9b62bb	-0.07587191
220	0x3d52d277	0.051470246
221	0xbc1093ce	-0.008824302
222	0x3dcebd22	0.10094668
223	0x3d48d871	0.04903454
224	0x3c8962a4	0.016770668
225	0x3dc63376	0.09677784
226	0x3dd822d1	0.10553516
227	0x3e2063db	0.15663092
228	0x3dd8c4a2	0.1058438
229	0x3e16f109	0.14740385
230	0xbe0d1ba8	-0.13780081
231	0xbd613211	-0.054979388
232	0x3d11baf5	0.035578687
233	0xbdacd275	-0.08438579
234	0xbd8d6d22	-0.06905581
235	0xbce87cab	-0.028379759
236	0x3e1890cb	0.14898984
237	0x3d1428e5	0.036171813
238	0x3e091f0d	0.13390751
239	0xbd1c2c4a	-0.038128175
240	0x3d9a0ad1	0.07521594
241	0xbd5423c0	-0.051791906
242	0x3c6e69a7	0.014551557
243	0x3e169983	0.14706998
244	0xbe0ed746	-0.13949308
245	0xbd04409e	-0.032288186
246	0x3d3217a2	0.04347957
247	0x3df063b2	0.11737765
248	0x3d00f977	0.03148791
249	0xbd3adc87	-0.045620468
250	0xbcf1379a	-0.029445458
251	0xbd6126f1	-0.054968778
252	0x3d94ced5	0.072660126
253	0x3cd2a2b3	0.025712347
254	0x3cacf954	0.021114983
255	0xbc8047f0	-0.015659302
